python/binarypath/binaries/gat_000027.pth (torch, 372431 bytes, 8 tensors)

gat_net.0.scoring_fn_target f4 [1, 8, 8]
00000000: efe7 953d 1de6 ec3d 603b 853c 5657 abbd
00000010: 5ae1 7cbd f205 663a 1516 a4bc 839e b03d
00000020: 0a51 4cbc aaed 49bd d6ce 063e c624 683d
00000030: 133f aa3b ea61 9fbd 88b2 653c df17 823d
00000040: dbb6 f43d e5dd 873d 31e6 02be 4a7c d2bb
00000050: 0e7b d53d a816 11be 49f6 56bd 1de4 db3d
00000060: cf6c 00bc 2347 bdbb 2ae1 7ebd ce15 7fbc
00000070: 8e41 283d 6716 db3d 98ea df3c 62e4 b5bc
00000080: ce2b d5bd 16cd 31bd e838 a5bc 9d3c a73d
00000090: d694 25bb 9fc5 033e f1ab 01be fe0f 11be
000000a0: 1ef1 fb3d 04b2 2f3c f8dc 0b3d d042 f63c
000000b0: 83fa 4d3d 6deb 71bd 4c80 fbbd 3de3 123d
000000c0: 8bb1 ee3c c8fa 9c3d 1d9b 4d3c b65f 8ebd
000000d0: bfd2 ef3c 9810 91bd ff6a 923d f30b a6bc
000000e0: de9e e8bc fe54 a73d 4c52 35bc 9125 5ebd
000000f0: 0049 9b3d 87ab 243e 1c04 d43c 191f 4abd
0.073196284 0.11567328 0.016263664 -0.083662674 -0.06173835 0.00087746896 -0.02003006 0.08623984
-0.012470493 -0.04929892 0.13164839 0.056675695 0.0051955073 -0.077823475 0.014019616 0.06352209
0.119489394 0.0663412 -0.12783124 -0.006423508 0.104238614 -0.14168799 -0.05248097 0.107368685
-0.007838442 -0.0057763024 -0.062226452 -0.0155691635 0.041078143 0.10697632 0.027333543 -0.022203628
-0.10408746 -0.043408476 -0.020168737 0.08165858 -0.0025265715 0.12868355 -0.12663247 -0.14166257
0.12301849 0.010723595 0.03414628 0.030061156 0.050287735 -0.05906241 -0.1228033 0.035861243
0.029137393 0.0766502 0.012549189 -0.06951849 0.029275296 -0.07083243 0.07149314 -0.02026937
-0.028396066 0.08170508 -0.011066984 -0.054235045 0.07582283 0.16081057 0.025880866 -0.049346063

gat_net.0.scoring_fn_source f4 [1, 8, 8]
00000000: eca4 5a3e b457 ab3e 4411 cb3d 3034 1fbe
00000010: a2f4 67be d1c2 bbbd 44f4 0b3c f28c 023f
00000020: 2cda d13d d6b8 79bd cd2b 033f 5226 c33e
00000030: 7761 473e de31 cabe de53 a7bd cf4f 0b3d
00000040: 4498 333e 40f6 703d b26d 67be d6e1 cc3d
00000050: d267 033f 6aa5 81be 1e88 88bd 5623 063e
00000060: dda6 87bd 54b8 75bd f972 debc 96cf 8cbe
00000070: 1768 c03d f67b 643e 1bca 8a3d aba7 98bd
00000080: 7fc3 e33b b625 9b3e c56f 6d3e fefd 8f3d
00000090: 4ceb 5dbe 3da8 d63e b322 10be 4fbd 47be
000000a0: 4c8b ac3e d4b8 a83e e6fc a3bd 21ad 95bc
000000b0: 9b8a a03d 1945 99be 99f0 21be 13b6 4fbd
000000c0: da35 3b3e 7d24 a33e f095 08be 8b4d 12be
000000d0: 6a27 f43d dfc5 85bd 2567 0e3e 375e a2be
000000e0: 2d87 8f3c b4bf 7e3e 29df 7dbd 04c7 d23d
000000f0: 447f 3dbe 7f40 7c3e d844 503c 3d40 973e
0.21351975 0.3346535 0.099154025 -0.15547252 -0.22651914 -0.09168018 0.008542124 0.50996315
0.10246691 -0.06096729 0.5123871 0.38115174 0.19470774 -0.3949117 -0.08170293 0.03401166
0.17538553 0.058828592 -0.22600439 0.10004012 0.5133029 -0.25321513 -0.06666587 0.13099417
-0.066236235 -0.059990242 -0.027154433 -0.27502126 0.093948536 0.22312912 0.0677683 -0.07453855
0.006950795 0.3030221 0.23187168 0.07030867 -0.2167179 0.4192523 -0.14075737 -0.19505809
0.33700025 0.32953513 -0.08007221 -0.01827103 0.07838937 -0.2993553 -0.15814437 -0.05071075
0.18282261 0.31863776 -0.13338447 -0.14287393 0.1192158 -0.065318815 0.13906534 -0.31712505
0.017520512 0.24877816 -0.0619804 0.102918655 -0.18505579 0.24633978 0.012711726 0.29541197

gat_net.0.bias f4 [64]
00000000: 3d30 fd3c fc08 013d 0a92 1c3d 8830 423c
00000010: 7c3f 7a3b 3278 8bbb a2b8 8c3c 1fe2 313c
00000020: e6ad 823c 4cb1 113b 6873 2b3c 2edf 9d3c
00000030: 3ef2 7b3d 30a7 3c3c 45f7 6e3c 3257 c03c
00000040: 860a afbc e9df bfbc f692 31bb b3a1 8b3c
00000050: 8c0f da3c 1f5b 033c f045 0abd 436d cf3c
00000060: 0f9c ef3c 1bdd 333c 49a0 fe3c 1c87 9abc
00000070: 0871 4f3d a7af 863c 0ad4 a03c 7735 fb3c
00000080: 1040 ec3c 9ed4 1d3d 002d 143c 67da ab3b
00000090: 864f b4bb 9063 983c 6a5d 853d b038 bf3c
000000a0: 4130 9b3d 427c 70bb 5f3e 73bc af07 433c
000000b0: ac80 f73c bc7a a93a 62d7 863c aaed ff3b
000000c0: dd98 bb3c 6ed4 8b3b 60e1 5c3c 1700 573c
000000d0: bfe9 8a3c 659f 093d ccb7 f8ba 1889 883c
000000e0: 9fac 373d f12d d93c ece3 4d3c b5c2 5b3c
000000f0: 94be 343b ad44 533c c248 d23c 5ed4 f43c
0.03090679 0.03150271 0.03822521 0.011852391 0.0038184812 -0.0042562718 0.017177884 0.010857134
0.015952062 0.0022230921 0.010464527 0.01927146 0.061510317 0.01151447 0.014585321 0.023479078
-0.021367323 -0.023422198 -0.0027095652 0.017044878 0.026618741 0.00801733 -0.033758104 0.025320655
0.02924922 0.010978009 0.03108229 -0.018863253 0.050644904 0.01644118 0.019632358 0.030665142
0.028839141 0.038532846 0.009043932 0.0052445414 -0.005502644 0.018602163 0.06511958 0.02334246
0.07577563 -0.0036695157 -0.014846413 0.011903687 0.030212723 0.0012930254 0.016460124 0.007810314
0.02290004 0.004267267 0.013481468 0.01312258 0.016957162 0.033599276 -0.0018975674 0.016666934
0.04484236 0.026511164 0.012566548 0.013413121 0.0027579414 0.012894792 0.02566946 0.02988642

gat_net.0.linear_proj.weight f4 [64, 1433]
00000000: 9adb d23d 59ed 823d c7ac 243c b524 47be
00000010: 1c77 af3e 03b6 403d 4a25 3dbe 56fd 363e
00000020: 4ac2 c53d d9fa d3bb 7571 663c 7b71 bf3d
00000030: e343 153e 8a95 9f3d 15b0 af3d 006f 1bbd
00000040: 53e5 0e3e e463 27bd c49c 113d 2c16 853e
00000050: 30ac 3c00 9059 72bc f1f9 853c 1864 19bd
00000060: ea3e 62bd b657 07be fcee e3b9 109d 603e
00000070: fab6 a23c fb9b c6bd a22d ecbd 7f5d 3f3c
00000080: 8f98 04bd 2eb1 86bb 31f4 343d 2779 a03d
00000090: 023c 0e3d d59f 303d a4c8 6b3a 1a0d cf3d
000000a0: 6fb5 ed3d f352 3b3e 632c 2c3c dccb 413d
000000b0: ed74 803d 1ee8 84bd 40e9 12bd 134a 99bd
000000c0: 8336 033c cb49 803c a38f c8bd d014 823e
000000d0: 98e1 99bd 6a90 21bd 4bbc 11be 0baf a33d
000000e0: 6107 9abe e3ba a53d 78a2 423e 6b7d d73d
000000f0: 608c f189 01be 6f3e 61cf 87bd 74fa 5cbe
00000100: a4da 2d3e b799 1ebe 3573 f5bd ec30 9dbd
00000110: 0d68 113d c7d7 96bc ce07 d1bc f302 1fbc
00000120: 0911 f33c 2c74 15bc b1e6 3ebd 0c66 6c3d
00000130: 56b1 00be 9028 6c3e 6a3f 1a3e 470d e93d
00000140: ed5a 3c3e 0c22 0abd da83 1d3e adcf 15be
00000150: e6e4 6c3c 8395 2d3e 9408 9d3c 0e15 d8bc
00000160: 58ae 5f3d e853 2dbc 0f45 87bd a551 9f3d
00000170: 1c5e 54bb 54bd 63bd 5c90 d83d 0264 213e
00000180: 1835 c43b f71e a6bc 7847 4bbe 6c0d 913c
00000190: 86a3 563c 03bf bdbb 44bc 1a3e e660 bf3c
000001a0: 7c07 493e 9622 21bc cb3f 2fbe 3f24 18bd
000001b0: 56b2 46be fa4d b53a c93f b4bd d1cd 223d
000001c0: 6c50 0cbd 2a11 ff36 5894 76bd ec10 9fbc
000001d0: 80b2 e5bb f6d4 083c 57bc ccbd 4638 f93c
000001e0: ae6b 5a3e 924b ff3c 6438 65be 9707 e5bb
000001f0: 2f18 1c3d 1a6a 373d b94d 28be 2744 dd3c
00000200: f789 3e3e 9aa8 2d3c 36dd b43d 54df aa3d
00000210: 4c8c f6bc 266b 61bc 8db2 873d f83f 803d
00000220: 9e40 153e 97ab da3a 2903 3aba 0a77 bcbc
00000230: 3a33 b0be be21 f7bc 9bc0 16bd 256c 93bc
00000240: 075c 903c 0d16 dc00 769e 55bd 730f 13be
00000250: 0230 febd 5c48 d33d b4b7 80bc d7cb 9f3d
00000260: 0077 913a 0fa3 cc3d 240c f2bc 38ec f53d
00000270: 91b6 a63b 9ba8 0b3e e3ac a0bc fbd7 2dbd
00000280: 299d 143e cf4e 993c f847 203e 7e93 debc
00000290: fbae 9abd 6586 11bd ae45 593d 047c 22bd
000002a0: 5f02 873e af67 c13c 68ab 7b3d ab99 953b
000002b0: d413 8d3d 146a c53d ead2 b2bd 69d9 e0bc
000002c0: f8e4 e9b9 2f41 29bd f1dc dcbd e634 37be
000002d0: ff72 83b9 c378 2d3d aad9 b73d 30a6 bfba
000002e0: e348 823c 477a c93a c5d8 9abd 5a3e a63c
000002f0: a945 fabd 2ebb b4bd 84bb 6c3b fa73 1fbe
00000300: 606c 023e d0f5 e9bc 8c9e 993d be7a c2bc
00000310: dfdd dc3d 918e 0b3e c3cd 4f3d 4415 233c
00000320: 8ce4 3fbd 7d6c 663c edf2 cfbc ef09 71bd
00000330: ad69 1f3c 2368 abbd 2565 a93d 443f 953d
00000340: 22e4 a63d cd21 6e3c 1813 263c 9183 523c
00000350: 3184 3a3e 45c1 2b3d 303c cbbd ac15 073d
00000360: 046c 013a 31b2 ac3d 5abe 873d 75a4 bdbd
00000370: b763 0bbe 9837 c73a 0938 9c3d 7c9f 163d
00000380: 4038 093e 550f 48be c6cb 263d 0757 b2bc
00000390: 7133 2abe a90d dcba 0b4a c83d 9d04 753c
000003a0: e2f8 7bbd b195 6dbd cb9c abbd d636 413d
000003b0: f309 c53d 4aab fabd 59cd d23d 1d5f 5b3c
000003c0: 6464 2b3d 3571 6dbb 90df a7bd 29a9 a0bd
000003d0: b077 5e3d b69f bdbd d6fa 42bb ae4e 3dbd
000003e0: 6e27 45bd 69d2 de3c 2648 ea3d 78ce 833b
000003f0: 8500 12bd 8142 1dbd cc29 e53d c4f8 76be
0.10295792 0.06392927 0.010050959 -0.19447596 0.3427056 0.04704858 -0.18471256 0.17870077
0.09656198 -0.0064691124 0.014065136 0.093478166 0.14576678 0.07792194 0.08578507 -0.037947655
0.13954668 -0.040866747 0.035549894 0.25993478 5.571899e-39 -0.014791861 0.016354533 -0.037448972
-0.05523578 -0.13217053 -0.0004347487 0.21934915 0.01986264 -0.0969772 -0.11532141 0.011680006
-0.032372054 -0.004110477 0.04417819 0.07835608 0.034725197 0.043121178 0.00089944364 0.10109921
0.11606871 0.18293361 0.0105086295 0.047313556 0.06272302 -0.06489585 -0.035866976 -0.07484832
0.008008602 0.015660187 -0.097930215 0.25406504 -0.07513732 -0.039444365 -0.14231984 0.07992371
-0.30083755 0.080922864 0.1900729 0.105219685 -5.8150648e-33 0.23412324 -0.06631351 -0.21579915
0.16977936 -0.15488325 -0.119848646 -0.07675347 0.03549962 -0.018413438 -0.025516417 -0.009705293
0.029671209 -0.009121936 -0.046606723 0.057714507 -0.12567648 0.23062348 0.15063253 0.113794856
0.1839406 -0.033723876 0.15382329 -0.14630003 0.0144588705 0.16951565 0.01916913 -0.026377227
0.054609627 -0.010579087 -0.06604969 0.07779244 -0.0032404726 -0.05560048 0.10574409 0.15760806
0.0059877746 -0.020278437 -0.19851482 0.017706595 0.01310051 -0.0057905926 0.1511088 0.023361634
0.19631761 -0.009834906 -0.17114179 -0.037143942 -0.19403967 0.0013832443 -0.088012286 0.039747063
-0.034256384 7.6015904e-06 -0.060200065 -0.019417249 -0.0070098042 0.008351555 -0.099968605 0.030422341
0.21330139 0.031163964 -0.22384793 -0.00698943 0.038109 0.04477892 -0.16435899 0.027010037
0.18607317 0.01059928 0.08831255 0.08343378 -0.030096196 -0.013758456 0.06625853 0.06262201
0.14575431 0.0016683218 -0.0007095808 -0.023005981 -0.34414083 -0.030167457 -0.036804777 -0.017995903
0.017622007 2.021172e-38 -0.052153073 -0.14361362 -0.124115005 0.10316536 -0.015712596 0.07802551
0.0011098087 0.099920385 -0.029546805 0.12007946 0.0050876816 0.13638537 -0.019613689 -0.042442303
0.14513077 0.018714337 0.15652454 -0.02716994 -0.07552906 -0.03552856 0.053044967 -0.03966905
0.26368997 0.02360901 0.061442763 0.004565438 0.068885475 0.096393734 -0.08731635 -0.02744742
-0.00044611818 -0.04132193 -0.10784329 -0.17891273 -0.00025071946 0.042351495 0.08977063 -0.0014621671
0.015903896 0.0015371524 -0.07560877 0.020293403 -0.12220318 -0.08824764 0.003612251 -0.15571585
0.12736654 -0.028559595 0.075009435 -0.023740169 0.10784506 0.13628604 0.05073334 0.009953801
-0.04684882 0.014063952 -0.02538439 -0.058847364 0.009729785 -0.08369472 0.08271245 0.072874576
0.08148982 0.014534426 0.010136388 0.012848751 0.1821449 0.041932363 -0.09923589 0.032979652
0.0004937055 0.08432425 0.066281036 -0.09259883 -0.13612257 0.0015199063 0.07627875 0.03677319
0.13400364 -0.19537099 0.040721677 -0.021770013 -0.16621186 -0.0016788739 0.097797476 0.014954713
-0.06151665 -0.058004085 -0.08379515 0.047171436 0.09621038 -0.12239702 0.10293073 0.013389376
0.041843787 -0.0036230807 -0.08196938 -0.07844765 0.05431336 -0.09258978 -0.002975156 -0.046217613
-0.048133306 0.02719994 0.114395425 0.0040224157 -0.035645027 -0.0383935 0.11189613 -0.24118334

gat_net.1.scoring_fn_target f4 [1, 1, 7]
00000000: 3c02 3cbd 2936 fd3d 204d 9e3c cea7 9f3d
00000010: d38f 1d3c ff65 5b3a fa77 93bd
-0.04590057 0.12363846 0.019323885 0.07795678 0.00961681 0.00083693856 -0.07200618

gat_net.1.scoring_fn_source f4 [1, 1, 7]
00000000: bc10 013d ff71 b13d 2bf8 063d 7883 fa3c
00000010: 5916 bb3d c7be 063d 3184 3b3d
0.0315101 0.08664321 0.032951515 0.030580267 0.09135122 0.032896783 0.045780364

gat_net.1.bias f4 [7]
00000000: 1599 efbc 48f7 c3bd 23d6 1e3c 23d3 cb3c
00000010: 582c cbbd 918f 3c3d 58dd b33d
-0.0292478 -0.095686495 0.009694609 0.024880951 -0.09920567 0.046035353 0.08782452

gat_net.1.linear_proj.weight f4 [7, 64]
00000000: a3ac a0bf 0592 8bbe d865 33bf 0a40 213f
00000010: 7898 003f a70e a43e be1b 4dbf c8c2 5cbf
00000020: a5f3 6f3f 03f1 843f a6b6 62bf 73a3 46bd
00000030: c528 a73e c03d 63bd d624 35bf 01b8 f33e
00000040: fd36 38bf c094 773d b55d 233f 1c00 85bf
00000050: d495 1bbf 6598 2bbf c1dd b2be c5a8 b2bf
00000060: fd27 a23e c4d2 4abe 5595 d23e 3aa8 923f
00000070: c77f 523e f03e 0c3f ddf2 3ebf a445 dd3d
00000080: 2155 3b3f e223 27bf a28c fa3e a587 9dbf
00000090: 23d5 483f b749 3c3e f36c 27be 39e4 833f
000000a0: 58cd 89bf 83e7 5c3d 402a 903f 9e73 4dbe
000000b0: 3113 61bf 3b16 1c3f 8828 bc3e d4d5 3bbf
000000c0: 7fb0 d83e 583e 803f 5ed8 aa3f a724 5ebf
000000d0: 0993 9ebf da28 16bf 94c8 543f ca4b a9be
000000e0: 5739 37bf 8a75 7d3e 676b 853f fdaf b13e
000000f0: 63a4 5a3f 01ea 9e3e 93ed a8bd 2f07 3c3f
00000100: ce99 de3e cdbd 473f b3c4 2c3f 8250 80bf
00000110: d730 a03e c856 b6bf c41f e3be 403b 1f3f
00000120: 9446 7dbf d8bd 0e3f 35a0 1e3f 1477 313f
00000130: 9b6a 0c3f 97df f5be 5b1f 78bf 28d2 48bf
00000140: 2980 cabe b37a d33d 5469 833f fdf7 ac3e
00000150: 7607 76bf fd55 3c3f 0e23 453f 6d99 85bf
00000160: 0bb3 91bf ee99 ae3e f8ff babf 267e 72be
00000170: bbe9 0abe 6650 f43e 25a6 393f 48e4 8c3e
00000180: d054 89bf da4a 3a3e 30ec 313e 3b0e 2e3f
00000190: 284a b6be 3637 cf3c e8af 83bf 0edc b6bf
000001a0: 6b9e c5bf da64 0abf 497d 12bf c3dc 80bf
000001b0: f2ab 48bf 5991 453f 4af7 e63e 2dba 2dbf
000001c0: c9e3 e23e 3f5a d03e 92ba 10bf 5076 84bf
000001d0: 0d0a c0bd b23c 32bf 82ce 93bf 2e3b 8abf
000001e0: 2765 d03e 3986 4f3f 7575 17bf ddba 8fbf
000001f0: 95c8 8fbf af33 f83e a427 243f a5de d73e
00000200: 8a1c 8ebf 940f 5cbf dd95 75bf da72 99bf
00000210: d931 81bf 5c74 8abf 5306 91be 741b 96bf
00000220: 1dad 35bf 8e09 99bf 926a 2d3f 5781 81bf
00000230: cfbf 583d 26e8 a9be 6123 233e ef48 0d3e
00000240: 94b8 893f 43eb 663f 6335 6dbf 044f 96bf
00000250: d927 9c3e 5091 3abf 44e2 063f 35aa c33e
00000260: f248 143f b719 22bf a682 20bf 66f3 c6be
00000270: 3718 b9bf 2dfd de3e 11df 173f 75f7 dcbf
00000280: 778d 70bf 9baa 12bd 1536 3ebf 6d99 40be
00000290: 0fc8 9a3c ac91 c8bf 13b9 df3e dfb2 c63e
000002a0: fc41 463d 6a15 623f 14a8 2abf ed38 8abf
000002b0: 77d2 693e b945 90bf 1ed7 c4bf 613b dbbe
000002c0: b483 7ebf 1241 453e 5b77 febe 5289 8cbf
000002d0: 16ce 0e3f 51fe 62bf d59f b63e 2d38 503f
000002e0: 3c89 9ebf c620 16bb 2a05 2bbf 8caf 25bf
000002f0: 8254 793f 354a bb3e ccb4 c23e 3ed8 9dbf
00000300: 202a b33e ca81 d13e 03ce 3f3f 9c4c ecbe
00000310: 3aac 5f3e ab8b 593f 291a 7abe 6772 10bf
00000320: 1607 88bf edee 83be 1abb 2bbf 3d1f 5fbf
00000330: 8635 bb3e 4b95 c93f 784b f73e 0e22 ef3e
00000340: fe28 213e 394d a5be b359 213f 0eb8 9dbf
00000350: b00f 34bf 673a ac3f f292 31bf 3169 3c3d
00000360: 0f2c a4bf bfdd 26bf 4bf5 4ebf d03c a43f
00000370: a3ae f43e e8cd c2be ea6e a2bf 4451 c3bf
00000380: 597a 87be 0de7 7abf 9235 a3bf 67b8 2e3f
00000390: 2e4b a53f 6544 a0bf e162 4d3e e865 26be
000003a0: ef93 d1bc 8f65 03bf 01df 37bf 4fea 083f
000003b0: c10c 873e 5024 ad3e e6f5 d0bd 0c83 483f
000003c0: 22e2 1b3f 4b5a 83bf 8cc9 9e3f 446c 143f
000003d0: 8430 6cbf a0c9 4f3f 11bd 89bf c8d9 c43e
000003e0: cdb9 cc3d 2725 94bf b0e1 14bf 2922 363e
000003f0: 027f e63e 9c7d a8bf 3a81 443f df2b 41bf
-1.2552685 -0.27259842 -0.70077276 0.6298834 0.5023265 0.3204243 -0.80120456 -0.8623471
0.9373115 1.0386051 -0.8855995 -0.04849572 0.32648292 -0.05547881 -0.7075933 0.4760132
-0.71958905 0.060444593 0.6381486 -1.0390658 -0.60775495 -0.6702941 -0.3493481 -1.3957754
0.31671134 -0.19806963 0.41129556 1.1457589 0.20556556 0.54783535 -0.7458933 0.108042985
0.7317677 -0.6528913 0.4893542 -1.230702 0.7845022 0.18387495 -0.16350155 1.0304023
-1.0765791 0.053931724 1.1262894 -0.20063636 -0.8791991 0.6097142 0.36749673 -0.7337315
0.42322156 1.0019026 1.334728 -0.8677468 -1.2388622 -0.58656085 0.8311856 -0.33065635
-0.7157187 0.24751869 1.0423402 0.3470458 0.85407084 0.31037906 -0.08248439 0.7344846
0.4347672 0.7802399 0.6748764 -1.0024569 0.31287262 -1.4245234 -0.44360173 0.62199783
-0.9893582 0.5575843 0.61963207 0.69322324 0.5485017 -0.48022148 -0.96922845 -0.78445673
-0.39550903 0.103261374 1.0266519 0.3378295 -0.96105134 0.7356871 0.77006614 -1.0437447
-1.1382765 0.34101814 -1.4609365 -0.23680934 -0.13565724 0.4771759 0.7251914 0.27517915
-1.0729008 0.18192616 0.17375255 0.67990464 -0.35603452 0.025294881 -1.0288057 -1.4285905
-1.543897 -0.5406014 -0.5722242 -1.0067371 -0.7838737 0.7717491 0.45110542 -0.67862207
0.4431441 0.40693852 -0.56534684 -1.0348606 -0.09376917 -0.69623864 -1.1547396 -1.079931
0.40702173 0.8106418 -0.591636 -1.1228901 -1.1233088 0.4847693 0.64122987 0.42162052
-1.110246 -0.8596127 -0.959318 -1.1988175 -1.0093337 -1.081676 -0.28325137 -1.1727128
-0.70967275 -1.1956041 0.6774074 -1.0117596 0.052917298 -0.33184928 0.15931465 0.13797353
1.0759454 0.9020273 -0.92659587 -1.1742864 0.3049915 -0.7287798 0.52689004 0.38215795
0.57923806 -0.6332049 -0.62699354 -0.38857573 -1.4460515 0.43552533 0.5932475 -1.7263018
-0.9396586 -0.035807233 -0.7430127 -0.18808527 0.018894223 -1.5669456 0.43695888 0.38808343
0.04840277 0.88313925 -0.66662717 -1.0798622 0.22834192 -1.1271278 -1.5378149 -0.4281874
-0.99419713 0.19263104 -0.49700436 -1.0979407 0.5578321 -0.88669306 0.35668817 0.8133572
-1.2385631 -0.0022907718 -0.66804755 -0.6472099 0.97394574 0.36580053 0.38028562 -1.2331617
0.34993076 0.40919334 0.74923724 -0.46152198 0.21843043 0.8497874 -0.24424042 -0.56424564
-1.0627162 -0.25768223 -0.6708237 -0.8715704 0.36564273 1.5748686 0.48299766 0.4670567
0.15738294 -0.3228548 0.63027495 -1.2321794 -0.7033644 1.3455323 -0.69364846 0.045998756
-1.2825946 -0.6518211 -0.8084304 1.2831059 0.47789487 -0.3804772 -1.2690098 -1.5259175
-0.2646053 -0.98008806 -1.2750723 0.68250126 1.2913568 -1.2520872 0.2005725 -0.16249812
-0.025583236 -0.5132684 -0.7182465 0.53482527 0.26376918 0.33816767 -0.102031514 0.7832496
0.60891926 -1.026193 1.2405257 0.579777 -0.9226153 0.8116703 -1.0760823 0.38447404
0.09996376 -1.1573838 -0.5815687 0.17786469 0.45018774 -1.3163333 0.76759684 -0.75457567
