python/binarypath/binaries/gat_000030.pth (torch, 372431 bytes, 8 tensors)

gat_net.0.scoring_fn_target f4 [1, 8, 8]
000000 76 71 ff 3c 0e 05 eb 3c 2e 40 19 3c 14 90 38 bc
       0.031182032 0.028688934 0.009353681 -0.01126482
000010 b0 1b 3b bd f8 9f b4 bb a9 8e bf 3d 7f a4 83 bc
       -0.0456807 -0.005512234 0.09353382 -0.016069649
000020 db 8c 1c bd 9b ea a2 3d b8 ff b3 3d ce ad b1 3d
       -0.038220268 0.07954904 0.08789009 0.08675729
000030 db 42 34 3c a7 e2 a1 3d d0 d5 ba 3c e4 d5 22 3d
       0.011002268 0.07904559 0.022807032 0.039754763
000040 1c ad f0 3c 72 d7 44 bd 50 dc ec 3c a0 32 33 3d
       0.02937942 -0.048057027 0.028913647 0.04374945
000050 39 53 b2 3c bc 70 81 3d 42 bb 22 bd 46 91 1f 3d
       0.0217682 0.063203305 -0.039729364 0.038956903
000060 64 86 80 bd 73 b8 45 bd b0 c5 64 bb ef 9e 54 3c
       -0.06275633 -0.048271608 -0.003490787 0.012977346
000070 ea f2 9f 3d 0e 8e 86 bd 5f a3 15 bd 66 ca fb 3c
       0.07810004 -0.065700635 -0.036532756 0.03073616
000080 a4 da c6 3c 9c fc e0 3c b1 d6 b0 3b 3a ae 39 3d
       0.024274178 0.027464204 0.005396687 0.04533217
000090 38 96 03 ba a4 1b 7b 3b c9 6e 1f 3d 00 fd 30 bc
       -0.0005019638 0.0038316036 0.038924012 -0.010802507
0000a0 aa 2b 27 bd 1f db 21 3d 8d b2 7d bd 31 10 ae bd
       -0.040813126 0.03951561 -0.061937857 -0.08499182
0000b0 4d 0b 06 3d 61 22 a3 3b 5b 6b 27 3d 38 f9 c3 3c
       0.03272562 0.0049784635 0.040873867 0.023922548
0000c0 e3 51 f2 3d a3 ea 98 bc cf 4e c3 bd 9d 29 08 3d
       0.11832025 -0.018666571 -0.09536516 0.03324281
0000d0 04 83 9d 3d 8e 0e b7 3d 61 c3 1d bc dc 6d 18 bd
       0.07691005 0.08938323 -0.0096291015 -0.037214145
0000e0 61 81 37 bc 17 ff 9c 3d 93 fc d8 bd 37 e9 d9 3d
       -0.01120028 0.07665842 -0.1059505 0.10640185
0000f0 90 2f 9b bc f2 42 9b 3c 60 0c b7 3c 0a 14 8c bd
       -0.018943578 0.01895282 0.022344768 -0.0683976

gat_net.0.scoring_fn_source f4 [1, 8, 8]
000000 9c 7d a0 3e 5d d1 24 3e 86 be b8 bd ef 59 08 3d
       0.31345832 0.16095491 -0.090207145 0.033288892
000010 b5 a3 92 bd d4 a8 6f ba 3a e5 e9 3e f1 8e 71 bc
       -0.07160131 -0.0009142284 0.45682698 -0.014743553
000020 ca af 3f bd 2b e4 89 3e 9b 7c b8 3e 9d c4 46 3e
       -0.046798505 0.2693189 0.36032566 0.1941094
000030 10 4a 9e 3d 50 2a a3 3e 97 4b 61 3e 99 57 61 3e
       0.0772897 0.3186822 0.22001491 0.22006072
000040 07 a6 8d 3e bb df 5f be 21 12 99 bc c4 7f a2 3e
       0.2766573 -0.2186269 -0.018685402 0.31738102
000050 d5 68 87 3e d0 ec af 3d 57 b7 94 be 95 fa 6e 3e
       0.26447168 0.0859009 -0.29046127 0.23337777
000060 da c1 ac be 40 00 44 ba 0e bc 14 3e dc d8 30 3d
       -0.33741647 -0.0007476844 0.14524862 0.043175563
000070 25 42 0c 3e fb 38 93 be 51 4c b1 be d6 ae 81 3e
       0.13697107 -0.2875441 -0.34628537 0.25328702
000080 ed ed a3 bd 1e 4d 1c 3e 44 3d 4c 3e b5 bb c8 3d
       -0.08004365 0.15263793 0.19945246 0.09801427
000090 ae 15 df 3e 6d 26 46 3d 96 2c 82 3e d3 e3 e1 bd
       0.43571228 0.04837649 0.2542464 -0.11029782
0000a0 91 77 b0 3d b6 3f ae 3e c9 ec 9a be d5 67 26 be
       0.086165555 0.34032983 -0.30258778 -0.16250546
0000b0 0f 99 19 3e 82 7b 81 3d 77 be 2e 3e ab a6 c7 3e
       0.14999793 0.06322385 0.17064844 0.38994345
0000c0 f4 7a cd 3e 99 f5 7e 3d 45 16 96 be a0 49 fa 3d
       0.40132868 0.06224594 -0.29313865 0.12221074
0000d0 7e b3 4b 3e 3e 50 c0 3d db 98 de bc c1 9a 25 be
       0.1989269 0.09390305 -0.027172497 -0.16172315
0000e0 07 fa 59 bd 79 18 52 3e 63 fa 48 be 13 07 36 bc
       -0.05321696 0.20517148 -0.19626765 -0.011110085
0000f0 1f db 03 bd c5 bb 06 3d 40 06 42 3d b8 98 98 bd
       -0.032191392 0.032893915 0.04736924 -0.07451004

gat_net.0.bias f4 [64]
000000 a2 9f ae 3c bb 90 9f 3c bf b9 c5 3a b4 68 67 3c
       0.021316353 0.019478193 0.0015085264 0.014124084
000010 08 68 ac bc 40 15 ae ba 60 e5 0e 3c 44 02 7f 3c
       -0.0210457 -0.001328148 0.008721679 0.015564505
000020 7c 35 aa 3c 90 d9 a7 bc 0d bf 8f 3c 0d b4 67 bc
       0.020777456 -0.020489484 0.017547155 -0.014142049
000030 a8 a9 00 3b 50 37 90 3c 17 dd d2 3c bb dc 91 3c
       0.0019632373 0.0176045 0.02574019 0.017805448
000040 44 a0 e1 3b d0 57 75 3c 1b bf 08 3c 6c 7c da 3c
       0.00688556 0.014974549 0.008346344 0.026670657
000050 4d 0c 15 3d 5b 16 fc 3c 39 6f a3 bb 36 b5 98 3c
       0.036388684 0.030772379 -0.004987624 0.018641096
000060 58 45 36 bc 37 6e 57 3b 1c 8b d7 3a b6 ea 8b 3d
       -0.011124931 0.003287209 0.0016444656 0.06831877
000070 eb 39 10 3d 48 d5 61 3c 7c be 09 3d b8 af 97 3b
       0.035211485 0.01378376 0.033628926 0.0046291016
000080 dc 13 13 ba 8e 8d 10 bd 76 8a 30 bc f1 a1 54 3d
       -0.0005610564 -0.035291247 -0.010775199 0.05191225
000090 60 2c 59 3d 6b 2a 1f 3d d8 91 62 bb af c3 93 3c
       0.053020835 0.038858812 -0.0034571793 0.018037645
0000a0 4a 94 21 ba 4e 27 e0 3b 83 ab 3a 3c 34 a0 e2 bb
       -0.00061637594 0.006840623 0.011393431 -0.0069160704
0000b0 d6 0d 0b 3d 33 01 fe ba 7f d8 3e bd e4 0e ce 3c
       0.03394874 -0.001937902 -0.046593186 0.025153585
0000c0 a3 a3 87 3c 01 4e 8e bb 8e 47 bd 3c 68 4a 3f bc
       0.01655752 -0.004342795 0.023105409 -0.011675455
0000d0 38 90 13 3d 9a 5c 9e 3b ce a5 97 bc f7 20 af 3c
       0.03602621 0.0048328163 -0.018511679 0.021378024
0000e0 5f fc 75 3c 2a cd 2a 3b 97 76 d7 3b 8e d8 d4 3b
       0.015013783 0.0026062229 0.0065754163 0.006495542
0000f0 87 17 05 3d 07 94 a2 3c 8f 1f c5 3c 5b 41 1a 3d
       0.03249314 0.019845976 0.0240629 0.037659984

gat_net.0.linear_proj.weight f4 [64, 1433]
000000 69 9f fd 3b df 35 b6 3d a3 41 fc 3c 5b 02 c8 bc
       0.0077399504 0.08896994 0.030793017 -0.024415186
000010 ce 69 1a 3e 41 ea c3 3d e5 a7 7a 3d cd 54 89 3d
       0.15079424 0.09566165 0.061195273 0.067056276
000020 36 2a 3a bd e7 2d 69 3c 07 63 26 3e 10 fe 80 bd
       -0.04545041 0.014232135 0.16248713 -0.062984586
000030 ba 4e cb 3d 36 e1 85 bc 68 4b f0 3c 88 87 b5 bd
       0.09927125 -0.01634274 0.029332832 -0.08863741
000040 0b ed ac bd 30 bc 7d 3d 58 30 7d be ca f2 97 bd
       -0.0844365 0.061947048 -0.24725473 -0.07419355
000050 6f 99 eb ba 01 3f d4 3d ae ab e5 ba c1 14 a9 bd
       -0.0017974804 0.103635795 -0.0017522478 -0.082559116
000060 b3 53 9b 3c 9e f7 18 3e 37 40 46 bb a6 03 27 be
       0.01896081 0.14938208 -0.0030250677 -0.16309986
000070 c9 55 37 3c 61 4f e8 3d 17 1b 1a bd 1c 43 b7 bb
       0.011189886 0.11343265 -0.03762349 -0.005592717
000080 f2 5e 93 bc b8 4b 71 bd c9 e3 32 3c 4f 7e 1c 3d
       -0.01798961 -0.0589101 0.010918566 0.038206395
000090 d6 1a cd bd f1 b1 b1 3c b2 e6 15 3e 58 7d df 3c
       -0.10014884 0.021691294 0.14638785 0.027281448
0000a0 61 d8 13 3e 23 19 42 3d 0e ac a8 bc 72 1b 57 3a
       0.14438011 0.047387253 -0.020589855 0.0008205689
0000b0 7e cf e9 bd 74 31 10 bc e6 c4 ee 3c 50 cc 12 bd
       -0.11416529 -0.008800853 0.029146623 -0.03583938
0000c0 53 bf aa bc 26 22 7c 3d 22 f9 b8 bd db 6d 9d be
       -0.020843184 0.061556004 -0.09031893 -0.30747876
0000d0 54 c3 4b bb 36 ac 21 bd c4 78 56 3d 59 3f 1f bd
       -0.0031091766 -0.039470874 0.052361265 -0.038878772
0000e0 79 78 5a 3d eb 6c 8b 3d f9 bc 12 be 79 ad 2a 3e
       0.053337548 0.06807884 -0.143299 0.16667737
0000f0 30 84 45 3a c3 05 51 3c c9 fe 6f 3d 1c 22 51 3e
       0.0007534651 0.012757721 0.05859259 0.20423168
000100 14 50 2a be 98 47 d9 3d fd 0e fd 3c f8 86 ea 3c
       -0.1663211 0.106093585 0.030890936 0.028628811
000110 4a 71 81 bc 38 21 0a be f1 7f a8 bd 5f 1d 4e 3d
       -0.01580109 -0.13489234 -0.08227528 0.05032098
000120 d8 84 dc bc 84 44 60 bd 28 5a 1a 3d 90 87 ce bc
       -0.026918814 -0.05475284 0.037683636 -0.025211126
000130 88 2a e4 bd b6 67 44 be 28 ba 64 bc e3 45 e2 bb
       -0.11140925 -0.19180188 -0.013960399 -0.006905304
000140 10 16 c7 39 de 3b 37 bd a5 c0 93 3d c1 ff e5 3c
       0.00037972676 -0.04473483 0.072144784 0.028076055
000150 23 4c 16 3b bc 17 1d bd 11 a1 e8 bd 6d fd 0e 3d
       0.0022933565 -0.038352713 -0.11358846 0.034909654
000160 ef 25 30 be 63 3a 04 be f0 75 36 bd ac e7 90 bd
       -0.1720197 -0.12912898 -0.044546068 -0.07075438
000170 f0 e7 c3 bc 78 cc 0e 3e 11 a5 29 3d 75 70 27 be
       -0.023914307 0.13945186 0.041417185 -0.16351493
000180 60 8a 66 3d dc cf 33 bd 50 e0 31 39 e9 0b ae 3d
       0.05628431 -0.043899402 0.00016963598 0.084983654
000190 d8 61 df bd c8 a9 e4 bb 26 11 2c be d8 58 48 bd
       -0.10907334 -0.0069782473 -0.16803417 -0.048912853
0001a0 aa 18 c0 bd 4e fd f6 bd 49 75 cd 3b 79 40 ce bd
       -0.09379704 -0.12060033 0.006270085 -0.10070891
0001b0 3e 2e bd bc f3 f0 98 3c 0f c1 02 3d f5 a4 a1 3c
       -0.023093339 0.018669581 0.031922396 0.019731978
0001c0 7f a2 c6 bd ac 74 50 ba 77 2a 09 bb 72 99 a1 3a
       -0.096989624 -0.0007951956 -0.0020929852 0.0012329055
0001d0 7a 70 74 bd 7c fd c6 bc ea 95 45 3d 01 cf 90 3d
       -0.05967758 -0.024290793 0.048238672 0.07070733
0001e0 d9 81 05 bd 4a f4 85 bd 27 03 5a 3d dd 37 8b bc
       -0.032594535 -0.06540735 0.053225663 -0.016994411
0001f0 e0 2b a1 bc af 14 17 be 36 a5 d9 bc 7a 88 b3 bd
       -0.019674242 -0.14753984 -0.026568037 -0.08766265
000200 77 39 00 be 27 6e 90 bd 30 10 86 3d 81 2b 0f be
       -0.12521921 -0.0705226 0.06546056 -0.13981439
000210 ee c6 6a bc d7 f7 30 bd 4d 99 4f bc da 1c 39 be
       -0.014329655 -0.04320511 -0.012670827 -0.18077412
000220 b1 1e 9d bc 1c bb 42 3a 72 37 70 ba 75 94 b5 bd
       -0.019179674 0.0007428394 -0.00091635354 -0.088662066
000230 35 52 50 3e ab 54 ff bc a1 05 96 3d 19 5a 69 bd
       0.2034386 -0.031168303 0.073252924 -0.05697069
000240 04 32 9c 3c 78 bf 07 3c f2 cd d3 bc a0 77 28 3d
       0.019066818 0.008285396 -0.025855038 0.04112971
000250 be 0c f2 bb 56 02 8d bd d7 98 17 bd 64 55 fd bc
       -0.007386773 -0.06885211 -0.037010994 -0.030924506
000260 b1 8a c1 bb 65 24 53 bd ec fb 3e 3d f1 b6 97 3c
       -0.005906426 -0.05154838 0.04662697 0.01851985
000270 31 e7 07 bd 08 da c8 bc 68 87 5d bc f7 a3 fc 3c
       -0.033179466 -0.024518028 -0.013521053 0.030839903
000280 b6 85 59 bb c8 96 26 bd 05 34 9d bd b9 3a 6c 3c
       -0.003319127 -0.04067114 -0.076759376 0.014418297
000290 93 1b bd 3b 88 cf 17 3c 7c 41 22 bd a7 5e 95 3d
       0.0057711094 0.009265788 -0.039613232 0.07293444
0002a0 56 6e 87 3e d7 13 5c 3b 9f cf 64 3c b2 ba 63 3b
       0.26451367 0.0033581161 0.013965516 0.003474873
0002b0 ea e9 53 bd 0e 9d 48 3d 76 5f f7 3b bb 2b 8b 3d
       -0.05173675 0.048977904 0.0075492216 0.0679545
0002c0 70 e2 52 be 1e 62 a4 bd 22 68 a8 bb 3d 00 7b bd
       -0.20594192 -0.08026527 -0.0051393667 -0.061279524
0002d0 1b 5d 67 3c 5c 23 19 3d 5a 15 79 bd cc 53 5d 3d
       0.014121319 0.037387237 -0.060811378 0.054034993
0002e0 06 e8 63 3d 71 06 22 bc 09 80 07 3d b4 b4 bb 3e
       0.055641197 -0.009889231 0.03308109 0.36661303
0002f0 60 ae b6 bd 23 9a de 3c e3 ea 36 3d 19 5b 35 3d
       -0.08919978 0.027173107 0.0446576 0.04427633
000300 ec 51 66 3a 7b 8f 3e 3c 68 dd 03 3d 18 da ed 3d
       0.0008786011 0.011630888 0.03219357 0.11613864
000310 88 56 0c 3e 6c 62 ab 3c 52 61 4a 3c ef c5 32 3d
       0.13704884 0.020920955 0.0123523045 0.043645795
000320 db 7a ca bd 3c 6b d3 bb 91 30 69 3d f4 a4 bc bd
       -0.09886714 -0.0064519923 0.056931082 -0.0921115
000330 0d eb 76 bd 70 3c 70 3d 3d be 2a 3c ba 17 0a be
       -0.060282756 0.058651388 0.010421333 -0.13485613
000340 91 ed d4 3d a4 ce 9d bd 10 af 81 bc 22 db f5 3d
       0.10396875 -0.07705429 -0.015830547 0.12004687
000350 a7 9a 60 ba 38 54 3f bc ed cb 0d bd 28 80 c7 3d
       -0.0008567967 -0.011677794 -0.034618307 0.09741241
000360 3f e6 81 bc 56 14 4e bc d4 28 a8 3c ec 89 38 bb
       -0.01585686 -0.012578091 0.02052728 -0.002815838
000370 7d 05 42 bc d2 9d 5e 3d 5e 26 da 3c 78 01 ad bc
       -0.011842129 0.054349728 0.026629623 -0.021118864
000380 3d 31 c3 3c 2c 10 0e bc 96 69 50 3d c5 99 aa bc
       0.02382719 -0.008670848 0.050881945 -0.020825276
000390 99 31 a1 3d 0d 7c a2 bb 68 79 86 bd e1 f2 08 be
       0.07870788 -0.0049586357 -0.06566125 -0.13373901
0003a0 a0 6a 1c be 91 43 86 3d ab 54 33 3e ba 9a 11 3d
       -0.15275049 0.06555856 0.17512767 0.03554795
0003b0 a7 62 04 bd 2f d0 54 3e 55 e8 cd bd 19 f6 fa 3b
       -0.032320645 0.2078254 -0.100540794 0.0076587317
0003c0 16 f0 9c 3c e5 f3 dd 3c ad 1d df bc 4c 55 1b be
       0.01915745 0.027093837 -0.02723583 -0.15169257
0003d0 64 6a d5 bd 42 3c 09 3d a4 a5 c8 bc e8 69 00 3e
       -0.10420683 0.033504732 -0.024493046 0.125404
0003e0 fb 2a 88 bd ca 24 63 bc 2b b5 7c 3d 57 02 d6 3c
       -0.06648823 -0.013863752 0.061696213 0.026124163
0003f0 7a 46 92 bb 98 3c 6e 3c 55 d6 cf bc cc b8 83 bc
       -0.004463968 0.014540814 -0.025370756 -0.016079329

gat_net.1.scoring_fn_target f4 [1, 1, 7]
000000 3a 06 25 3d e9 60 ce 3c 76 04 1d bd 5c e9 ad 3c
       0.04028914 0.025192695 -0.038334332 0.021229438
000010 09 1f 8d bd 52 57 f5 3c ca c0 93 bc
       -0.06890685 0.029948864 -0.018036265

gat_net.1.scoring_fn_source f4 [1, 1, 7]
000000 8d c4 d7 3d e1 e3 a1 3d a0 81 16 3d d8 e1 13 3d
       0.10535536 0.079047926 0.036744714 0.036104053
000010 6d d5 e5 3d e2 9d 72 3d 0c ed 9f 3d
       0.11222348 0.0592326 0.07808885

gat_net.1.bias f4 [7]
000000 b8 30 a8 bd 5f 9f 19 bf 72 71 ea bd 5d b0 1c 3f
       -0.08212417 -0.60008806 -0.11447419 0.6120661
000010 ec ba b4 3d fa 3e 3c be 60 48 0a bf
       0.08824715 -0.18383399 -0.54016685

gat_net.1.linear_proj.weight f4 [7, 64]
000000 96 72 c2 3e ea a9 3a bf af c3 48 bf d5 a9 83 bf
       0.37978047 -0.7291552 -0.7842359 -1.0286204
000010 ac 6a 0c bf 78 71 d2 bf 98 11 a7 bd 7c b5 ed be
       -0.5485027 -1.6440878 -0.081576526 -0.46427524
000020 8c e6 27 bf 8b 8c 6c bf 91 8b 19 3e 3f 1b 62 bf
       -0.6558616 -0.9240195 0.14994647 -0.88322824
000030 eb a7 68 bf cb 5f 3e 3f 34 86 07 3f 96 ff 74 3f
       -0.9088122 0.7436492 0.5293915 0.95702493
000040 e4 76 2a 3f 6f 46 e5 3e a5 64 5f bf 40 9d 16 bf
       0.6658766 0.447803 -0.87262946 -0.58833694
000050 73 18 d6 be 71 6f c1 bf f3 02 13 bf 0f c4 8d bf
       -0.41815528 -1.5112134 -0.57426375 -1.1075457
000060 4a 10 a3 be 7b f2 ed 3e 70 01 3b bf e0 d3 8b bf
       -0.31848365 0.4647406 -0.7304907 -1.0924034
000070 4c 29 90 bf fc 9f 40 bf b5 5f e2 3c a3 11 b4 bd
       -1.1262603 -0.75244117 0.027633527 -0.087924264
000080 ff 37 98 3f 3c 8f 27 be 1f 29 2a bf 7e 48 95 3e
       1.1892089 -0.16363233 -0.66468996 0.2915687
000090 9e 91 f5 bc de fa 0c bf 65 d7 01 bf 28 25 9a bf
       -0.029976662 -0.5507029 -0.5071929 -1.2042589
0000a0 a1 b1 95 bf 27 66 4d bf e8 4f 43 bf fe db 7a bf
       -1.1694833 -0.80234 -0.762938 -0.9799193
0000b0 71 0c 2f bf 65 15 04 be 30 75 70 be d2 bb 08 3f
       -0.6837836 -0.12898786 -0.23482203 0.5341159
0000c0 7b 84 6d bf 4c 38 29 3f bf ba 61 3f e6 e1 e5 be
       -0.92780274 0.6610153 0.88175577 -0.4489891
0000d0 4d 64 d1 be 31 9b 78 bf 0f 1f 11 bf d8 31 87 bf
       -0.40896836 -0.97111803 -0.56688017 -1.0562086
0000e0 12 43 0a 3e 32 a8 7a bf 5b bc 2b 3f b7 b2 0e bf
       0.13502148 -0.97912896 0.6708428 -0.5574145
0000f0 6e f2 19 3f cd aa 65 bf f1 3c ba bf cc 78 68 3e
       0.60135543 -0.89713746 -1.4549848 0.2270233
000100 51 16 c2 3e 24 e0 a3 bf 8e b5 37 3f 73 d5 5f 3f
       0.3790765 -1.2802777 0.71761405 0.8743507
000110 40 ac 62 be ab 06 c0 3e 7e ef 37 3f b2 e7 25 bf
       -0.2213602 0.37505087 0.7184981 -0.64806664
000120 e1 d9 89 3f 50 29 24 3f 40 d1 66 3e 1c 43 0a 3c
       1.0769616 0.6412554 0.2254076 0.008438852
000130 25 f8 87 3f 61 3f 1f 3f 30 74 11 3f ac 76 16 3f
       1.0622603 0.62206084 0.56817913 0.5877483
000140 43 14 e6 3e 69 ba 6a bf c0 5a 16 3f 6c 32 27 bf
       0.44937333 -0.9169069 0.58732224 -0.6531131
000150 1c 43 87 be 81 8b da 3e 32 9a 42 bf 13 76 5a be
       -0.26418388 0.42684558 -0.76016533 -0.21334104
000160 75 cc 96 bd 23 81 2e bf f7 6b 6f 3c 91 fc 99 3e
       -0.07363216 -0.68165797 0.014613143 0.30075505
000170 25 c0 b4 bf ea 4e 19 bf 1f 5c b8 bf f1 02 c9 be
       -1.4121138 -0.5988604 -1.4403113 -0.39260057
000180 dd 0b 59 bf b6 e0 87 3f 2e c0 37 bf 3d 1b bd 3e
       -0.84783727 1.0615451 -0.7177762 0.36934844
000190 ef 01 d4 be 17 d2 de 3e 6d 54 51 3f e1 73 1b bf
       -0.41407725 0.4351966 0.8176945 -0.6072369
0001a0 83 c2 24 3f a0 8e 8b bf 2f 10 41 3f 1d f3 28 bf
       0.643593 -1.0902901 0.7541532 -0.6599596
0001b0 14 4e 6d bf ee 93 4e 3f 43 6b 79 bd 63 1d 4e 3e
       -0.9269726 0.8069447 -0.06089331 0.20128398
0001c0 e6 5e 4b bf 7d d6 e3 3e 14 5b 0d bf a7 69 79 3f
       -0.7944168 0.4449958 -0.552171 0.9742684
0001d0 13 93 9c bf 89 20 81 bf a0 52 7d be 34 d7 3c 3f
       -1.2232383 -1.0088054 -0.2473855 0.73765874
0001e0 7b 4c bd 3e 55 18 cd 3e 58 32 48 bf 95 8e 82 3e
       0.36972412 0.40057626 -0.7820182 0.25499406
0001f0 de 3d 86 bf 6b 25 8e bf fb 06 8c 3e f5 db 99 bf
       -1.048763 -1.1105169 0.27349076 -1.202025
000200 2f b9 57 3c 1f a0 ed 3e 91 3c 46 3f 9b 4a 8d bf
       0.01316671 0.46411225 0.77436167 -1.1038393
000210 ca 4a 98 3f 91 79 d1 3e 9d d8 fa 3e b5 1d 83 3f
       1.1897824 0.4091306 0.48993388 1.0243441
000220 94 23 fa be 78 45 90 3e 29 d7 cc 3e 2d 1e 88 3f
       -0.4885527 0.28178 0.40007904 1.0634209
000230 82 e1 54 bf a0 bc 6a 3e f1 f8 e0 3e 68 b4 83 bf
       -0.831566 0.22923517 0.43939927 -1.0289431
000240 7b 8f ca 3d 82 a7 ae bf 5f f2 0d 3f 72 b9 bf 3e
       0.09890648 -1.3644869 0.55447954 0.3744617
000250 1c 3b 8b 3e 7b fe f3 3e c5 6f 56 bf c9 d7 59 bf
       0.27193534 0.4765509 -0.83764297 -0.85094887
000260 39 ad 40 bf fe 7b 18 3f c6 1c 23 3f 3c b5 ab bf
       -0.75264317 0.595642 0.6371578 -1.3414683
000270 89 5a b5 3e 38 3d e6 be c8 b1 c3 bf b5 52 a4 3e
       0.35420635 -0.4496858 -1.528863 0.3209435
000280 a1 4c 06 bf 6c b8 8b 3f 54 bc 08 3f d3 67 b9 bf
       -0.52460676 1.0915656 0.53412366 -1.448481
000290 88 c6 cc 3d 62 9a b8 bf db 54 4e bf 16 dc 44 bf
       0.09998804 -1.4422114 -0.8059823 -0.76898324
0002a0 8f 17 24 3f 59 32 19 3f 6a d4 86 bf 7e 95 2a be
       0.6409845 0.5984245 -1.0533574 -0.16658589
0002b0 ba e2 08 be 20 40 87 bf 66 43 ed 3f 72 75 fc 3e
       -0.1336774 -1.0566444 1.8536193 0.49308354
0002c0 90 b5 12 3f 45 bc 8c be b1 ba a5 bf 83 b4 23 bf
       0.5730829 -0.27487388 -1.2947599 -0.63947314
0002d0 97 24 ba 3e 82 5d 0b 3f 13 7b a1 3f cb 5d 86 bf
       0.3635604 0.54439557 1.2615684 -1.0497373
0002e0 22 fd a5 bf 4b 3d a7 bd 8c 58 19 bf 3e 1f 1d 3f
       -1.2967875 -0.081659876 -0.59900737 0.61375797
0002f0 69 1a c4 bf 59 5f 1f 3f 43 21 8c 3e 46 ed 53 bf
       -1.532056 0.62254864 0.27369127 -0.82783926
000300 1c 88 3f bf 3f 9c b1 bf 23 da 16 bf 74 fd 0c 3f
       -0.7481706 -1.3875808 -0.589266 0.5507424
000310 be 20 c0 3f 53 f0 85 3e 6e 28 c7 bf b8 1d 6f 3f
       1.5009992 0.26159915 -1.5559213 0.9340472
000320 e4 d0 ad 3f 13 73 bb bf 69 8d dc bf 62 0e 22 bf
       1.3579373 -1.4644493 -1.7230655 -0.63303196
000330 ce 8d dc 3c 7d 34 84 bf 02 8b 14 bf 96 96 51 bf
       0.026923086 -1.0328518 -0.5802461 -0.818704
000340 ee 7a 99 bf cb 42 b7 3e fd a9 bf 3e ff 83 95 bd
       -1.199064 0.35793146 0.37434378 -0.07300567
000350 ab 2a db bf 21 d0 10 bd da dc 5a 3f bc ea 8f bf
       -1.7122396 -0.035354737 0.8549324 -1.124351
000360 82 20 cd 3f c9 fb 3d 3f 22 09 37 bd c4 ff 95 3e
       1.6025546 0.7421232 -0.044686444 0.29296696
000370 32 57 39 bd f4 3a 72 3f a3 af c6 3d e6 89 d9 bf
       -0.04524917 0.94621205 0.09701469 -1.6995208
000380 35 d6 52 bf 21 94 0f bf 0b 1b 9b bf 2b a9 91 be
       -0.82358104 -0.560854 -1.2117628 -0.28449377
000390 f8 6a 07 3e d3 81 ac be 38 4a 4e bf 17 b6 1c 3f
       0.13224399 -0.33692798 -0.80582 0.6121535
0003a0 01 61 52 bf ad 1f c9 bf 72 81 9b 3a 52 d1 ae 3f
       -0.82179266 -1.5712792 0.0011864139 1.365763
0003b0 55 34 8b 3e d1 94 9f bf 29 5d b1 3e d8 45 a3 bf
       0.27188364 -1.246729 0.34641388 -1.275569
0003c0 c2 aa cb 3e ab 36 cc bf 81 b7 18 3f 58 59 e9 be
       0.39778715 -1.5954183 0.59655005 -0.45575976
0003d0 8f fc 0d 3f 5e ef 91 bf bc 79 ff be 12 87 55 3f
       0.554635 -1.1401174 -0.49897563 0.83409226
0003e0 1f b7 47 3f f8 2f d5 bd 38 4c 13 bf f0 c7 5a 3f
       0.78013796 -0.1040954 -0.57538176 0.8546133
0003f0 f1 1f e9 3e df b6 40 3f c5 eb df 3e f5 c5 b1 bf
       0.45532182 0.7527904 0.43734565 -1.3888537
