python/binarypath/binaries/gat_000034.pth (torch, 372431 bytes, 8 tensors)

gat_net.0.scoring_fn_target f4 [1, 8, 8]
0.044536754 -0.007191514 0.053452905 0.0121816695 -0.117768966 -0.09411507 -0.112026125 -0.044782765
-0.07336289 -0.10473051 0.068792395 0.035527352 0.095711425 0.09860304 -0.06840268 0.12506746
-0.10881426 -0.004115053 -0.013756327 -0.04625568 -0.06975426 0.083762005 0.12764323 0.11623224
-0.029082257 -0.11471891 0.00922426 -0.047767624 0.0009350759 0.037725527 -0.029169377 0.043879118
0.08044821 -0.0062348256 0.0016455346 -0.10714588 0.0759074 0.008598118 -0.007467498 -0.07242544
0.030706162 0.12095968 0.0722466 -0.1302595 -0.0112185655 -0.0479361 0.12357456 0.15627183
0.022170657 0.009594688 -0.13022625 0.03591795 -0.083649226 0.14710724 -0.1719455 0.04718991
0.17534043 0.070808396 0.14496838 -0.086552426 0.083864264 -0.010977291 0.13340744 0.06887415
00000000: 2c6c 363d cba6 ebbb 6ff1 5a3d a095 473c
00000010: db30 f1bd 67bf c0bd f46d e5bd 226e 37bd
00000020: 483f 96bd f37c d6bd 07e3 8c3d 2185 113d
00000030: 5a04 c43d 64f0 c93d b416 8cbd af11 003e
00000040: 03da debd 91d7 86bb 3862 61bc 9976 3dbd
00000050: 52db 8ebd 6a8b ab3d e8b4 023e 2b0b ee3d
00000060: ea3d eebc bff1 eabd 5a21 173c fca7 43bd
00000070: e21f 753a 1586 1a3d 9ef4 eebc 97ba 333d
00000080: 08c2 a43d 824d ccbb fbae d73a 4d6f dbbd
00000090: 5775 9b3d 1fdf 0c3c eab1 f4bb ca53 94bd
000000a0: 7d8b fb3c b5b9 f73d 07f6 933d bf62 05be
000000b0: 13ce 37bc a558 44bd a914 fd3d b905 203e
000000c0: 3d9f b53c 0a33 1d3c 085a 05be b31e 133d
000000d0: 4950 abbd 48a3 163e 7b12 30be 354a 413d
000000e0: 718c 333e fe03 913d 9772 143e 6642 b1bd
000000f0: 07c1 ab3d 18da 33bc f69b 083e e40d 8d3d

gat_net.0.scoring_fn_source f4 [1, 8, 8]
0.3357471 -0.036415428 0.39338648 -0.10873382 -0.58518356 -0.18314874 -0.58037 -0.4381435
-0.44609565 -0.42722052 -0.09585546 0.0046508936 0.9205626 0.45293084 -0.40758106 0.42575887
-0.43156967 0.28542256 -0.014037061 0.15850256 -0.35642377 0.2218756 0.8385298 0.31517014
0.05544205 -0.7760537 -0.020110605 0.062755086 0.4046298 -0.01568363 0.028134562 0.1273345
0.89356357 -0.2262607 0.40219194 -0.57689404 -0.004475971 -0.19449729 -0.20963679 -0.2602481
0.64475304 0.59322286 0.34518337 -0.5029862 0.15050648 -0.61051005 0.46169788 0.73066276
0.23734733 0.49636385 -0.74109894 0.75683606 -0.7355355 0.62457275 -0.57924604 0.44406578
0.5725329 -0.11559305 -0.10180109 -0.34092712 -0.11084546 0.5071963 0.46621543 0.124703154
00000000: 0be7 ab3e 5828 15bd f469 c93e d6af debd
00000010: 97ce 15bf 588b 3bbe 2193 14bf 5854 e0be
00000020: a666 e4be a6bc dabe de4f c4bd 8666 983b
00000030: fea9 6b3f 8de6 e73e 77ae d0be 11fd d93e
00000040: b3f6 dcbe e822 923e b3fb 65bc 7f4e 223e
00000050: 2d7d b6be 5b33 633e e4a9 563f fb5d a13e
00000060: 3417 633d 75ab 46bf ffbe a4bc bd85 803d
00000070: a32b cf3e f57a 80bc 747a e63c fa63 023e
00000080: 95c0 643f e3b0 67be 1aec cd3e 54af 13bf
00000090: 2bab 92bb 4c2a 47be 07ab 56be 3d3f 85be
000000a0: 890e 253f 74dd 173f e0bb b03e b4c3 00bf
000000b0: 5f1e 1a3e 634a 1cbf aa63 ec3e b70c 3b3f
000000c0: 2e0b 733e 6723 fe3e a9b8 3dbf 02c0 413f
000000d0: 0e4c 3cbf 00e4 1f3f 7849 14bf 975c e33e
000000e0: 8491 123f 0dbc ecbd 177d d0bd 008e aebe
000000f0: f202 e3bd 9ed7 013f cab3 ee3e 5e64 ff3d

gat_net.0.bias f4 [64]
-0.013828786 0.0274038 -0.02550481 0.013654998 0.004764538 0.005451208 0.034360476 0.005334229
0.029930225 0.00097457366 0.01995109 0.01803812 -0.024162732 -0.00018866011 0.008321578 0.004328461
0.029966062 -0.0053301533 -0.0039805253 3.7665726e-05 0.04090391 0.008683988 -0.009036625 -0.00040153728
0.00476127 0.021097189 0.011710507 0.03471435 0.0023671996 0.006447138 0.00636247 0.03529508
-0.016901128 0.010596948 0.002163049 0.013207518 0.031750467 0.03305438 0.021401469 0.031584986
-0.013045276 -0.0084823845 0.020509824 0.0043860716 0.0052976348 0.011212241 0.0008018911 0.009734135
0.0095256595 0.00010164792 0.00911528 0.009491402 0.0115154665 -0.00042076234 0.030319743 -0.0024867023
-0.019868461 0.021268008 0.03674919 0.022881845 0.041242708 0.014478209 -0.012877186 0.020286152
00000000: 2292 62bc ef7d e03c 77ef d0bc 36b9 5f3c
00000010: d71f 9c3b 0ca0 b23b 92bd 0c3d c2ca ae3b
00000020: 3b30 f53c 887a 7f3a 7870 a33c aec4 933c
00000030: ecf0 c5bc 10d3 45b9 3a57 083c c3d5 8d3b
00000040: 637b f53c 91a8 aebb 116f 82bb 44fb 1d38
00000050: dc8a 273d 4947 0e3c 5a0e 14bc 6c85 d2b9
00000060: 6d04 9c3b 03d4 ac3c 6ddd 3f3c a230 0e3d
00000070: 0523 1b3b 8342 d33b 447c d03b 9391 103d
00000080: 3c74 8abc d29e 2d3c f1c1 0d3b 5864 583c
00000090: c70c 023d 0864 073d 2252 af3c 425f 013d
000000a0: dabb 55bc b3f9 0abc 3804 a83c 09b9 8f3b
000000b0: c897 ad3b 8cb3 373c 0036 523a ec7b 1f3c
000000c0: 8311 1c3c d02b d538 4158 153c d381 1b3c
000000d0: 5eab 3c3c c499 dcb9 1c61 f83c f1f7 22bb
000000e0: 2fc3 a2bc 3f3a ae3c 5286 163d b572 bb3c
000000f0: 1dee 283d 0336 6d3c d5fa 52bc 252f a63c

gat_net.0.linear_proj.weight f4 [64, 1433]
0.0137851555 0.10742651 0.1309977 -0.09115142 0.23424847 0.006653035 -0.01979425 0.033225585
0.091299795 0.010880829 0.010404889 -0.031320363 0.10377816 0.036258142 0.108951196 -0.06890084
0.007510555 -0.0021536597 0.011262255 -0.17932601 5.371751e-38 -0.093890004 0.016788064 -0.021452757
0.003930596 -0.04052936 -0.012325592 -0.0017524703 0.12553273 -0.06325608 -0.01830587 0.020660574
-0.008384177 0.016744079 0.0051553953 0.08692072 -0.018106261 0.0036551314 0.1590476 -0.049694095
0.17097025 -0.07270823 0.0027720449 -0.006409617 -0.022308122 0.01768788 0.0212446 -0.11976273
-0.011100177 -0.0027882375 -0.004417221 -0.022383343 -0.07288532 0.005488122 0.00959641 0.031820185
-0.10829965 0.06281628 -0.14988664 0.07161548 -4.888066e-25 0.08621984 -0.01588384 -0.06690946
0.018755427 0.044119816 0.036538985 -0.008024631 3.1660802e-05 0.042821623 -0.06674488 0.009177141
-0.015857875 0.0073002707 -0.050616432 -0.03166199 -0.11234616 -0.1619077 0.120581284 -0.01691703
-0.05171996 0.009312564 0.07021384 0.049727716 0.014101503 -0.08693285 0.011871884 0.022364391
-0.22738826 -0.06671248 -0.007062305 0.060795322 0.07157831 0.28554597 0.02107548 -0.06992593
-0.0198009 0.020020442 -0.03328859 0.30215952 0.055089448 0.009977782 -0.1010011 -0.17851408
-0.12374376 0.039130773 -0.016756 0.027909096 0.17098413 -0.05387462 0.028166762 0.0153968735
-0.008115354 -0.0010995162 0.007179507 0.034024205 0.014591509 -0.009325043 0.12876453 0.01578843
-0.037476562 -0.014402785 -0.11178857 0.0038936106 0.02940077 -0.049185496 -0.07729114 -0.09709523
-0.1583775 -0.15900528 0.020872366 -0.13513443 0.097290695 -0.1379245 0.019911705 -0.2046898
-0.025852665 -0.029283043 -0.0076352255 0.033975773 0.30114004 -0.008590799 0.071600385 -0.0659279
0.0040582484 2.9204367e-33 0.038877696 0.023417372 0.031988256 0.15134011 -0.062129136 0.061136745
0.005043182 -0.07950978 0.03537591 -0.06401247 -0.020986184 -0.00658463 0.044164877 0.039250735
-0.08153843 -0.09085075 -0.10749975 0.048210926 0.034340166 0.014329553 0.055813394 0.06366146
0.33363935 -0.043454837 0.017699156 -0.010579594 0.011365971 -0.0026796116 0.06401973 0.029022003
-0.19818227 0.018415872 0.0033271003 0.006995238 0.0027898392 0.024301818 0.09135164 -0.02418363
-0.0016392813 0.00086451496 0.13952567 0.43170547 0.037974644 0.055623427 0.0777232 0.1466366
0.08316019 -0.0062289564 -0.033925615 -0.042619195 0.18605684 -0.0549579 0.021884339 0.045222912
-0.008377506 -0.009394766 0.009321613 -0.02682683 -0.0045149755 -0.04735383 0.007115237 -0.029416777
0.10290569 0.0024197176 0.04200297 -0.059427746 0.05531588 0.021616243 -0.024202127 -0.0019575658
0.038709216 -0.08423605 -0.010509512 0.008685582 -0.021019168 -0.015693631 0.0056197057 0.018294614
0.14800233 -0.089782394 -0.023546264 -0.010954497 -0.07724866 -0.03772303 -0.051063936 0.025046188
-0.057745025 0.036777794 0.15497963 0.0868222 0.037570734 -0.11621464 -0.1838726 -0.05304002
0.04688656 0.007314993 0.02988925 -0.008505837 0.012239842 -0.08426006 0.0065368027 0.07360715
0.0035876543 0.06721506 0.044317733 0.032600664 -0.03332062 -0.059388917 0.074350655 -0.06946397
00000000: 22db 613c 6e02 dc3d 4324 063e 98ad babd
00000010: d5de 6f3e b401 da3b 8d27 a2bc 8d17 083d
00000020: 63fb ba3d 8145 323c 4479 2a3c c849 00bd
00000030: a589 d43d 6b83 143d ce21 df3d e21b 8dbd
00000040: 1a1b f63b 6a24 0dbb 5285 383c 3da1 37be
00000050: a43b 9201 6749 c0bd 1f87 893c b1bd afbc
00000060: 3bcc 803b 1d02 26bd 48f1 49bc 25b3 e5ba
00000070: a78b 003e 678c 81bd 31f6 95bc 5d40 a93c
00000080: ca5d 09bc e12a 893c 97ee a83b 7e03 b23d
00000090: 9553 94bc ee8a 6f3b 60dd 223e 098c 4bbd
000000a0: d312 2f3e 0de8 94bd 32ab 353b c407 d2bb
000000b0: 86bf b6bc 2ce6 903c 2809 ae3c 2a46 f5bd
000000c0: 84dd 35bc ddba 36bb 56be 90bb 465d b7bc
000000d0: e644 95bd b4d5 b33b 433a 1d3c e255 023d
000000e0: 35cc ddbd d2a5 803d e27b 19be 23ab 923d
000000f0: 4047 1797 0794 b03d d41e 82bc d407 89bd
00000100: fba4 993c fbb6 343d e7a9 153d be79 03bc
00000110: 87cb 0438 ba65 2f3d 8ab1 88bd b85b 163c
00000120: 60e8 81bc 1c37 ef3b 2d53 4fbd 01b0 01bd
00000130: be15 e6bd 22cb 25be 52f3 f63d 9595 8abc
00000140: 4fd8 53bd b993 183c 46cc 8f3d 4aaf 4b3d
00000150: fe09 673c da09 b2bd 4a82 423c 8735 b73c
00000160: 78d8 68be 8da0 88bd e96a e7bb 8404 793d
00000170: a697 923d 1533 923e 7ca6 ac3c 5335 8fbd
00000180: 7f35 a2bc e901 a43c 9e59 08bd a7b4 9a3e
00000190: 79a5 613d da79 233c aad9 cebd 65cc 36be
000001a0: 5e6d fdbd 9747 203d e143 89bc 9ea1 e43c
000001b0: 7716 2f3e a2ab 5cbd fbbd e63c 2b43 7c3c
000001c0: 43f6 04bc a41d 90ba 1242 eb3b f75c 0b3d
000001d0: 3911 6f3c 11c8 18bc d9da 033e bd56 813c
000001e0: 0681 19bd a9f9 6bbc 68f1 e4bd f22b 7f3b
000001f0: e2d9 f03c bb76 49bd d14a 9ebd ddd9 c6bd
00000200: b62d 22be 48d2 22be 86fc aa3c ae60 0abe
00000210: 5840 c73d 153c 0dbe df1d a33c 349a 51be
00000220: f8c8 d3bc fee2 efbc ea30 fabb 2e2a 0b3d
00000230: 072f 9a3e 6cc0 0cbc 39a3 923d 3505 87bd
00000240: 0efb 843b d29e 7209 383e 1f3d cad5 bf3c
00000250: 1e06 033d e7f8 1a3e 1f7b 7ebd 866a 7a3d
00000260: 4741 a53b 06d6 a2bd 55e6 103d f818 83bd
00000270: 38eb abbc e1c3 d7bb 3be6 343d 61c5 203d
00000280: 9ffd a6bd f50f babd d428 dcbd d278 453d
00000290: 46a8 0c3d 80c6 6a3c 969c 643d f160 823d
000002a0: c7d2 aa3e b3fd 31bd d2fd 903c 0956 2dbc
000002b0: 5638 3a3c 6c9c 2fbb c71c 833d 8dbf ed3c
000002c0: 4bf0 4abe e2dc 963c 7b0b 5a3b 4f38 e53b
000002d0: bcd5 363b 9b14 c73c 9216 bb3d bf1c c6bc
000002e0: 27dd d6ba 9ea0 623a d1df 0e3e 8008 dd3e
000002f0: 4d8b 1b3d 64d5 633d 572d 9f3d e827 163e
00000300: e44f aa3d 461c ccbb 96f5 0abd 7791 2ebd
00000310: af85 3e3e 891b 61bd c946 b33c a93b 393d
00000320: cf41 09bc 81ec 19bc aeb9 183c f1c3 dbbc
00000330: 5cf2 93bb 17f6 41bd ef26 e93b 74fb f0bc
00000340: 38c0 d23d 2094 1e3b 4e0b 2c3d 826a 73bd
00000350: e792 623d 8c14 b13c 8a43 c6bc 814a 00bb
00000360: 8e8d 1e3d f383 acbd 1730 2cbc f94d 0e3c
00000370: 6430 acbc ee8f 80bc 8225 b83b 96de 953c
00000380: ec8d 173e d5df b7bd 18e4 c0bc 7e7a 33bc
00000390: 8c34 9ebd 7783 1abd 6b28 51bd aa2d cd3c
000003a0: 0c86 6cbd 50a4 163d fbb2 1e3e d6cf b13d
000003b0: c5e3 193d f101 eebd 1949 3cbe 7e40 59bd
000003c0: 1f0c 403d 9cb2 ef3b 4dda f43c 115c 0bbc
000003d0: 9e89 483c 8a90 acbd ad32 d63b 58bf 963d
000003e0: da1e 6b3b 0da8 893d 8386 353d 4688 053d
000003f0: 347b 08bd cb41 73bd 2845 983d 2043 8ebd

gat_net.1.scoring_fn_target f4 [1, 1, 7]
0.06923073 0.036947295 -0.3316666 0.06607236 0.083377235 -0.2612934 0.017859504
00000000: d7c8 8d3d 0c56 173d 34d0 a9be f250 873d
00000010: afc1 aa3d 40c8 85be 184e 923c

gat_net.1.scoring_fn_source f4 [1, 1, 7]
0.29842004 0.24442433 0.09564383 0.26109394 0.25509247 0.10765564 0.23162138
00000000: 83ca 983e 5f4a 7a3e eae0 c33d 1bae 853e
00000010: 7b9b 823e 8f7a dc3d 282e 6d3e

gat_net.1.bias f4 [7]
-0.015890647 -0.21504176 0.23572291 -0.022232953 -0.13495646 0.18814105 0.0359115
00000000: 1a2d 82bc e833 5cbe 5961 713e e221 b6bc
00000010: 0732 0abe 0ca8 403e f017 133d

gat_net.1.linear_proj.weight f4 [7, 64]
-1.2434944 1.3561528 -1.048982 -0.82763654 -1.2208874 -1.1717582 -1.3722787 -1.472977
0.8007737 0.8954812 -1.0642672 -1.1918566 -0.7333946 -0.66093206 1.5811982 -1.3014284
-0.9991093 -0.792876 0.98775774 1.3718128 1.3562148 0.6867823 -0.88458574 0.75475615
1.6654001 -0.62681836 0.94352347 -1.6227055 0.5555709 0.71595585 0.87027234 1.2252609
1.4287714 -1.2261064 -0.76381254 0.8069621 0.70444226 0.6770227 1.3926651 0.8618237
-1.1190195 -0.51915073 -0.9344494 -0.69199157 1.4059942 1.1879276 -0.8439346 -1.3942153
1.2187996 -1.1714127 1.1724044 0.76036984 0.11479623 -1.1072208 1.404798 0.8319025
1.1773256 -0.9808412 1.2815279 -1.6384957 0.8515618 1.213657 0.06791445 1.0568522
1.006069 1.2500378 0.5513987 -0.23133396 1.3569512 -0.5330323 -0.8516578 1.1758215
0.8146948 -1.0019202 1.00112 -0.30907103 1.2294792 -1.5205024 -1.450852 -1.5320344
-0.5653577 -1.2816905 0.25760216 0.5575825 -1.2905698 -1.197968 -1.2521257 0.777995
-1.1754414 -1.115488 1.2580324 1.3135182 0.87876934 1.2466341 0.044767234 0.695831
1.0927387 1.2203265 1.3364376 -1.6210731 -0.81426924 1.1107485 -1.0675175 0.80816615
1.4772036 1.3497121 1.4028827 -1.2105751 1.0362711 -1.4729664 -0.3491148 1.7330289
1.4680127 -0.17340697 -1.1115745 -1.2974209 -1.3879646 -0.89895946 -1.6533513 0.76104385
-1.4190007 -0.88088256 0.2553595 -0.93892443 -0.97802997 -1.2221572 0.45067206 -1.235704
0.7783946 -0.96646595 1.2632227 0.83378726 -1.1770064 -1.143922 -0.6225771 0.49463275
-1.4618909 -1.4297491 -1.4341267 -1.1515254 0.23149185 0.66861534 -0.89347655 1.3178746
-0.8967655 1.2199718 0.8814403 -1.4288554 -0.6333002 0.9782462 1.2218012 0.8297653
-0.7095043 -1.237797 -0.70577633 -1.092291 0.83177996 -1.5453031 -1.2839931 -1.0699767
1.0359409 -1.3060384 -0.95488876 -1.0541368 0.852324 -1.2522435 -1.0439241 -1.4805037
-0.98495233 -1.1931974 0.8024817 0.66378003 -1.2431291 0.17600198 -0.8616135 -0.48416993
-1.2973242 1.4662533 -1.3310205 1.513544 -0.9958714 1.4607366 -0.4131625 0.73737943
0.16094188 1.4102746 -1.159778 -1.1574173 -1.1787353 -0.99380845 -1.3254908 0.53748655
-1.180182 0.9761884 -0.90096796 1.0822428 1.0157483 -1.1919817 1.2357721 0.9251117
1.1664789 0.94715536 0.60187125 -1.1804851 -1.2750337 1.03593 -1.1340723 0.061591294
1.1290877 -0.8536865 -1.2085563 -1.2675031 1.3743793 -1.6578003 -1.2235067 -1.4765619
-1.0645185 1.4816495 1.4700277 -1.2858545 -1.3485868 -0.28218114 -0.94798356 -0.92269033
-1.5150913 1.004454 -1.3069997 1.2449443 0.81509656 1.1219084 -1.0386314 1.1706091
-0.5494066 -1.1318371 -0.20754977 1.4614742 0.10033191 1.1031262 -1.4404937 -0.38204706
-1.3179495 0.6665942 1.1015298 -1.2226 1.0005646 -0.7200599 -0.7430918 -1.2853096
-1.3233488 0.7627617 1.093003 1.1657965 0.51241636 -1.4178153 -1.3010768 -1.5841742
00000000: d32a 9fbf 6a96 ad3f 0b45 86bf fddf 53bf
00000010: 0a46 9cbf 2cfc 95bf d4a6 afbf 838a bcbf
00000020: 81ff 4c3f 423e 653f e839 88bf c28e 98bf
00000030: c0bf 3bbf d832 29bf b464 ca3f 3595 a6bf
00000040: a1c5 7fbf ecf9 4abf b1dd 7c3f 9097 af3f
00000050: 7298 ad3f f7d0 2f3f 3674 62bf b337 413f
00000060: d52b d53f 2b77 20bf c18a 713f d0b4 cfbf
00000070: e539 0e3f e248 373f 2bca 5e3f 59d5 9c3f
00000080: fbe1 b63f 0ef1 9cbf 3889 43bf 1195 4e3f
00000090: 5456 343f 5c51 2d3f da42 b23f 7aa0 5c3f
000000a0: 083c 8fbf 10e7 04bf 1338 6fbf 5c26 31bf
000000b0: 9ef7 b33f 030e 983f 190c 58bf a675 b2bf
000000c0: a001 9c3f daf0 95bf 5911 963f 99a7 423f
000000d0: 491a eb3d 69b9 8dbf 6cd0 b33f 90f7 543f
000000e0: 9bb2 963f 6918 7bbf 1b09 a43f 3aba d1bf
000000f0: f4ff 593f 1d59 9b3f bb16 8b3d ef46 873f
00000100: dec6 803f 3d01 a03f 7728 0d3f cfe2 6cbe
00000110: 94b0 ad3f ce74 08bf 3f06 5abf 5281 963f
00000120: d78f 503f ec3e 80bf b324 803f 8f3e 9ebe
00000130: 935f 9d3f d39f c2bf 85b5 b9bf b419 c4bf
00000140: 48bb 10bf 6f0e a4bf 6ee4 833e babd 0e3f
00000150: 6431 a5bf 0457 99bf a845 a0bf ae2a 473f
00000160: dd74 96bf 50c8 8ebf 3507 a13f 5d21 a83f
00000170: 07f7 603f b591 9f3f d95d 373d fb21 323f
00000180: ddde 8b3f a933 9c3f 6310 ab3f 537f cfbf
00000190: f373 50bf 022d 8e3f 6aa4 88bf fae3 4e3f
000001a0: 0215 bd3f 5ec3 ac3f a991 b33f 20f4 9abf
000001b0: 88a4 843f 2a8a bcbf 2dbf b2be e4d3 dd3f
000001c0: d7e7 bb3f 9991 31be 1348 8ebf e311 a6bf
000001d0: d3a8 b1bf 3522 66bf 04a1 d3bf c5d3 423f
000001e0: d1a1 b5bf 8581 61bf 7bbe 823e 5a5d 70bf
000001f0: 2c60 7abf a66f 9cbf 7dbe e63e 8c2b 9ebf
00000200: de44 473f 506a 77bf 48b1 a13f 1573 553f
00000210: 25a8 96bf 096c 92bf 3661 1fbf 8140 fd3e
00000220: 3e1f bbbf 0502 b7bf 7791 b7bf 2f65 93bf
00000230: 330c 6d3e 602a 2b3f e1ba 64bf 1db0 a83f
00000240: 6c92 65bf 0928 9c3f 12a6 613f bce4 b6bf
00000250: f61f 22bf 586e 7a3f fb63 9c3f 806b 543f
00000260: 13a2 35bf 2270 9ebf c2ad 34bf 31d0 8bbf
00000270: 88ef 543f 7ecc c5bf e359 a4bf fff4 88bf
00000280: b699 843f 442c a7bf 9773 74bf f4ed 86bf
00000290: e831 5a3f 8449 a0bf 4e9f 85bf 2581 bdbf
000002a0: d625 7cbf b1ba 98bf 716f 4d3f 7ded 293f
000002b0: db1e 9fbf dd39 343e b492 5cbf 1fe5 f7be
000002c0: b80e a6bf 30ae bb3f e15e aabf cfbb c13f
000002d0: 6ef1 7ebf 6bf9 ba3f 098a d3be e6c4 3c3f
000002e0: f3cd 243e e183 b43f 9b73 94bf 4026 94bf
000002f0: cce0 96bf 3b6a 7ebf afa9 a9bf b898 093f
00000300: 3410 97bf 7ce7 793f d6a5 66bf ef86 8a3f
00000310: 0a04 823f db92 98bf c82d 9e3f 1fd4 6c3f
00000320: 2e4f 953f c678 723f 3c14 1a3f 231a 97bf
00000330: 4e34 a3bf 5b99 843f 4829 91bf 2747 7c3d
00000340: f285 903f 338b 5abf f9b1 9abf 8b3d a2bf
00000350: a9eb af3f cd32 d4bf de9b 9cbf fbff bcbf
00000360: 2442 88bf b1a6 bd3f de29 bc3f e196 a4bf
00000370: 7e9e acbf 0c7a 90be 0daf 72bf 6f35 6cbf
00000380: 83ee c1bf f391 803f c44b a7bf 565a 9f3f
00000390: 2baa 503f b29a 8f3f e0f1 84bf 85d6 953f
000003a0: e9a5 0cbf 0ae0 90bf ed87 54be 9611 bb3f
000003b0: d17a cd3d 3d33 8d3f 1962 b8bf ac9b c3be
000003c0: 92b2 a8bf eba5 2a3f eefe 8c3f 287e 9cbf
000003d0: 8012 803f d855 38bf 443b 3ebf 0685 a4bf
000003e0: 7e63 a9bf 5a44 433f 86e7 8b3f d238 953f
000003f0: b82d 033f f97a b5bf af89 a6bf 38c6 cabf
