python/binarypath/binaries/gat_000031.pth (torch, 372431 bytes, 8 tensors)

gat_net.0.scoring_fn_target f4 [1, 8, 8]
000000 7e ee be 3d 0e 6b b8 3d e6 d6 0f be 3d b8 a5 3d
       0.093228325 0.09004794 -0.14046821 0.08091781
000010 e2 9d b3 3a dd d2 b8 3b 71 8d b5 3d 1d 07 dd 3c
       0.0013703669 0.0056403712 0.088648684 0.026980931
000020 20 aa 93 3d 30 fe 8e bd eb d7 d8 3d 47 d6 5f 3c
       0.07210183 -0.06982076 0.10588058 0.013661928
000030 a8 24 01 3d 44 9c d8 3d 6a f4 9b bc ec bf 39 bd
       0.0315291 0.1057668 -0.019037444 -0.045349047
000040 03 9c 1c 3d 72 f3 17 3d 28 21 13 be 78 57 b5 bd
       0.038234722 0.037097402 -0.14368117 -0.08854574
000050 a0 67 bb 3d 43 42 29 be 8a 16 a3 bd 9b aa 5f bd
       0.09150624 -0.16529183 -0.07963283 -0.05460606
000060 87 13 5c 3c 67 d3 29 bd 86 48 58 bd d3 94 49 bd
       0.01343239 -0.041461375 -0.05280354 -0.049214195
000070 8b 95 ca bd f6 aa 2f bc db 5d 9b 3d 92 1b 9d bc
       -0.09891804 -0.010721913 0.07586261 -0.019178186
000080 eb de da bd 4f 42 6c 3d da 4d cb 3c c1 be 23 3d
       -0.106870495 0.057680424 0.024817396 0.03997684
000090 8f ef 6d 3d 23 4b de bb b6 1f 50 bd 00 4e 6c 3d
       0.05808979 -0.0067838593 -0.050811492 0.057691574
0000a0 bb 67 94 bd 90 da 70 bb 17 48 fc bc 9a e5 1b 3e
       -0.072463475 -0.0036751367 -0.030796094 0.15224305
0000b0 24 ba e3 bd 71 91 15 3d 16 d5 d3 3b 02 5c a4 bd
       -0.11119488 0.036515657 0.006464611 -0.080253616
0000c0 9f 74 f8 3d c8 00 ae 3d 47 be 92 bd dd 24 dc bd
       0.12131619 0.08496243 -0.07165199 -0.107492186
0000d0 bd 6d 06 3e 18 7c d7 bd 74 08 ae bc 8b 14 34 3c
       0.131278 -0.10521716 -0.021244265 0.010991226
0000e0 0c 1c 15 3d 14 85 45 bd e8 40 6c 3c 90 d9 3a bd
       0.0364037 -0.048222616 0.014419772 -0.04561764
0000f0 3e dc 11 bd d8 4f a5 bc 30 ef b9 3d c4 a3 f7 bc
       -0.03561043 -0.020179674 0.090788245 -0.030229457

gat_net.0.scoring_fn_source f4 [1, 8, 8]
000000 04 6d 99 3e 39 49 fa 3b b1 38 e1 be 76 ad ee 3e
       0.29965985 0.0076381234 -0.43988565 0.46616715
000010 16 3d a7 3d f6 f8 84 bd cc 93 21 be c0 01 b4 bd
       0.08165948 -0.06492798 -0.15779036 -0.08789396
000020 c2 56 a5 3e 17 ec 03 bd ca 50 80 3e 34 8f f2 bd
       0.32292753 -0.032207575 0.25061637 -0.1184372
000030 70 a1 f3 3d f1 72 9a 3e ce 3f 4a bd b7 7e ee bc
       0.11896026 0.30165818 -0.049377255 -0.029113157
000040 2e 0e 7f 3e ee eb 50 3d a5 71 57 be fe 65 60 be
       0.24907753 0.05100625 -0.21039446 -0.21913907
000050 d8 e7 2f be 27 74 8c be 6f 39 6a be 18 e8 db 3c
       -0.17178285 -0.27432367 -0.22873472 0.02684407
000060 40 9c b0 bd 21 f4 7a bd 37 b0 7f bd 74 fd af 3d
       -0.08623552 -0.061267976 -0.06242391 0.08593264
000070 81 03 a3 be bb c2 8c bd 24 5f 07 3f 4e 87 2e 3d
       -0.3183861 -0.068730794 0.5287955 0.042609505
000080 1e 06 11 be c9 90 06 3f aa 7c 7f 3d 17 e6 77 3d
       -0.1416249 0.52564675 0.06237475 0.060522165
000090 a1 6a 0d 3a 4c f0 d7 bd 41 1a f8 bd 48 70 20 be
       0.0005394612 -0.1054388 -0.121143825 -0.15667832
0000a0 79 41 ae be 29 78 37 bd b5 39 62 be 39 b4 a0 3e
       -0.34034327 -0.044792328 -0.22092326 0.313875
0000b0 f8 74 49 be c5 9c 6c 3d 43 53 52 3d b3 8f b6 bd
       -0.19673526 0.057766695 0.051348936 -0.08914127
0000c0 ed c1 cf 3d f9 cc ae 3e ee 58 09 3e 91 b5 35 3e
       0.1014441 0.34140757 0.1341283 0.17745043
0000d0 35 40 8d 3e fa 0e 7c bd 85 73 24 3e 8c ac b5 3e
       0.2758805 -0.06153772 0.16059692 0.35483205
0000e0 d6 5e ad bd 64 9f ef bc 8f e0 95 3e 27 42 0e be
       -0.08465354 -0.029250808 0.29272887 -0.13892423
0000f0 74 9a b4 bd 59 06 f5 3d 60 c6 54 3e fd e9 cc bd
       -0.08818522 0.11964101 0.20778799 -0.10005567

gat_net.0.bias f4 [64]
000000 65 dc 19 3d ca 0a 24 3d 96 af 46 3c 8f 8d ee 3c
       0.0375637 0.04004935 0.012126824 0.029120235
000010 23 d8 1f 3d aa 6c 0a 3d 4b db 1c 3c 6b ae 99 bc
       0.039024483 0.033795036 0.009573768 -0.018759927
000020 db c6 08 3d f9 07 65 3d 38 9c e7 bb 46 1a 3c 3d
       0.03339277 0.055915806 -0.0070681833 0.045923494
000030 43 ae 14 3d 9d 70 9c 3c 91 c9 74 bc 8f c2 9d 3c
       0.036299 0.019096667 -0.014940635 0.019257812
000040 0d 6d fb 3c 20 9e f4 3c 72 fb 83 3b de ea 80 bb
       0.030691648 0.029860556 0.0040277774 -0.0039342484
000050 18 16 94 3c c4 bc cb bc 79 10 15 3c ca d5 a2 3b
       0.018076941 -0.024870284 0.009098166 0.0049693333
000060 82 4f 97 3b b9 ca a9 3c ab ea 18 bc ff bd bc 3d
       0.0046176324 0.020726549 -0.009333293 0.092159264
000070 74 84 15 3b af c6 9d 3c eb e8 aa 3c af c3 0f 3c
       0.0022814544 0.019259779 0.020863017 0.008774682
000080 04 91 36 3d 57 b8 46 3d 78 0e 30 3d 68 4f a6 3c
       0.04457189 0.048515644 0.04298255 0.020301536
000090 35 e4 bf 3b 17 31 c8 bb df 7b 73 3b 4a 92 55 bc
       0.005856062 -0.0061093676 0.003715269 -0.013035366
0000a0 6a ca a0 3a 87 f9 0d 3c b5 59 ad 3c 34 47 ce 3c
       0.0012267355 0.008665449 0.02116094 0.025180437
0000b0 d2 90 e0 3c bb f2 e0 3c 3c d6 ae 3b 81 4d 10 3d
       0.027412806 0.027459493 0.0053355973 0.035230163
0000c0 89 73 ac 3b 32 03 d4 bb bc 07 c5 bc e4 b8 a6 3a
       0.0052627963 -0.0064701075 -0.02405154 0.0012719897
0000d0 ab d4 d4 3a 8a 8f 49 3d 8f 46 e9 bb 4b 54 b6 3c
       0.0016237696 0.049209155 -0.007119007 0.02225699
0000e0 d5 ac 27 3d 80 f2 a7 b9 74 07 b5 3b df 8a f6 3c
       0.04093631 -0.000320334 0.00552457 0.030095516
0000f0 5d ba c9 3c df 78 7c bc ef 39 e8 bb 30 ed ea 3c
       0.024624998 -0.015409677 -0.0070869843 0.028677553

gat_net.0.linear_proj.weight f4 [64, 1433]
000000 80 a7 7d 3d 14 5c 70 3d a0 54 4f 3d 28 e6 f9 3d
       0.06192732 0.058681563 0.050617814 0.12202102
000010 d5 41 4a be 00 46 8c bc be ff 10 3e ac 46 d6 3c
       -0.19751675 -0.017123222 0.14160058 0.026156746
000020 45 be 61 3c 2f e4 c0 3c cb cd f6 bc 2a 92 29 bc
       0.013778274 0.023546306 -0.030127427 -0.01034979
000030 b3 68 e3 3c 5d 2c 65 bc 59 ef 03 bd 24 b6 95 3c
       0.027759885 -0.013987628 -0.03221068 0.018275328
000040 4e 4a 5c bc ea 4d 3b 3d c7 0d d1 3b 9e e7 5f be
       -0.01344545 0.0457286 0.006379816 -0.21865699
000050 f8 59 c8 86 29 dc aa 3d 01 0d 8f bd 87 84 f3 bc
       -7.5363836e-35 0.083427735 -0.06984902 -0.02972628
000060 e1 10 82 bc f1 fa 05 3e fb f4 df bd 30 b7 31 3b
       -0.01587719 0.13084008 -0.10935398 0.0027117245
000070 8d 44 9d 3d 0f e2 56 bc b8 13 83 3d ac d6 0c bd
       0.07679091 -0.01311542 0.064002454 -0.034384415
000080 4b 9f d7 bb a1 f0 78 39 9a 9f ea bc 47 6a 9d bd
       -0.0065802685 0.00023740764 -0.028640557 -0.076862864
000090 1a 5a 52 bd b8 5f 30 3d fe 83 5d 3e 8a 35 9e bd
       -0.05135546 0.043060035 0.21632382 -0.077250555
0000a0 df bc f2 bd 37 48 fe bd 3e 84 5c 3c b5 79 be bc
       -0.118524306 -0.12416118 0.013459263 -0.023251394
0000b0 e7 65 cc bd b6 03 0d 3e ec 10 db 3b 22 b8 02 3e
       -0.09980374 0.13770947 0.006685367 0.12765554
0000c0 84 cd 0b be c4 ea 2f 3b 09 71 91 3c 9d b1 c7 bd
       -0.13652617 0.0026842812 0.017754095 -0.09750674
0000d0 ca d3 03 be 68 60 96 3b c7 61 b6 3d 60 2e 85 bb
       -0.1287376 0.0045891292 0.08905368 -0.004064366
0000e0 0b b8 18 3e 6a 48 9d bd 26 05 dd bd 2a 07 15 be
       0.14913957 -0.076798275 -0.107919976 -0.14553514
0000f0 7a 70 96 07 ee 63 b8 3d ce c8 9d 3d dd 69 db 3d
       2.26356e-34 0.09003435 0.07704316 0.10713551
000100 dc cb 4a be 87 a9 a1 3d 31 bc 57 3d 90 b9 ac 3d
       -0.19804329 0.07893663 0.052669708 0.08433831
000110 cf 9f f1 bc cb ae 0e 3d 2d 0c e2 3d 60 eb 76 3b
       -0.029495148 0.034834664 0.110374786 0.0037676916
000120 7d 20 83 3c 71 a3 d0 bc 6b a0 35 3d cd 6e da bd
       0.016006703 -0.02546856 0.04434244 -0.10665665
000130 dd 3d 3d 3e 99 e1 57 be c0 56 ac bd ec 73 07 bd
       0.1848063 -0.21082152 -0.08414984 -0.033069536
000140 4b 6a 51 bd 8c 10 2b 3d 69 da bf bd a1 33 a9 3d
       -0.05112676 0.041763827 -0.0936783 0.082618006
000150 fa 7d 60 bc 66 1e 82 bd 04 7f e9 bb 81 c0 01 bd
       -0.01370191 -0.06353454 -0.007125737 -0.031677727
000160 17 54 2c be 12 c7 e5 bd a1 e4 05 3c 4c 30 08 bb
       -0.16828953 -0.1121961 0.008172185 -0.002078074
000170 b1 41 a4 3c 27 c4 da bc fc a2 8b bd 16 34 ad bd
       0.020050855 -0.02670486 -0.06818196 -0.084572
000180 1c b1 0d 3e b1 5e c5 bb 4b ef 0d 3e ce 86 f2 3d
       0.13837093 -0.006023251 0.13860814 0.11842118
000190 e5 51 45 3d 15 4e 8b bc f5 20 27 be 5d 91 0a be
       0.048173804 -0.017005006 -0.16321166 -0.13532014
0001a0 1c 6c 0b be 6a 16 6c 3d 68 85 64 3c 9f ac 55 bd
       -0.13615459 0.057638563 0.013947822 -0.052166577
0001b0 cf 30 9d 3e 77 de 9e bd fa 9f 48 bc 34 5e a8 3c
       0.307013 -0.077572756 -0.012245173 0.020552732
0001c0 54 47 36 3d 00 db 0a 38 ab 9b 1d bc 33 e4 15 3a
       0.044501618 3.3105724e-05 -0.009619634 0.0005717903
0001d0 7a bd b9 3d b0 fa 16 3c ba 95 2f 3d db c8 48 3c
       0.09069343 0.009215042 0.0428674 0.012254919
0001e0 9c 48 4e bd af f0 91 bd 08 f4 a9 3d 60 f8 12 bd
       -0.050362214 -0.07125985 0.082984984 -0.0358814
0001f0 bb a2 6c b9 46 92 9e bd 67 50 1a 3e 02 41 68 bc
       -0.00022567336 -0.07742743 0.15069734 -0.014175655
000200 b0 69 49 be b5 37 b1 bc 8a 69 83 ba 21 59 9a 3d
       -0.19669223 -0.021633008 -0.001002596 0.07536531
000210 6c 86 d5 3d 90 4b cc bc 54 86 02 3e da 5c 59 be
       0.104260296 -0.024938375 0.12746555 -0.21226826
000220 fc 2f 51 bd 6c fa 07 bb e7 18 d2 bb 24 4f a8 3d
       -0.051071152 -0.0020748628 -0.00641166 0.0821822
000230 85 98 bc 3e 16 b9 95 3b 51 9a cd 3d 71 67 86 bd
       0.36835113 0.004569183 0.10039199 -0.06562699
000240 3e 9e b6 3b 51 39 3a 88 8e 33 3f 3d b0 4f a0 3d
       0.005573063 -5.6039714e-34 0.046680026 0.07827699
000250 dc e8 d4 3d 63 4e d3 bc 82 db 90 bd 50 2f 0e be
       0.10395977 -0.025794214 -0.07073118 -0.13885236
000260 a4 3d d4 3c 07 02 5f be 90 7f 58 bd b2 52 bc bd
       0.025908299 -0.21778117 -0.052856028 -0.091954604
000270 e9 3d 33 3d 4d e8 a3 ba 0d 8d 28 bd cd 77 83 ba
       0.043760214 -0.0012505144 -0.04115014 -0.001003021
000280 35 26 93 bd 99 30 5d 3c f5 06 34 be 1a d7 10 3e
       -0.07185022 0.013500356 -0.17580779 0.14144555
000290 31 24 02 3c ac de f8 3b fe b5 6c bc 90 10 4a 3d
       0.007943199 0.007594904 -0.014447687 0.0493322
0002a0 72 15 2b be d1 f7 3f bd 88 da 2b 3b 2f a0 e7 ba
       -0.167074 -0.046867196 0.0026222784 -0.001767164
0002b0 8e e5 9e bd d3 bc ca 3d 7a b0 be 3d b2 26 57 bd
       -0.07758628 0.098992966 0.09311004 -0.052527137
0002c0 6c 3d 17 be 5f a8 0e bd 96 0e 67 3d 5a ce aa bc
       -0.14769524 -0.03482854 0.056410395 -0.02085035
0002d0 5b 0c 7a bb 85 16 b7 3d ae a7 c6 bc 64 dd ad bc
       -0.0038154337 0.08939842 -0.024249878 -0.021223731
0002e0 04 49 07 bd 28 32 90 3a 2e 98 91 bc 9c 44 10 3e
       -0.033028618 0.0011001276 -0.01777276 0.14088672
0002f0 e5 bc 49 bc 35 c8 1f be 3c ba 61 bc 20 24 11 3e
       -0.012313102 -0.15603717 -0.013777312 0.14173937
000300 86 8e 86 bd b4 31 89 3a 78 94 41 3d 4c 77 81 bc
       -0.06570153 0.0010467083 0.04726073 -0.015803955
000310 ac 31 56 3c d1 9a 92 bd 8a bb 84 3b 0b bf 61 3b
       0.013073366 -0.07158435 0.0040506767 0.0034446146
000320 c2 a1 c4 3c ce 64 1b bd 72 e8 0f 3d 69 ef f9 3c
       0.024002913 -0.03793793 0.035133786 0.030509667
000330 0e 91 74 3c 48 4e 0f 3e df e3 7d bd f3 62 cd bd
       0.014927162 0.13994706 -0.061984893 -0.10028639
000340 ec 6e 1e bd db 54 89 3b 8a 59 65 bb ac d5 d2 3c
       -0.038680002 0.0041910238 -0.0034995996 0.025736652
000350 37 a6 57 bd 44 cc f1 3c 95 ae 9d 3c 8d c3 be bc
       -0.05264875 0.029516347 0.019248286 -0.023286605
000360 9d 76 5e bd 74 0d d8 bd da d7 07 be 6e b6 a8 3c
       -0.054312337 -0.10549441 -0.13265935 0.020594802
000370 d4 a2 30 3d 26 99 34 3d d9 7a 81 bd e8 b5 1e bb
       0.043124035 0.044091366 -0.063222595 -0.0024217311
000380 19 c4 64 bd 9b d4 90 bd 45 ca f2 bd 9c 31 05 bc
       -0.055851076 -0.07071801 -0.11854986 -0.008129504
000390 95 d1 d0 bc cd 59 2e 3c 86 4d be bd 4b 0a 7f bd
       -0.025490562 0.010641527 -0.0929213 -0.062265676
0003a0 d4 77 a0 bd ef fb db bb 27 b6 53 3d f4 e9 8b 3c
       -0.078353554 -0.0067133824 0.051687386 0.017079331
0003b0 59 42 58 bd dc c2 7e 3d fd 16 1a be 27 85 ad bc
       -0.05279765 0.06219755 -0.15047832 -0.021181656
0003c0 22 53 1f bd c0 fc 67 3a b3 3b 9d 3d 06 5f 98 3c
       -0.03889764 0.00088496134 0.07677402 0.018599998
0003d0 46 10 21 be 33 da 7c 3d 46 23 85 bd 7c 72 fb 3c
       -0.15728864 0.06173153 -0.065008685 0.030694239
0003e0 4c 4a 3e 3d 9a 16 91 3c 20 a3 da 3d 0b 72 8d 3d
       0.046457574 0.017710973 0.10675645 0.069065176
0003f0 92 0e 39 3d be 73 2b bd b6 5c af 3c 64 20 b4 3d
       0.04517991 -0.041858427 0.021406513 0.087952405

gat_net.1.scoring_fn_target f4 [1, 1, 7]
000000 5d 53 76 bd d8 05 c0 3c e9 25 16 bd 83 70 5f 3d
       -0.060138095 0.023440287 -0.036657248 0.05455066
000010 8a b2 64 3d d2 71 09 bd 72 11 fb bb
       0.05583433 -0.033555813 -0.0076619918

gat_net.1.scoring_fn_source f4 [1, 1, 7]
000000 d5 29 59 3d d1 79 a4 3d 7a 82 e3 3c 83 7d 8a 3d
       0.05301841 0.08031047 0.027772177 0.06762221
000010 cb 61 c6 3d e5 d4 c1 3c ed 0a 01 3d
       0.09686621 0.023661086 0.03150456

gat_net.1.bias f4 [7]
000000 bc 28 d5 3a 19 fb c4 bd 64 7a 93 ba f3 7f 87 bb
       0.001626275 -0.096182056 -0.0011251685 -0.004135126
000010 07 4e 24 bd 2f b2 91 3d 2d b8 8b 3c
       -0.040113475 0.07114064 0.017055595

gat_net.1.linear_proj.weight f4 [7, 64]
000000 e4 be 3d 3c 84 23 ba bd 0a 16 1a 3f 0b e2 a6 3e
       0.011581156 -0.09088805 0.6018988 0.32594332
000010 5b ad 4e 3e 87 ae 89 bf b1 9c cc be ca 6c da be
       0.20183317 -1.0756387 -0.39963296 -0.42661124
000020 b6 74 ea 3e 35 da 1a 3e 85 2d 84 bf ed 79 6b bf
       0.45792168 0.15122302 -1.0326391 -0.9198292
000030 38 48 e4 bd 30 23 51 bf 10 f8 52 bc 6e ec 4d 3e
       -0.11146587 -0.81694317 -0.0128765255 0.20109722
000040 e1 c7 a1 bf a2 6e 23 3e c4 f6 6a 3f 3e 7a 49 3f
       -1.2639123 0.15960172 0.91782784 0.7870215
000050 cc f3 36 3f 99 88 74 be e8 a2 62 3f 48 02 4a 3f
       0.71465755 -0.23880233 0.88529825 0.7890973
000060 27 e2 20 bf c7 bc 3d 3f a9 29 57 bf 76 af d9 be
       -0.6284508 0.74116176 -0.84047943 -0.4251668
000070 b6 4f 5d bf 70 85 49 bf 18 25 f0 3e d9 eb 2b 3f
       -0.86449754 -0.78719234 0.469033 0.6715675
000080 7d 56 55 bf e4 d1 11 bf c2 8c c3 be b7 80 7c 3e
       -0.83335096 -0.5696089 -0.38193327 0.24658476
000090 1e 5e 8e bf c2 19 3a 3f 48 c9 9e bf 49 ad d7 be
       -1.1122472 0.72695553 -1.2405176 -0.42124394
0000a0 65 69 4a 3f 77 a3 a8 be ff 5e 08 3f 10 53 41 bf
       0.7906707 -0.32937214 0.5326995 -0.7551737
0000b0 55 68 25 3e 3e ed d6 be 14 cf 10 bf 2a 4a a2 3e
       0.16153081 -0.41977876 -0.56565976 0.31697208
0000c0 91 fc 83 3f ca 92 9f bf 8d 34 8d 3f 3c ca 5c 3e
       1.0311452 -1.2466671 1.1031662 0.21561521
0000d0 16 34 4a bf 79 65 44 bf 55 91 15 bf 53 82 19 bf
       -0.78985727 -0.76717335 -0.58424884 -0.59964484
0000e0 b6 a8 4c 3f 76 05 7d bf 56 27 ca 3e 05 2a 8f 3c
       0.7994493 -0.9883646 0.39483136 0.017476091
0000f0 a8 49 9e bf 73 50 1c bf f1 a0 0c 3f f6 c7 c8 bf
       -1.2366228 -0.61060256 0.5493308 -1.5686023
000100 d2 78 35 3d b1 16 68 bf ee 5d bb bf b9 ff f9 3e
       0.044304676 -0.90659624 -1.463804 0.48827913
000110 53 be 6c bf 35 b6 52 3f 55 0f e6 be 95 f8 a0 3f
       -0.9247791 0.82309276 -0.44933572 1.2575861
000120 fe 6f 42 3f 0e 7a c5 bf 3d 86 49 3f 0c 37 71 bf
       0.75952137 -1.5427873 0.78720456 -0.9422462
000130 49 d1 ca 3d 86 f8 0b bf f2 fe a7 3d 65 d5 b2 bf
       0.09903199 -0.5467609 0.08202924 -1.3971373
000140 98 22 40 be 6b 0d e6 be 77 de 20 be eb c9 bd bf
       -0.18763196 -0.44932112 -0.15709864 -1.4827245
000150 c9 dd 24 be a7 51 24 bf 4c d0 ac bf f1 0a 6f 3f
       -0.1610023 -0.6418709 -1.3501067 0.9337607
000160 e8 c0 b3 3f 03 71 f0 be 37 95 67 3f ab e5 53 bf
       1.4043245 -0.4696122 0.9046206 -0.8277232
000170 66 64 9d 3e 99 a7 28 3f d9 7d 6a 3f b3 e5 14 3f
       0.3074066 0.65880734 0.9159828 0.58162993
000180 0c b1 a2 bf 31 13 31 3f a4 45 76 3e e7 b5 b0 3e
       -1.271028 0.6916991 0.24050003 0.3451378
000190 cd 94 11 3e 86 30 b4 3e d1 b7 5f 3f 7b 4f fa 3e
       0.14216919 0.3519327 0.87389857 0.48888764
0001a0 78 c2 85 bf 6b fc 87 bf be 4b f8 be 16 00 b5 3c
       -1.0449972 -1.0623907 -0.48495287 0.022094768
0001b0 6c e3 29 3f a4 64 69 bf d9 05 22 bf a8 c1 68 3e
       0.66362643 -0.9116919 -0.6329017 0.22730124
0001c0 bd f4 27 3f 3b 9a 2b 3f 36 fb 41 3f c6 75 67 3f
       0.65607816 0.6703221 0.7577394 0.90414083
0001d0 70 db 18 3f 91 ec ca bf e9 8e 3f 3f 39 33 43 3f
       0.59709835 -1.5853444 0.7482744 0.76250035
0001e0 6b 7a a0 bf c4 73 dc be b2 60 6d bf d0 09 b9 bf
       -1.2537359 -0.43057072 -0.9272567 -1.445612
0001f0 e6 f8 86 3e 2d 04 1d 3f 57 12 55 3f ea 3d 4f bf
       0.2636177 0.61334497 0.8323111 -0.8095385
000200 57 3e 88 3e 71 46 da 3e 0c b7 33 bf 62 44 27 3e
       0.26610062 0.42631868 -0.7020118 0.1633468
000210 f9 2e b1 bf 98 c4 32 bf 5e c9 20 bf 19 bf d4 be
       -1.384246 -0.6983123 -0.6280726 -0.41552046
000220 cd 72 ac be d8 30 9d bf d6 05 13 3f e6 3b cd 3e
       -0.33681336 -1.2280531 0.5743078 0.4008476
000230 34 25 a3 bf fd 90 1c 3f ca 6f 8a 3f e3 1a 8f 3e
       -1.2745728 0.61158735 1.0815365 0.279502
000240 e3 f4 8a 3e 7f 49 4b 3f 25 a6 2b bf 32 cc 3c bf
       0.2713996 0.7940902 -0.6705039 -0.7374908
000250 db f2 42 bf 10 bc 20 bf 52 0a fc bd be 0c 73 bf
       -0.7615182 -0.6278696 -0.12306656 -0.9494132
000260 52 0d fc bd 58 98 72 bf 4c ed 63 bf 98 30 8d bf
       -0.12307228 -0.9476371 -0.8903396 -1.1030455
000270 0a 4d 9f be d2 8e 91 bf 99 5e 85 3e 07 39 be bf
       -0.31113464 -1.137171 0.26048735 -1.4861153
000280 bb ab 3f bf ac 53 d8 3e e4 62 3f be 7c d3 cb bf
       -0.74871415 0.42251337 -0.18690068 -1.5923915
000290 11 be ff 3e c6 a2 51 bf a5 9e 4f bf 84 88 4a bf
       0.49949697 -0.81889 -0.8110145 -0.79114556
0002a0 93 6f 3c 3f 8b be 2b 3a 89 a2 98 bf 01 fa ea 3e
       0.7360775 0.00065515254 -1.1924602 0.45893863
0002b0 d3 44 72 bf 67 3b 3b 3f aa 6f c6 3e 0b 65 53 bf
       -0.9463627 0.73137516 0.38757068 -0.82576054
0002c0 57 42 0c bf 07 35 b2 3e d5 da d3 be 40 78 0c 3f
       -0.54788727 0.34806082 -0.41377893 0.54870987
0002d0 55 b7 5e bf c6 fa ff 3d 02 a3 81 bf 84 f6 98 bf
       -0.8699849 0.12499003 -1.0127871 -1.1950231
0002e0 fc bd 9e bf 2f 2e 75 3f 3c 4c 02 3f 8d 30 b5 3e
       -1.2401729 0.95773596 0.50897574 0.35388604
0002f0 2e 58 62 bf 47 33 53 bf 73 4a 49 3f 9b 7e 14 3f
       -0.884158 -0.8250012 0.78629225 0.58005685
000300 a9 42 99 bf b3 2c 03 3f 50 e8 20 3f 3f 4f ea be
       -1.1973468 0.5124008 0.6285448 -0.45763585
000310 c1 c5 93 bd 24 81 87 3f 41 d8 91 3f ce ba 01 bf
       -0.07215453 1.0586286 1.139412 -0.50675666
000320 31 58 bb bf 09 37 b3 3d 53 b9 12 bf 1b 2a 00 3f
       -1.4636289 0.087507315 -0.5731403 0.5006425
000330 8b b7 97 3e e3 e9 8f bf d9 24 cd bd 5f d7 2d bf
       0.2963222 -1.1243252 -0.10016794 -0.67906755
000340 69 ba b5 bf 3c 4d d8 3e ba 53 4d bf 7e f8 21 bf
       -1.4197513 0.42246425 -0.8020588 -0.63269794
000350 80 a2 3b 3f f8 ff 90 3e cc c4 b2 be 39 ab 64 bf
       0.7329483 0.2832029 -0.3491577 -0.89323765
000360 20 04 fa 3e 99 41 51 3f 4f f4 37 bf 9a 9c 3d 3d
       0.48831272 0.8174072 -0.7185716 0.046291925
000370 e4 01 79 3f af fb 33 3f d7 b7 98 bf 02 3a ba be
       0.9726851 0.70305914 -1.1931103 -0.3637238
000380 cb 9f 89 bf e6 10 1c bf 33 69 ac 3e 01 b8 0d bf
       -1.075189 -0.60963285 0.3367401 -0.5535889
000390 53 7c 4a 3e ea 09 97 bf 64 94 81 3e 02 7a 5f 3f
       0.19773988 -1.17999 0.25308526 0.87295544
0003a0 90 af 11 3f aa 4c a3 3f 8e e3 36 3f f2 20 81 bf
       0.5690851 1.2757771 0.7144097 -1.0088179
0003b0 bf e5 53 3f 30 9c e0 3e 4c b6 ec be 28 2a 35 bf
       0.8277244 0.43869162 -0.4623283 -0.7076745
0003c0 3c 23 e3 be 67 94 b8 3e 35 30 14 bf 3e 8c 9b bf
       -0.4436282 0.36050722 -0.5788606 -1.2152174
0003d0 80 d7 dd be 71 cf b6 bf 7c 05 f0 3e b4 23 92 bf
       -0.43328476 -1.4282056 0.46879184 -1.1417146
0003e0 86 12 28 3f 89 b1 69 3f 71 f7 9a bf 96 f3 b5 bf
       0.65653265 0.9128652 -1.2106763 -1.4214962
0003f0 5a 18 72 be db 6f df be 11 d5 b3 3e e8 a0 58 bd
       -0.23642102 -0.43640026 0.35123494 -0.052887827
