python/binarypath/binaries/gat_000033.pth (torch, 372431 bytes, 8 tensors)

gat_net.0.scoring_fn_target f4 [1, 8, 8]
000000 73 32 ad bc cd e3 82 bd 9e 5e 5f bc 36 c1 40 3d
       -0.02114222 -0.06391106 -0.013633398 0.04705926
000010 b4 ea 0e bc 48 e4 a5 3c 63 07 bf bc 8a 7a 5d 3c
       -0.00872295 0.020250455 -0.023318952 0.013517985
000020 72 2e 2a 3d 43 49 b9 3d 49 c0 2f ba 45 39 96 bc
       0.0415482 0.09047177 -0.0006704373 -0.018337855
000030 85 13 ad 3c fe 92 4b bd f9 03 0b 3d 6a 36 8c bd
       0.021127472 -0.04970073 0.033939335 -0.06846316
000040 e1 1d 2f bd 20 b7 a7 38 f5 7d 26 3d 14 d5 86 3c
       -0.042753104 7.99729e-05 0.040647466 0.016459025
000050 1c f4 4a bd f5 90 db 3c d4 fd 97 3b 26 98 5f bb
       -0.049549207 0.02680252 0.004638413 -0.0034117787
000060 4a d5 52 3d 17 66 2a bc 76 81 29 3b e6 4d 53 bd
       0.05147294 -0.010400317 0.0025864518 -0.05158796
000070 65 1b 35 bc 5e 31 ff 39 29 2d ba bb 19 45 37 bc
       -0.011053895 0.00048674172 -0.005681653 -0.011185908
000080 59 79 52 bc 55 8f 64 bd 07 04 87 bc 01 9c e5 3c
       -0.012846314 -0.055800755 -0.016481413 0.02802849
000090 1a df 13 3b e9 b1 9b 3c 9a 24 e3 bc 83 94 8d bc
       0.0022563399 0.019005733 -0.027727414 -0.01728273
0000a0 35 06 93 3c 5d 5e db 3c b4 0f 0d bc 5c 54 99 3d
       0.017947296 0.026778394 -0.008609701 0.074867934
0000b0 e0 72 53 3c 3d e7 c8 bb 66 f5 48 bc 8d 77 0c bd
       0.012905806 -0.0061310814 -0.012265539 -0.0342937
0000c0 1f eb 94 3c 5b f4 e7 bc 2d 09 d0 bd b4 1c 95 bc
       0.01817852 -0.02831476 -0.10158 -0.018202163
0000d0 09 3e 43 bd 19 3f ce bd e4 fe 6a bc d2 16 26 3c
       -0.047666583 -0.10070629 -0.014342997 0.010137277
0000e0 31 c6 4d 3c 44 25 23 3d 46 b8 0c bd 4e 7e 93 3c
       0.01255946 0.03983046 -0.034355424 0.018004563
0000f0 e3 eb 1d 3d 5d 5d a4 3d 33 f3 cb 3d b0 f2 56 bc
       0.038555037 0.0802562 0.09958496 -0.013119385

gat_net.0.scoring_fn_source f4 [1, 8, 8]
000000 62 a4 95 3c 8f d9 c2 bd b4 35 c2 bc a1 ff b5 bd
       0.01826686 -0.09514152 -0.023707248 -0.08886648
000010 a2 00 60 bd 98 0e ac bd d8 a4 a9 bc 16 fe bf bd
       -0.054688103 -0.08401221 -0.020708486 -0.09374635
000020 49 f0 ae 3b 63 f3 04 be d9 b2 c1 bd e2 27 82 bd
       0.005338703 -0.1298347 -0.094579406 -0.06355263
000030 b1 b8 19 3d ec 33 eb bd 84 5c 8d bc 1b c3 95 bb
       0.03752965 -0.11484513 -0.017256029 -0.0045703775
000040 f0 6f da 3d 7d 43 68 bd 09 b6 4b bd dd 54 d0 bd
       0.10665882 -0.056704987 -0.04973415 -0.101724364
000050 bd df 90 3d 0b 15 9f 3c a9 19 a1 bd a5 f3 58 bd
       0.07073925 0.019419214 -0.078662224 -0.052966733
000060 f6 91 9c bd b0 c9 a5 3d e3 49 9c bc 0d 02 3a bd
       -0.07645027 0.080951095 -0.0190782 -0.045412112
000070 33 a1 91 3b 27 87 01 bd e2 04 81 3d 2d b6 0a bd
       0.0044442653 -0.031623032 0.062997594 -0.033865143
000080 76 7f 11 bd 39 f2 9c 3c 19 96 f6 bd ea fb ae bd
       -0.035521947 0.01915847 -0.120403476 -0.085441425
000090 cf ed b8 bd 5b 54 4e bd 63 59 3c 3d e2 36 b6 bd
       -0.090297334 -0.050373416 0.045983683 -0.08897187
0000a0 0f 85 13 bd 9c 8c ba 3b 48 d0 05 be 9a 5b 95 bd
       -0.036015566 0.0056930315 -0.13067734 -0.07292862
0000b0 d0 0e 03 bd 9a 71 10 bb 04 57 ae 39 43 1f 8e 3c
       -0.03199655 -0.0022040368 0.00033252698 0.017348891
0000c0 d8 db 8f bb b2 1e df 3c c8 23 07 bd 06 0c 46 bd
       -0.004390221 0.027236316 -0.032993108 -0.04835131
0000d0 ef ea 01 bc 1c f9 af bd 59 a8 b9 bd 4c e7 16 3d
       -0.007929548 -0.08592436 -0.09065313 0.036841676
0000e0 bb 39 c3 bd 47 5f 1f be 70 7f 60 3c ab 27 6f bd
       -0.095324956 -0.15563689 0.0137022585 -0.05838744
0000f0 87 36 f6 bc 2b b5 ba bd a1 bb a7 bd fc b5 c9 bd
       -0.030055298 -0.09116586 -0.08190084 -0.09849164

gat_net.0.bias f4 [64]
000000 76 fe 7f 3c 86 47 59 3c 18 ed d6 3a 46 0b b5 bb
       0.015624633 0.013261681 0.0016397564 -0.0055250255
000010 8f 9b 2a 39 78 e5 1f bd 27 69 44 bc a1 af 58 bc
       0.00016270413 -0.039037198 -0.011987961 -0.013225467
000020 11 87 b7 3c bd 3e 0f bb 38 43 73 3d c9 c5 ce 3b
       0.022403272 -0.0021857463 0.059390277 0.006310199
000030 46 d3 8b 3c 51 62 00 3d 02 0a d6 3c 12 5b ae 3b
       0.017068516 0.03134376 0.026127819 0.005320915
000040 01 ab 23 bd 75 07 68 bb 90 2c 1b bd 71 0b e0 3b
       -0.039958004 -0.0035404835 -0.037884295 0.0068373014
000050 d3 af 29 3d 7d 4b c9 bc 05 78 4c bc d4 50 eb 3b
       0.041427445 -0.024572128 -0.012479787 0.0071812663
000060 0d bf 5b bc 88 ea 84 3d 28 88 ec 39 f1 da 51 3d
       -0.013412249 0.06490046 0.00045114872 0.05123419
000070 98 82 a7 b8 08 39 30 3c b3 15 83 bc 94 b7 0f 3a
       -7.9875055e-05 0.010755785 -0.016001558 0.00054823724
000080 57 a2 e9 bc fa d2 64 bd bc c1 98 bc d9 5b f0 bb
       -0.028519792 -0.055865265 -0.018647067 -0.007335168
000090 f5 31 b0 bc 61 31 ae bc 44 c7 c3 3c 89 f8 d1 3c
       -0.021508196 -0.02126378 0.023898728 0.025631206
0000a0 ee 2d 73 3a ab 46 00 bd ab 8b 18 3d c8 73 63 bc
       0.00092765584 -0.031317394 0.037242573 -0.013882585
0000b0 6b 9c c5 bc a9 84 b9 bc 4c 6f d3 3b d2 33 ca bc
       -0.024122437 -0.022646265 0.0064524766 -0.024682913
0000c0 9b b8 8e bc d9 39 97 3c 60 a7 32 bc a8 3b de 3c
       -0.017422011 0.018460201 -0.010904163 0.027128056
0000d0 fb 49 a8 bc a1 3b 71 bd c5 2f 27 bc 06 3e 61 bc
       -0.02054309 -0.058894757 -0.01020426 -0.013747698
0000e0 f3 87 00 3c 3d 6c 2f bc 35 77 dc 3c d9 e5 95 3c
       0.007844913 -0.010706958 0.026912311 0.018298076
0000f0 c5 2b 8b 3b 22 29 ef 3a 1f fc 60 bd 09 99 ec bc
       0.004247161 0.0018246511 -0.05492794 -0.028881567

gat_net.0.linear_proj.weight f4 [64, 1433]
000000 8b 89 06 bb 85 7f bc bd be 02 d4 bb 53 96 b6 bb
       -0.002052876 -0.0920401 -0.0064700535 -0.0055721193
000010 b7 ba 24 be 8a f3 33 3b ea 3f a9 bb a2 0e 36 bd
       -0.16086851 0.0027458393 -0.00516509 -0.04444755
000020 d6 6e 0d bd ed 48 81 3c 4a ac 8d 3a 7f 55 80 bc
       -0.03452953 0.015781844 0.0010808792 -0.015665768
000030 0e b4 9f 3c fa ae 91 3a 0d d1 7c 3d a1 13 10 bd
       0.019495036 0.0011114769 0.061722804 -0.03517497
000040 ff 12 b0 bd 2e aa a3 3c 96 1b a3 39 47 27 f5 3c
       -0.08597373 0.019978609 0.00031110336 0.029925955
000050 4c 31 b6 0d 23 dc 93 bc dc 3b a9 b7 59 82 36 39
       1.1228484e-30 -0.018049305 -2.0174244e-05 0.00017405431
000060 d7 72 86 b9 d6 7a d7 b9 f4 8e 17 3d 64 c3 5a 3d
       -0.00025644034 -0.00041099516 0.037001565 0.053408995
000070 8c 96 bb bc b8 d9 c9 3c 3e e5 b0 3d 39 e7 b5 36
       -0.022898935 0.02463995 0.086374745 5.421138e-06
000080 b3 7e 2f b7 ac 8a f6 32 a7 8b bc 3c 99 c7 73 bd
       -1.0460312e-05 2.870123e-08 0.02301581 -0.059516523
000090 d1 d5 7e bb 7b 21 3e bd 23 65 69 bd 22 ed d4 bb
       -0.0038884769 -0.04641865 -0.056981217 -0.006497995
0000a0 99 d1 b7 bd 00 8c cd bb e1 03 35 3c 1e 7e 97 b9
       -0.089755245 -0.006272793 0.011048288 -0.0002889493
0000b0 38 f5 5d bb b0 bf 0f 3e 39 1d d7 bb ee 0b 6d 3c
       -0.0033868086 0.14037967 -0.006564763 0.014468176
0000c0 ea f3 1e 3c e0 23 da 3a 54 c3 04 3e b2 cd 02 3c
       0.009701708 0.0016642772 0.12965137 0.007983612
0000d0 a2 5a 1f 3b 4c 54 d5 bb c6 6e 95 3d c9 10 9d bd
       0.0024315496 -0.006510293 0.07296519 -0.07669217
0000e0 84 3b c4 3d 1e 37 1d bd 9b 6a 8e 3b 50 cb 46 bd
       0.09581664 -0.038382642 0.0043462045 -0.048533738
0000f0 28 d8 30 0e 9d ea b7 bc f3 0e fd 3b eb dd 10 3c
       2.179775e-30 -0.02245074 0.0077227294 0.008841972
000100 8e 0b bd 3d 59 ed 0d bd 7e 42 bd bb 31 f9 9e 3c
       0.092307195 -0.03465018 -0.0057757488 0.019405933
000110 8d 76 90 3d 67 28 be 38 7c 70 c6 3b 13 ff e3 37
       0.07053862 9.0674315e-05 0.0060558897 2.7179287e-05
000120 5f ac 82 39 c9 e0 16 ba c9 73 cb 3d 8d 15 a0 bc
       0.0002492396 -0.00057555415 0.09934194 -0.019541526
000130 d6 d9 0d 3e 35 cc e0 bc 07 8a 08 be 40 7f 81 b9
       0.13852629 -0.027441124 -0.13333903 -0.00024699606
000140 60 86 18 3d c7 d0 aa 3c 48 36 6c bc e0 6e c2 3c
       0.037237525 0.020851506 -0.0144172385 0.02373451
000150 8a c9 d8 b7 d8 25 14 3d f0 92 1f 3c ff 07 6e 3a
       -2.5843055e-05 0.036168903 0.0097396225 0.0009080171
000160 58 28 46 3d fd 2b 63 bd ae b8 ca bb de d2 04 3d
       0.04837832 -0.055461872 -0.0061865663 0.03242766
000170 01 87 2a 3c 5c 9b 89 3d 6a c0 da bb 98 e5 20 bd
       0.010408164 0.067190856 -0.0066757696 -0.039281458
000180 b4 67 05 3c 92 59 86 3d 9f 2e 5b 3d 60 cc a9 3d
       0.0081424005 0.06560053 0.05351126 0.082909346
000190 8a 78 83 bd be 4a 0b 3d 35 80 66 bc 96 b0 01 3d
       -0.064194754 0.034006827 -0.014068653 0.031662546
0001a0 84 76 94 3c 2d 36 2c b9 7f 5a ef 3b 0b 25 94 39
       0.018122919 -0.0001642338 0.007304489 0.0002825636
0001b0 35 d4 70 3d f7 f6 23 38 ea 0b 84 35 2d 49 99 bb
       0.058796126 3.9092232e-05 9.838234e-07 -0.0046779127
0001c0 0f a2 db 3b f0 e0 e9 38 f8 0c 89 bc f0 b0 53 bd
       0.0067026685 0.00011152204 -0.016729817 -0.051682413
0001d0 a2 fe db b6 30 63 e7 bb 81 ff e7 bd c6 2f 39 bc
       -6.5563518e-06 -0.0070613846 -0.113280304 -0.011302894
0001e0 a3 58 3d 3c c8 d7 44 3d b5 5a 38 3a 7c ed 0a 3d
       0.011556777 0.048057348 0.00070325594 0.03391789
0001f0 76 ed 13 3a 91 93 ff 3c 2d f7 2b 3d 7a 2c ce 37
       0.00056429894 0.031198295 0.041983772 2.4577825e-05
000200 2b bf 3d 3d 5d 09 54 39 4e d4 c7 bb 70 b8 a3 3d
       0.04632489 0.00020221384 -0.0060983067 0.07994163
000210 78 49 10 bd ee d8 29 3c 42 af fc bc dd 19 29 3d
       -0.035226315 0.0103666615 -0.030845288 0.04128443
000220 cd 68 33 3d 2c ee 25 b9 1b 19 47 bc 0d b0 44 39
       0.043801118 -0.00015824352 -0.012151982 0.000187576
000230 ed 56 97 bd e1 17 7f b9 54 38 58 3d 42 90 e4 3c
       -0.07389627 -0.0002432759 0.052788094 0.027900819
000240 ca f2 80 b8 ff fc 1a 0f 69 d9 42 3b df 77 84 3b
       -6.1487386e-05 7.6415115e-30 0.0029731637 0.00404261
000250 18 e1 85 3d 67 0c bb ba 59 92 86 3c 6a 11 d6 bb
       0.06537074 -0.0014270664 0.016427206 -0.0065328376
000260 d3 f1 57 3c 3d d6 a0 3c 45 41 de 3d d4 c3 d7 bd
       0.013180214 0.019633407 0.10852293 -0.10535398
000270 45 c8 a0 3b 89 5a 96 bb a7 e5 01 3c 05 f5 b9 3b
       0.0049066865 -0.0045884294 0.007928289 0.0056749606
000280 91 0f e5 3b 4e fb 47 b9 2c 8f 96 3b ef 1a 07 ba
       0.006990381 -0.00019071737 0.004594704 -0.0005153855
000290 0c 9a ec bc a4 b6 42 bb 62 d2 98 bd 99 07 96 bd
       -0.028882049 -0.0029710913 -0.07462002 -0.07325668
0002a0 a3 ca f1 bd cb 35 07 bc 9b 3d 96 3b b8 1d 7f 2f
       -0.11806228 -0.008252571 0.0045849807 2.3202673e-10
0002b0 40 66 99 bb 29 be ca bc 7e 1c f3 3d 1c 77 ae bb
       -0.0046813786 -0.024748879 0.11870669 -0.0053242575
0002c0 68 0c 8d 3d 18 80 2d 3c 36 1f de b9 ac ef e9 3c
       0.06887132 0.010589622 -0.00042366394 0.028556667
0002d0 58 ba 3d 31 07 d2 2b b9 b2 7a 9d bc 2f f6 ec 3b
       2.7609044e-09 -0.00016386072 -0.019223545 0.007231496
0002e0 37 37 d5 b9 b8 cb 9b 33 8f 01 eb 3d 08 69 dc 3c
       -0.00040667664 7.254806e-08 0.11474907 0.026905552
0002f0 9d 29 da 3d 52 4d 7b b7 0f 66 ba ba 40 91 98 bc
       0.10652468 -1.4978768e-05 -0.001422109 -0.018623948
000300 75 f2 82 bc f4 07 d6 b4 c9 a7 a4 bd e8 39 d2 bd
       -0.015984753 -3.9866393e-07 -0.08039815 -0.10264951
000310 2a 68 a8 3b 32 0e 4c bb 76 59 0b 39 2f 3d b3 38
       0.0051393704 -0.003113639 0.000132894 8.5467815e-05
000320 5f 10 c0 38 79 ed c2 38 b2 f9 a6 3b d7 4c 37 bd
       9.158323e-05 9.2948736e-05 0.005095684 -0.044751015
000330 7d 9f dc bd d8 51 f0 3b 6c 22 c4 3b 9f 27 f8 bb
       -0.107726075 0.0073339753 0.0059855487 -0.0075730826
000340 1e 96 01 3d 68 6a 00 b7 e2 58 6c bb b8 61 50 bd
       0.031637304 -7.654169e-06 -0.003606372 -0.05087444
000350 b4 10 f8 bd 07 13 30 3d 17 1d 02 3b 6f 6e 83 bd
       -0.12112561 0.042986896 0.0019853765 -0.06417548
000360 87 f4 5e b7 74 ce 24 3c 1b 8e bb 3b 20 60 01 ba
       -1.3289165e-05 0.010058988 0.0057237274 -0.0004935283
000370 97 94 de 37 00 ba 3c 37 ad d0 67 3c 88 7d 75 39
       2.6533655e-05 1.124898e-05 0.014148873 0.00023411785
000380 30 07 0f 3d eb bf 48 bd 95 dc 39 3d 5a e5 5a 3a
       0.034918964 -0.049011152 0.04537638 0.0008350216
000390 07 8c 33 3d 95 53 81 b9 ff 41 fd 3b 04 a9 be bd
       0.043834712 -0.0002466707 0.0077288146 -0.09309581
0003a0 89 1e 82 32 e3 aa 88 bc e7 4d 45 bd 2c be a0 bc
       1.5147878e-08 -0.016683048 -0.048169997 -0.019621931
0003b0 8c 46 39 39 9f 54 ea 3d cb b9 b2 bb fd be b1 38
       0.00017669256 0.114419214 -0.005454277 8.475592e-05
0003c0 0c 38 b8 39 83 2e 08 34 fd 85 56 ba b6 1d af 39
       0.00035136973 1.2682908e-07 -0.0008183418 0.00033400737
0003d0 2a 2f 65 b9 d4 1b df b9 36 17 73 36 fb 52 0a bd
       -0.00021856712 -0.00042554608 3.6223332e-06 -0.033770543
0003e0 27 9e f5 39 5b 6e 7b bc 39 a5 20 bd 16 ba 28 3c
       0.00046847874 -0.015346135 -0.03922007 0.010298273
0003f0 46 3c 88 3d 97 09 91 bb ac 5b 79 bd a4 4b 9e b8
       0.06652121 -0.004426192 -0.06087844 -7.548116e-05

gat_net.1.scoring_fn_target f4 [1, 1, 7]
000000 e7 43 84 3e 94 97 1e 3e ad a1 7a 3e 7c 7c cb 3e
       0.25833055 0.1548751 0.24475737 0.39743412
000010 91 b5 c8 3e 90 4b d7 3e 00 5b a4 bc
       0.39201024 0.42049837 -0.020062923

gat_net.1.scoring_fn_source f4 [1, 1, 7]
000000 57 9a b6 bd 5a c4 1b be db 99 44 be 50 9a 58 be
       -0.08916157 -0.15211621 -0.19199316 -0.21152616
000010 ea 1e 3e be 8f 69 74 be 63 97 7a bd
       -0.1856648 -0.23868392 -0.06117953

gat_net.1.bias f4 [7]
000000 f3 27 fa bc 68 a3 6c 3a c9 11 f2 3c f8 65 96 ba
       -0.030536627 0.0009027035 0.029549496 -0.0011474481
000010 d3 84 78 bc cb 14 97 3c ea aa e1 bb
       -0.0151683865 0.018442532 -0.0068868296

gat_net.1.linear_proj.weight f4 [7, 64]
000000 d3 d8 a9 3d 8f e8 38 3b a4 26 96 3d 51 57 f0 3c
       0.08293309 0.0028214788 0.07331589 0.02933851
000010 ed 5e 76 bd 45 13 03 3b f9 96 f2 3c 08 ab 81 bd
       -0.060149122 0.00200005 0.029613005 -0.0633145
000020 4e ee c8 3d 4b 3b a3 bc 81 c3 33 bc fc 3c 84 bc
       0.09811078 -0.019925734 -0.010971905 -0.01614236
000030 4f 33 86 bc 03 51 6b bc bf 37 06 3d a3 b6 80 3d
       -0.016381888 -0.014362576 0.032768007 0.06284835
000040 00 f6 62 bd b5 e8 cb bc 72 f6 08 3d 06 e2 99 bb
       -0.055410385 -0.024891237 0.033438154 -0.0046961335
000050 40 26 b4 3c 58 44 20 bc 5a 98 ad 3c 82 18 31 3e
       0.021990895 -0.009781919 0.021190811 0.17294505
000060 37 77 65 bd 9b 05 08 ba dd 29 54 bd ca 8c a3 bc
       -0.056021895 -0.00051888236 -0.051797736 -0.019964594
000070 c7 de 83 3c b1 14 1c 3c ae ac 99 3d 05 16 b5 bc
       0.01609744 0.009526418 0.07503639 -0.022105226
000080 69 9d c8 bc 0a e1 b0 bb 72 26 ad 3c d8 17 b6 bc
       -0.024489122 -0.0053979205 0.021136496 -0.022228166
000090 50 e9 6a bc cd 38 da 3c 42 d0 20 be c9 ec 1d 3c
       -0.014337853 0.026638413 -0.15704444 0.0096389735
0000a0 3b af d9 bc 5a d9 d1 3d b2 35 39 bc 70 0d 23 bc
       -0.026572814 0.10246535 -0.011304306 -0.009951934
0000b0 bb 0f e1 bd df d5 06 3e f8 9b ca 3d aa b2 4f 3d
       -0.109893285 0.13167523 0.0989303 0.050707497
0000c0 d3 d9 b8 bb e2 1c 9c 3d 5e 4f 9e bc 3a 48 b6 ba
       -0.005641201 0.076226965 -0.019324955 -0.0013907023
0000d0 94 1e c4 bb 0b a9 87 bd 15 24 09 3d 73 d6 51 3c
       -0.0059850905 -0.06624039 0.033481676 0.012807476
0000e0 a1 29 0f bd 8a b5 2d 3b 6f 0e c0 bd 89 5a 0b be
       -0.03495181 0.002650591 -0.09377753 -0.13608755
0000f0 a5 95 2a bc a8 b2 a6 bc 7b 9d ae 3c ea 5d c2 bc
       -0.010411655 -0.020348862 0.021315327 -0.023726422
000100 c7 e9 fc bd 82 9a 20 ba bc bd b9 bd d6 a9 85 bd
       -0.12349277 -0.0006126539 -0.09069392 -0.06526534
000110 33 fa 47 3d 4c 57 a3 3d 3c c7 83 bd 26 73 94 3d
       0.048822593 0.07975635 -0.06434485 0.07248525
000120 c2 b9 c4 3b 57 61 8c bc c5 6a 5e bd a7 4b 44 bd
       0.0060035894 -0.017136259 -0.054301042 -0.04792371
000130 55 fc 8b bd 4b b2 37 be bd 88 c4 3d 56 e8 be 3c
       -0.06835238 -0.17939107 0.09596393 0.023304146
000140 25 b9 2b bd 31 1d 4f 3d 1b db 39 3c 31 66 64 3d
       -0.041924614 0.05056495 0.011343743 0.05576152
000150 65 6f c3 3d 5f 87 d0 3d c4 dc e7 bc f9 df 34 bd
       0.09542731 0.1018207 -0.028303511 -0.04415891
000160 36 a6 f9 3c 6c 4b 4b ba 4a 34 56 bd d6 3d 31 bc
       0.030474763 -0.0007755074 -0.05229596 -0.0108179655
000170 cf 53 e7 bc 0e 04 71 bd 67 35 78 bd 43 2b a0 3c
       -0.028238205 -0.058841757 -0.060597803 0.019551879
000180 8f 0f 80 3d e8 f4 54 bd c7 e5 53 bd e3 fa 47 3d
       0.062529676 -0.051991373 -0.051732805 0.04882325
000190 17 a4 b9 3d 26 13 4c bd 47 fa 01 bd b4 d9 c5 3d
       0.09064501 -0.04982295 -0.031732824 0.09660664
0001a0 b0 7f 92 bd 4f 45 3f bc ab f0 53 bc e5 a8 f8 3c
       -0.07153261 -0.011674239 -0.012935798 0.030353973
0001b0 a7 8c 0b 3d 5c 82 11 bc 27 9d c6 ba 63 a5 cc bd
       0.034069683 -0.008881178 -0.0015153036 -0.099924825
0001c0 e1 97 bd 3d 17 ba f9 3d 8e 67 43 3d ce 4e 14 3d
       0.09257484 0.12193697 0.04770618 0.036207967
0001d0 89 8b 0f bd 5d 30 d4 3d e0 b3 b1 bd 5a df aa bc
       -0.03504518 0.10360787 -0.086768866 -0.020858455
0001e0 c5 c0 06 3d 7d 91 de 3c 84 4d c5 bd 7f ea 0b bd
       0.032898683 0.027168984 -0.096339256 -0.03415918
0001f0 a5 cf 3e 3c 86 a6 91 3d e8 5c 5b bd 18 ba 95 3d
       0.011646186 0.0711184 -0.0535554 0.07310885
000200 2d 19 7c 3d 41 9d fd bd 4c 9f 94 bc 7a 61 86 bd
       0.061547447 -0.123835094 -0.018142365 -0.06561561
000210 8f a5 15 3d 74 c3 66 3d 1f 54 ae 3d 9b 63 33 bd
       0.036534842 0.056338742 0.085121386 -0.043796163
000220 d8 e5 fa bd ca 47 5b bd 7f 33 b6 bd 79 b4 51 3d
       -0.122508705 -0.05353526 -0.08896541 0.051197503
000230 be 10 a3 bd 43 02 db 3b 16 b2 f9 3c 18 73 5f bd
       -0.07962178 0.006683619 0.030480426 -0.05455312
000240 15 fb 31 3e 87 3a b9 bc ca d8 2a 3d 4f db 19 bd
       0.17380936 -0.022610916 0.041710652 -0.037562665
000250 00 a3 c2 3c 2d 7f c1 3d 1c 91 18 3c 89 d4 d9 bc
       0.023759365 0.09448085 0.0093119405 -0.026590602
000260 a4 15 d7 bc 89 fe fd 3d 2f 5b 00 bd 3d ed 45 bd
       -0.026255436 0.12402064 -0.03133696 -0.04832195
000270 bb 22 5e 3c 1f 87 e0 bd cb 01 37 bd 6e d8 4d bc
       0.013558085 -0.10963272 -0.044679444 -0.012563808
000280 41 ae f7 bc 70 13 b2 3d a7 4e 15 be 33 ce a5 bd
       -0.030234458 0.08695114 -0.14580785 -0.0809597
000290 f6 08 ce bb 25 0b bd bd b2 56 64 3d c4 47 1f be
       -0.0062876893 -0.09230641 0.05574674 -0.1555472
0002a0 02 20 6d 3d c1 80 0d bd ad 34 40 bd 8c 9c 67 3d
       0.057891853 -0.034546617 -0.046925236 0.05654578
0002b0 3b ce 11 bd d3 11 6d bd 85 4f 9b 3d dc 19 2c 3d
       -0.035597067 -0.057878327 0.075835265 0.04201685
0002c0 70 71 5c 3c b1 62 f9 bd 80 b9 3d bd af 0f 0c be
       0.01345478 -0.12177027 -0.046319485 -0.13677858
0002d0 96 69 f2 3d 26 67 b6 bd a4 9c c1 bd e2 d6 b1 3d
       0.11836545 -0.08906393 -0.09453705 0.08683564
0002e0 a6 b7 27 3c a4 33 9a 3d 87 6d b0 3c f7 a4 a5 bd
       0.010236656 0.07529381 0.021536602 -0.08088105
0002f0 dc 3d c3 bd 14 c3 39 3d a7 a8 9e 3d c5 9b 36 3e
       -0.09533283 0.045352057 0.07747012 0.17832859
000300 8a b9 a3 3c 54 d8 21 bd 89 d6 08 3d c7 84 83 3d
       0.019985933 -0.039512947 0.03340772 0.0642181
000310 b4 df b6 bc b0 c8 a9 3d cb 21 21 bd 6e 45 78 bd
       -0.022323467 0.08290231 -0.039338868 -0.06061309
000320 15 65 ce bb 66 2c c7 bd b0 ec 8d bd cc 7e af 3a
       -0.006298671 -0.09725265 -0.0692991 0.0013389229
000330 cf 12 86 bd 72 ae 3f bd f8 94 7b bd e4 72 13 3d
       -0.06546556 -0.046797223 -0.061421365 0.03599824
000340 b0 cc bd bd 75 52 de bd 79 96 90 3c 04 9a 65 bd
       -0.09267557 -0.10855571 0.017649876 -0.056055084
000350 06 d1 77 bc 74 f4 c2 bc f8 92 af 3d 87 f0 41 3d
       -0.015125519 -0.023798205 0.08572954 0.047348525
000360 ce 6b 3f 3d 33 bb ec 3c 89 62 6d bd 27 cf 2e bd
       0.04673367 0.028897857 -0.0579553 -0.042678025
000370 6d 0f 4c bc 72 ed 88 3c d6 74 2f bd 7f be c8 3c
       -0.01245485 0.016714785 -0.042836033 0.024504898
000380 8a 4d 8f bd 97 ba 8a 3d c0 5b 4d 3d cf 3f 0e be
       -0.06997211 0.067738704 0.050136328 -0.13891529
000390 86 ae b3 bc d3 1c 71 3c 43 14 88 bd b3 16 c4 3d
       -0.021933805 0.014716345 -0.066444896 0.09574642
0003a0 52 df 22 3d 9d ff 50 bd d2 25 9b bd be 58 e4 3a
       0.039763756 -0.05102502 -0.07575573 0.0017421467
0003b0 bb 00 38 bd 13 9c 0f bd ed 6b 54 bd c0 b3 ec 3d
       -0.04492257 -0.035060953 -0.05186074 0.11557722
0003c0 a4 4b 3c bd 28 65 ad bb 96 76 d2 bc b7 2b 11 3c
       -0.045970574 -0.0052916 -0.025691312 0.00886052
0003d0 72 68 97 3b 39 a9 4d bd 8f 7c 31 bd 47 ea c3 3b
       0.004620605 -0.05021021 -0.04333168 0.005978856
0003e0 54 57 63 bd e4 93 e5 bc bb bc 79 bb 61 f9 fc 3c
       -0.055503204 -0.028024621 -0.0038106877 0.030880632
0003f0 84 96 2b bd 8f f3 5e bd ef 00 91 3d a1 52 04 3d
       -0.04189159 -0.054431494 0.07080256 0.032305364
