python/binarypath/binaries/gat_000036.pth (torch, 372431 bytes, 8 tensors)

gat_net.0.scoring_fn_target f4 [1, 8, 8]
0	0x3bd6e06c	0.006557515
1	0x3d834aa0	0.06410718
2	0x3cadeb3e	0.021230336
3	0x3c29f3a7	0.010373033
4	0x3c3b1a89	0.011419901
5	0xbd334668	-0.043768317
6	0xbbbe7dfb	-0.005813358
7	0xbc9ef415	-0.019403497
8	0x3c299fb9	0.010353022
9	0xbcf721e0	-0.03016752
10	0xbb8cf393	-0.0043014972
11	0xbd3e35dc	-0.046438083
12	0xbd414bd3	-0.047191452
13	0x3d05c4cd	0.032658387
14	0xbcd9b5d8	-0.026575968
15	0x3d0641f1	0.03277773
16	0xbbc2a73c	-0.005940346
17	0x3d125c33	0.03573246
18	0x3c35cc81	0.011096121
19	0x3d00acde	0.03141486
20	0x3bfd8ab6	0.007737483
21	0x3c771f92	0.015083211
22	0xbccd2a0e	-0.025044467
23	0xbd934ef6	-0.07192795
24	0x3cc23af1	0.023709746
25	0x3a9ae45f	0.0011817327
26	0xba24fd8c	-0.0006293885
27	0xbca45a0d	-0.02006247
28	0x3b38372d	0.002810906
29	0x3c90d246	0.017678391
30	0x3c3146c4	0.0108200945
31	0x3cd3d7ec	0.025859796
32	0x3c10ecf6	0.008845558
33	0xbce05c1e	-0.027387675
34	0x3c9c8b01	0.019109251
35	0xbd3ad054	-0.045608833
36	0x3d2423b4	0.04007311
37	0x3d11a155	0.03555425
38	0xbccf0f27	-0.02527578
39	0xbd13ae3b	-0.03605483
40	0xbcd0c67d	-0.025485272
41	0xbd1d683d	-0.038429487
42	0xbcd0255f	-0.025408445
43	0x3d08b897	0.033379164
44	0xbd2b9d94	-0.041898325
45	0xbd8f807e	-0.0700693
46	0xbca00932	-0.019535635
47	0x3d027e2b	0.031858604
48	0x3c0b6d25	0.008509909
49	0xbcdc5b7b	-0.02689909
50	0x3bb6bccc	0.0055767056
51	0x3c9bb9c3	0.019009477
52	0xbcdddabb	-0.027081838
53	0x3be91454	0.007113019
54	0x3cdb1d22	0.02674729
55	0x3d09c757	0.03363737
56	0x3d9429a9	0.072345085
57	0xbc49a59e	-0.012307553
58	0xbd8c5035	-0.06851236
59	0x3d3d0ff1	0.04615778
60	0xbc00c4fb	-0.007859464
61	0xbd904732	-0.070448294
62	0x3d1b9edd	0.0379933
63	0x3cb3d262	0.021950904

gat_net.0.scoring_fn_source f4 [1, 8, 8]
0	0x3a9dd07a	0.001204028
1	0x3e28c2ed	0.16480608
2	0x3e40a818	0.18814123
3	0x3dbd23a0	0.092353106
4	0x3de06d82	0.10958387
5	0xbd95d888	-0.07316691
6	0xbd3eee50	-0.04661399
7	0xbd9fcd1d	-0.07802794
8	0x3dc16160	0.09442401
9	0xbd80e7a8	-0.06294185
10	0xbcf97d4e	-0.030455258
11	0xbe31c364	-0.17359692
12	0xbe2528a7	-0.16128789
13	0x3d9aa96b	0.07551845
14	0xbe2c9401	-0.16853334
15	0x3dba9167	0.091097645
16	0x3e7da1d3	0.24768762
17	0x3d8f8709	0.07008178
18	0x3c672302	0.014107468
19	0x3d974103	0.07385447
20	0xbd0d69de	-0.03452479
21	0xbd24a64c	-0.040197656
22	0xbdb6b671	-0.08921517
23	0xbe6421a6	-0.22278461
24	0x3e571026	0.21002254
25	0xbba99d08	-0.0051761903
26	0x3e0bd9ee	0.13657352
27	0xbd888608	-0.066661894
28	0xbd0996b6	-0.033590995
29	0x3d796596	0.060887896
30	0x3df22360	0.118231535
31	0x3d99eeb7	0.07516234
32	0xbde785d1	-0.1130482
33	0xbe68f1d8	-0.22748506
34	0x3daecf99	0.0853569
35	0xbe06ac30	-0.13151622
36	0x3d9e5164	0.07730368
37	0x3ca6dd39	0.020369159
38	0xbd426b03	-0.047465336
39	0xbde74cec	-0.112939686
40	0xbe5afe53	-0.2138608
41	0xbddab845	-0.10679678
42	0xbe1ff5f3	-0.15621166
43	0x3e60aa4d	0.21939965
44	0xbd66595f	-0.056237575
45	0xbe90199e	-0.28144544
46	0xbe0fc55d	-0.14040132
47	0x3e21ccf9	0.15800847
48	0x3e484d23	0.19560675
49	0xbe4ea8cc	-0.20181578
50	0x3d93ff0a	0.07226379
51	0xbc140d2e	-0.009036345
52	0xbdea8cab	-0.114526115
53	0xbd127ca7	-0.03576341
54	0x3d60a8e5	0.05484857
55	0x3d5d0a14	0.05396469
56	0x3e9ad7e3	0.30242833
57	0xbe52f148	-0.20599854
58	0xbeca3d9f	-0.39500138
59	0x3ea0c659	0.31401327
60	0xbcc92185	-0.024552116
61	0xbe94754d	-0.28995743
62	0x3e6a92d7	0.22907577
63	0x3d6140f8	0.0549936

gat_net.0.bias f4 [64]
0	0x3c6fcfc3	0.014636937
1	0x3b9d75b5	0.0048052915
2	0x3c864cf6	0.01639412
3	0xbb85d7cc	-0.004084563
4	0xbb7bbe6e	-0.0038413065
5	0xbc039101	-0.008030177
6	0x3b84c393	0.0040516346
7	0x3bda22d6	0.006656985
8	0xbbd8bae6	-0.006614077
9	0x3bc59c67	0.0060306075
10	0x3b117c2f	0.0022199263
11	0xba859fc6	-0.0010194711
12	0x3c0cb57b	0.00858819
13	0xb88d0a7c	-6.725357e-05
14	0xba968793	-0.0011484496
15	0xba9c3eee	-0.001192061
16	0xbba9c183	-0.005180539
17	0x3bde9b89	0.0067934436
18	0x3c28a34f	0.010292842
19	0xbb895fdf	-0.004192337
20	0xbabe8b88	-0.0014537433
21	0x3c2387b2	0.009981083
22	0xbbf6bfa0	-0.0075301677
23	0x3b98c065	0.004661607
24	0xbb3fc4cb	-0.0029261585
25	0x3c34ffa7	0.01104728
26	0xbbc31550	-0.0059534684
27	0xbc36e992	-0.011164086
28	0xbc120baf	-0.008913918
29	0x3c81ab3b	0.01582872
30	0x3bb18fc6	0.0054187505
31	0x3b1d6883	0.0024018593
32	0x3ae669ac	0.00175791
33	0x3bf77a5b	0.0075524277
34	0x3b717306	0.003684224
35	0xbb337551	-0.0027383158
36	0x3c263323	0.010144028
37	0x3c76a314	0.015053529
38	0xbbe78b49	-0.0070661646
39	0xbc371628	-0.011174716
40	0x3b815b9b	0.003947688
41	0x3bd6ba24	0.0065529514
42	0x3c70fee5	0.014709209
43	0x3a991676	0.0011679668
44	0xbb95676a	-0.004559447
45	0x3c2d0538	0.010560326
46	0xbb6c98d5	-0.0036101837
47	0xbbb48fff	-0.0055103297
48	0xbc6e3aa3	-0.014540347
49	0x3c1ea074	0.00968181
50	0x3ba0957e	0.0049006334
51	0x3c2b5e8a	0.010459552
52	0xbc0cc67c	-0.008592244
53	0xbb259e47	-0.0025271343
54	0x3c42bbb5	0.011885573
55	0x3bada2d5	0.005298952
56	0xbbbfd2f7	-0.0058540064
57	0xbb94aeb7	-0.004537429
58	0x3be2ae61	0.0069177602
59	0x3aae8860	0.0013315789
60	0x3be7d097	0.0070744264
61	0x3c9d865c	0.019229107
62	0xb9754007	-0.00023388873
63	0x3ad233ec	0.0016037202

gat_net.0.linear_proj.weight f4 [64, 1433]
0	0xbc9f595c	-0.01945179
1	0xbd488438	-0.04895422
2	0xbd76ef72	-0.060286947
3	0xbd4d1c9f	-0.050076123
4	0x3e152fe4	0.1456905
5	0xbcb730ad	-0.022362078
6	0xbccdd24e	-0.025124695
7	0xbdf131d7	-0.11777084
8	0x3c9822c1	0.01857126
9	0xbd2a2532	-0.04153938
10	0xbb33b29e	-0.0027419697
11	0x3ce0defa	0.027450074
12	0x3e000f05	0.1250573
13	0xbe006403	-0.12538151
14	0x3d2d69b2	0.042337127
15	0x3dce185a	0.100632384
16	0x3d044041	0.03228784
17	0xbd423322	-0.047412045
18	0x3d6f1a9c	0.058374986
19	0xbe018683	-0.12648968
20	0x892e1b72	-2.0957393e-33
21	0x3c5d5121	0.013508112
22	0x3c4bd150	0.012440041
23	0xbd947c1f	-0.07250237
24	0xb9c9a3a2	-0.00038459623
25	0x3da84bf7	0.08217614
26	0x3e1a13f0	0.15046668
27	0x3d9294be	0.071572766
28	0x3c921efa	0.017837036
29	0x3c9800ae	0.018555012
30	0x3d802cf3	0.062585734
31	0xbc827987	-0.01592709
32	0xbc549c9b	-0.012976791
33	0x3ba4d255	0.0050299563
34	0xba8e3011	-0.0010848065
35	0x3ccd2eea	0.025046784
36	0x3cbf7245	0.023369918
37	0x3b810fe9	0.003938664
38	0xbd7cdf66	-0.061736487
39	0x3c478e28	0.012179889
40	0x3e3d90e5	0.18512304
41	0x3c4bb02f	0.012432142
42	0xbd347185	-0.044053573
43	0x3d069ee1	0.032866362
44	0x3d8c6da0	0.06856847
45	0x3d11f33c	0.035632357
46	0xbb132e44	-0.0022457996
47	0x3d5de4d6	0.054173313
48	0x3d610b78	0.054942578
49	0x3995a70d	0.00028543957
50	0x3d9e8f28	0.07742149
51	0x3df9fa9b	0.12206002
52	0xbc6ec04f	-0.014572217
53	0xbb9abe1c	-0.00472237
54	0x3d614cb8	0.055004805
55	0xbbdb09e9	-0.006684531
56	0x3d80a810	0.062820554
57	0xbc58d450	-0.013234213
58	0xbb88cedf	-0.0041750516
59	0xbd42f129	-0.04759327
60	0x06ab2bc0	6.4387336e-35
61	0xbd0fc6bc	-0.035101637
62	0xbcea5427	-0.02860458
63	0x3d23ecf1	0.040020887
64	0x3d90fccc	0.07079467
65	0xbc94df15	-0.01817278
66	0xbb13788d	-0.0022502274
67	0xbd1a00a2	-0.03759826
68	0xbbb982b6	-0.005661334
69	0x3c06cd00	0.008227587
70	0x3c332d04	0.0109360255
71	0x3d45a917	0.04825696
72	0xbd900a10	-0.07033169
73	0xbd81addc	-0.06331989
74	0x3cd1e1a6	0.025620293
75	0xbdbbd50a	-0.09171493
76	0x3db36c38	0.087608755
77	0x3db108fa	0.0864429
78	0x3dcd17c3	0.10014298
79	0x3c3c4fb1	0.011493609
80	0xbc06f907	-0.008238084
81	0xbc9a8226	-0.018860888
82	0x3db5793c	0.08861014
83	0x3c358bc3	0.011080685
84	0x3d3f64cb	0.046726983
85	0xbe7711ec	-0.2412793
86	0xbce872bb	-0.02837502
87	0x3b46c738	0.0030331146
88	0xbc90fa17	-0.017697377
89	0x3d122ef3	0.035689306
90	0xbd125d5e	-0.035733573
91	0x3d7dbedf	0.061949607
92	0x3d4c36da	0.049856998
93	0x3dd1d4c6	0.102456614
94	0xbcdae07a	-0.026718367
95	0x3da7cbb2	0.08193149
96	0x3d814a30	0.06312978
97	0xbcfe512e	-0.031044569
98	0x3d405dad	0.046964336
99	0xbdd9a083	-0.10626318
100	0xbbb818d5	-0.0056181946
101	0xbcdef4e4	-0.027216382
102	0x3e0b2390	0.13587785
103	0xbd5b7336	-0.05357667
104	0x3cbcb253	0.02303425
105	0xbd36e308	-0.044650108
106	0x3d4cfb2f	0.050044235
107	0xbb8d99f6	-0.004321332
108	0x3ce0c0ba	0.02743565
109	0xbd4e3e24	-0.05035223
110	0xbc9333ec	-0.017969094
111	0xbd1b9a2d	-0.03798883
112	0xbc71becb	-0.014754961
113	0xba267a80	-0.00063506514
114	0xbce77c8d	-0.028257633
115	0xbd382bc4	-0.044963613
116	0x3cb67016	0.022270244
117	0x3c0e0e4a	0.008670399
118	0xbd833e4d	-0.06408367
119	0xbc888d5e	-0.016668972
120	0xbdb32de2	-0.08748986
121	0x3c6ee30e	0.014580501
122	0x3d3810df	0.044937965
123	0x3b17de9f	0.0023173464
124	0x3c731dca	0.014838645
125	0x3ca7ef1c	0.020499758
126	0x3c4fb2ef	0.012676938
127	0x3d15099d	0.03638612
128	0xbd069c1f	-0.032863732
129	0x3d26947e	0.040668957
130	0xbda57b0f	-0.08080112
131	0x3d427b7c	0.047481045
132	0xbe0acf11	-0.13555552
133	0x3db70143	0.089357875
134	0xbd88f318	-0.066869915
135	0x3c9496e9	0.018138366
136	0xbdb468c5	-0.08809046
137	0x3c0673c5	0.008206313
138	0x3c49fdff	0.012328624
139	0xbc13f21a	-0.0090298895
140	0xbe83f39a	-0.2577179
141	0x3bc667b0	0.006054841
142	0xbcf3271c	-0.029681735
143	0xbda81715	-0.082075275
144	0xbc9bca47	-0.019017352
145	0x07005e2c	9.657324e-35
146	0xbd278bb3	-0.040904712
147	0xbb03f3c1	-0.0020134302
148	0xba040ffb	-0.00050377817
149	0xbd2a2e25	-0.041547913
150	0xbd429d7a	-0.047513463
151	0x3ddd00be	0.10791157
152	0xbd58d05b	-0.05293308
153	0x3d996c58	0.07491368
154	0x3ca53358	0.020166084
155	0x3d8d03d3	0.06885495
156	0x3bd581a2	0.0065156976
157	0xbd707ab2	-0.05871076
158	0x3baf2a15	0.0053455927
159	0xbc133464	-0.008984659
160	0xbdcf9d10	-0.10137379
161	0x3d28dc00	0.041225433
162	0x3cc32a8d	0.023824
163	0xbd681e2f	-0.05666941
164	0xbcb28961	-0.021794023
165	0xba5d1c47	-0.00084346946
166	0xbd071bce	-0.0329855
167	0xbd870d22	-0.06594302
168	0xbe106ffe	-0.14105222
169	0xbd236893	-0.03989465
170	0x3c66918c	0.014072787
171	0x3a9a587c	0.0011775638
172	0x3d04e7c6	0.0324476
173	0xbc558fd8	-0.013034783
174	0x3cb93f5c	0.02261322
175	0x3a8558c6	0.0010173551
176	0xbd94dc99	-0.07268638
177	0x3d070e17	0.03297242
178	0x3c4c3b0d	0.012465251
179	0x3d3cf665	0.046133418
180	0x3bf5801f	0.00749208
181	0xbcf9964c	-0.030467175
182	0x3c43bba7	0.011946595
183	0x3d6e3e3c	0.05816482
184	0xbb8e79bf	-0.0043480094
185	0xbadfc867	-0.0017073274
186	0xba16596e	-0.0005735372
187	0x3c4bf07d	0.012447474
188	0x3ced2922	0.028950278
189	0x3d3e2584	0.046422496
190	0x3b954f36	0.004556562
191	0xbd22daa5	-0.039759297
192	0xbc5571fc	-0.013027664
193	0x3b88177c	0.00415319
194	0x3ba44c35	0.0050139674
195	0x3d0bbb5e	0.034114234
196	0xbd974d79	-0.073878236
197	0x3d93907f	0.07205295
198	0xbd0593c9	-0.032611642
199	0xbd4cbad6	-0.049982868
200	0x3d01660d	0.031591464
201	0xbcc8916e	-0.024483409
202	0x3d3fd99a	0.04683838
203	0xbdc9d9d3	-0.09856
204	0x3d5b743a	0.05357764
205	0x3dab2b1b	0.08357831
206	0x3bdee493	0.0068021505
207	0xbcd5033e	-0.026002523
208	0xbdd9af90	-0.10629189
209	0xbcf17fa7	-0.029479815
210	0xbba8c55f	-0.0051504816
211	0x3c00c909	0.0078604305
212	0xbd425202	-0.04744149
213	0xbdb66bfa	-0.08907314
214	0xbca6a3de	-0.02034181
215	0x3c6f85fd	0.014619348
216	0xbc24eaf1	-0.01006578
217	0xbdb01a43	-0.08598759
218	0xbd8ea6f5	-0.06965438
219	0xbcd5bd81	-0.026091339
220	0xbc2816d8	-0.010259353
221	0x3d71de5d	0.059049953
222	0x3ce533f2	0.027978871
223	0xbc4c2558	-0.012460075
224	0x3df36e66	0.11886291
225	0xbda1aa45	-0.078938045
226	0x3d82cc26	0.063865945
227	0xbd910d72	-0.070826426
228	0x3d83a1ba	0.06427331
229	0x3c414922	0.011797221
230	0xbd88a3b6	-0.066718504
231	0xbca0f7b4	-0.019649364
232	0x3dbe9309	0.093053885
233	0x3d81a3df	0.06330084
234	0x3df592c6	0.119908854
235	0xbcf0167c	-0.029307596
236	0x3d89fe63	0.067379735
237	0x3999d458	0.00029340643
238	0x3cd13971	0.025540086
239	0xbd1d6c2e	-0.038433246
240	0xbdf2e383	-0.11859801
241	0x3c921c5e	0.017835792
242	0xbd1c6996	-0.038186632
243	0x3bf9607b	0.0076103783
244	0x3d62f5de	0.05541026
245	0x3d4d2019	0.05007944
246	0x3990bc03	0.000276059
247	0xbd331e89	-0.043730292
248	0xbc850b8e	-0.016240861
249	0xbae8f605	-0.0017773515
250	0xbcceba5c	-0.025235347
251	0xbd6e71ba	-0.058213927
252	0xbd26668c	-0.04062514
253	0x3d453862	0.048149474
254	0xbd966de7	-0.07345181
255	0xba650fb3	-0.0008737996

gat_net.1.scoring_fn_target f4 [1, 1, 7]
0	0xbdc198d5	-0.094529785
1	0xbd538260	-0.051638007
2	0x3de5af36	0.112150595
3	0x3dcd89a4	0.100360185
4	0x3e13abf8	0.1442107
5	0x3db0e782	0.086379066
6	0xbe275e1f	-0.16344498

gat_net.1.scoring_fn_source f4 [1, 1, 7]
0	0x3e698172	0.22803286
1	0x3e904996	0.28181142
2	0x3f1c7e2c	0.61130023
3	0x3f0e69a8	0.5562997
4	0x3f5c6eb5	0.86106426
5	0x3f3f5bc0	0.74749374
6	0x3ced226c	0.028947078

gat_net.1.bias f4 [7]
0	0x3db967a8	0.09052974
1	0x3cb6f7cd	0.022334957
2	0xbd2d5dcd	-0.042325784
3	0x3c42c9bb	0.011888917
4	0xbde4b119	-0.11166591
5	0xbd3c1aa4	-0.045923844
6	0x3e183ad5	0.14866193

gat_net.1.linear_proj.weight f4 [7, 64]
0	0x3eba146b	0.36343703
1	0xbefb7bbf	-0.49117848
2	0xbe274b0d	-0.16337223
3	0xbf05ae85	-0.5221942
4	0xbf132a3c	-0.5748632
5	0x3debe542	0.11518337
6	0xbee5f57b	-0.4491385
7	0x3f13e4ce	0.57771003
8	0xbe90b800	-0.2826538
9	0x3da14f2b	0.07876428
10	0x3ec849e2	0.39118868
11	0x3e0e23b8	0.13880813
12	0xbf430325	-0.76176673
13	0xbc423f6d	-0.011855942
14	0x3ecdbc2e	0.40182632
15	0x3e8148aa	0.2525075
16	0xbe40e84f	-0.18838619
17	0x3f202cb6	0.62568223
18	0xbf328d9d	-0.69747335
19	0x3f094b59	0.53630596
20	0xbebb8758	-0.36626697
21	0x3e59d9c6	0.2127448
22	0x3efab071	0.4896274
23	0x3ec47de9	0.38377312
24	0xbf0826d9	-0.53184277
25	0xbf1010a6	-0.56275403
26	0x3eae7565	0.3407394
27	0x3ef59429	0.479646
28	0x3e7a16cc	0.24422759
29	0xbef6b4d0	-0.48184824
30	0x3f0f6dd0	0.56026936
31	0x3eec9b34	0.4621216
32	0xbdfee499	-0.12445945
33	0x3f0ca090	0.549325
34	0xbe9f92f7	-0.31166813
35	0x3f1721fa	0.5903622
36	0x3d4b066c	0.04956667
37	0xbf27986a	-0.6546694
38	0x3ecc6575	0.39921156
39	0x3f01ac33	0.5065338
40	0x3ecc5f4c	0.39916456
41	0x3f2af458	0.6677909
42	0xbf08a316	-0.5337385
43	0x3ea408f4	0.3203808
44	0x3f142ba5	0.57879096
45	0x3f39666f	0.72421926
46	0x3f208524	0.62703156
47	0x3ee66d3c	0.45005214
48	0x3e6f7d59	0.2338766
49	0xbe7f7111	-0.24945475
50	0x3f105da4	0.56392884
51	0xbe27a0b5	-0.16369899
52	0xbf05b37b	-0.5222699
53	0xbea8c22f	-0.3296065
54	0x3f17750d	0.5916298
55	0x3e6239e4	0.22092396
56	0xbf075ea0	-0.5287876
57	0xbeff93ef	-0.49917552
58	0xbead30ab	-0.33826193
59	0xbed92f01	-0.42418674
60	0xbe5023dd	-0.20326181
61	0x3f0e0fb3	0.55492705
62	0x3eff25fd	0.4983367
63	0xbeaf9ff6	-0.34301728
64	0xbee8132c	-0.45327127
65	0xbf265de7	-0.64987034
66	0xbeff3c64	-0.49850762
67	0x3f0d24dd	0.55134374
68	0xbf057dac	-0.52144885
69	0x3f0e6b17	0.55632156
70	0x3f0c7757	0.548696
71	0x3ef81f0c	0.48461187
72	0x3f3e467a	0.7432629
73	0xbef91fb3	-0.48656997
74	0x3efb488e	0.49078792
75	0xbed7c8c6	-0.42145365
76	0xbf3e6789	-0.7437673
77	0x3e7251a2	0.23663953
78	0xbeaaec18	-0.3338325
79	0x3f1dd565	0.6165374
80	0x3f4e0bd4	0.804868
81	0x3e32c78a	0.1745893
82	0x3f1146ea	0.5674883
83	0x3d7f366d	0.062307764
84	0x3f147985	0.57997924
85	0x3e7ef51e	0.24898192
86	0xbf31ff49	-0.6953016
87	0xbf341bc2	-0.70354855
88	0xbd8a8cdd	-0.06765149
89	0x3f1f0d5d	0.62129766
90	0x3f08e88f	0.53479856
91	0xbf21f30c	-0.63261485
92	0xbf01480f	-0.5050058
93	0x3da2b8c4	0.079453975
94	0xbe147e54	-0.14501315
95	0xbd5f6b15	-0.05454548
96	0xbeff1ac3	-0.49825105
97	0xbe8d542e	-0.27603287
98	0x3c59c9d8	0.013292752
99	0x3ec7ff79	0.39062098
100	0xbe94b4b4	-0.29044116
101	0x3ee84a3f	0.45369145
102	0xbe21d90a	-0.1580545
103	0x3e9fbe17	0.31199715
104	0xbf3efcca	-0.74604475
105	0xbf07641d	-0.52887136
106	0xbf119b6c	-0.5687778
107	0x3e85c2f1	0.2612529
108	0xbe3fa2dd	-0.18714471
109	0xbeb73a26	-0.3578655
110	0xbdbde657	-0.092724495
111	0x3e415bef	0.18882726
112	0x3ef2f80b	0.47454867
113	0xbf2031c5	-0.6257594
114	0xbf13739e	-0.5759829
115	0x3f2ef896	0.6834806
116	0xbeb8d0c5	-0.3609678
117	0x3ef2625c	0.47340667
118	0x3d84f1c0	0.06491423
119	0x3f2b1fa0	0.6684513
120	0x3e87a999	0.2649658
121	0xbcc7a995	-0.024372855
122	0xbf23a4cf	-0.6392335
123	0x3f3e7e26	0.7441124
124	0xbf212001	-0.6293946
125	0xbf5b8f53	-0.8576557
126	0x3f1a519d	0.6028078
127	0x3f0c1d72	0.5473243
128	0xbec500db	-0.38477215
129	0xbf084ca0	-0.5324192
130	0xbd827350	-0.0636965
131	0xbecb6127	-0.3972256
132	0x3f0a55dc	0.5403726
133	0x3ecc9ff8	0.39965796
134	0xbee55fe5	-0.44799724
135	0x3df7fabd	0.121083714
136	0xbde525f3	-0.11188879
137	0x3f09d978	0.53847456
138	0xbe22fca8	-0.15916693
139	0x3f321a1e	0.695711
140	0x3ee7e7a9	0.4529393
141	0xbd1f86e2	-0.038946994
142	0x3f0530ab	0.52027386
143	0xbf2ead58	-0.6823325
144	0xbe1c1f9d	-0.15246435
145	0xbec80401	-0.39065555
146	0x3eee248f	0.46512267
147	0xbf2ce21c	-0.67532516
148	0xbe0a077f	-0.13479422
149	0x3eed2b92	0.46322304
150	0xbefd205f	-0.4943876
151	0x3f10ec5a	0.56610644
152	0x3f2e897b	0.6817853
153	0xbeaa06db	-0.33208355
154	0xbf24fb24	-0.6444571
155	0xbed16c96	-0.40903157
156	0x3f06b3a9	0.5261789
157	0x3f1b1112	0.6057292
158	0x3ed6c20a	0.41944915
159	0x3ef9905f	0.4874296
160	0x3f163c0c	0.58685374
161	0xbf2b365c	-0.6687982
162	0xbee8f141	-0.45496562
163	0xbf1d4549	-0.61433846
164	0x3eeacc0e	0.45858806
165	0x3ecc6e68	0.39927983
166	0xbe21bdd7	-0.15795074
167	0xbe34de4a	-0.17662922
168	0x3c57b29c	0.013165142
169	0xbeb8e02b	-0.36108527
170	0x3ec91359	0.39272574
171	0x3ed62bd9	0.41830328
172	0xbef836cc	-0.48479307
173	0xbe94ad26	-0.29038352
174	0xbec35814	-0.38153136
175	0x3f18c8df	0.59681505
176	0xbe8bdb53	-0.2731577
177	0xbf1eb282	-0.6199113
178	0xbf02a38e	-0.51030815
179	0xbf095c26	-0.5365623
180	0x3f191b7d	0.5980757
181	0xbec7eb62	-0.3904677
182	0xbeb9bc79	-0.36276606
183	0xbcef7719	-0.029231595
184	0x3f12d896	0.57361734
185	0xbebbf04d	-0.36706772
186	0xbf0e68af	-0.55628484
187	0x3f20052e	0.62507904
188	0x3f08a529	0.53377014
189	0xbeabc643	-0.335497
190	0x3eba2451	0.36355832
191	0xbed67038	-0.4188249
192	0xbef6da7a	-0.4821356
193	0x3e91392c	0.2836393
194	0x3f32b616	0.6980909
195	0x3f191230	0.59793377
196	0xbe8f780d	-0.2802128
197	0xbefe37e8	-0.49652028
198	0x3f17d9a4	0.5931647
199	0x3f2ce921	0.67543226
200	0xbd5fa469	-0.054600153
201	0xbe31e7ca	-0.17373577
202	0xbefbfee8	-0.49217916
203	0xbedf18f5	-0.43573728
204	0xbe053244	-0.13007456
205	0x3f069a34	0.52579045
206	0x3dd23987	0.10264879
207	0xbf0be86b	-0.54651517
208	0xbf30739f	-0.68926424
209	0xbed6f24d	-0.41981736
210	0xbd9ca033	-0.07647743
211	0xbeb3e224	-0.3513347
212	0x3ef4a736	0.47783822
213	0x3ea1952c	0.31559122
214	0x3e54c49c	0.20778126
215	0x3ef38bd3	0.47567615
216	0x3e22e8b9	0.15909089
217	0x3e33c080	0.17553902
218	0xbf26933f	-0.6506843
219	0xbed0042c	-0.40628183
220	0xbf2ffd6e	-0.6874608
221	0x3cbce883	0.023060089
222	0xbe93a2aa	-0.2883504
223	0xbe90b097	-0.28259727
224	0xbce24f8c	-0.027625822
225	0x3eae334c	0.3402351
226	0x3ed791b4	0.4210335
227	0xbe87acb2	-0.26498944
228	0x3f2be58c	0.67147136
229	0xbe44f39e	-0.19233558
230	0xbeedbaa4	-0.46431458
231	0xbedabfd3	-0.42724475
232	0xbe5b149d	-0.21394582
233	0x3f278b1f	0.65446657
234	0x3f00cc2d	0.5031155
235	0xbf072fe2	-0.5280744
236	0xbe315f6d	-0.17321558
237	0x3ed2251c	0.41043937
238	0x3ec65e97	0.3874404
239	0xbf447040	-0.7673378
240	0xbf2deebc	-0.67942405
241	0x3e20fbc3	0.1572104
242	0x3f15c84b	0.5850875
243	0x3eb465af	0.35233828
244	0xbee8cf6b	-0.45470747
245	0xbece82ca	-0.4033416
246	0x3e105a13	0.1409686
247	0xbefda6b2	-0.4954124
248	0xbec3b99e	-0.38227552
249	0xbc808bc1	-0.01569164
250	0x3f0308ee	0.511855
251	0xbf08ab27	-0.5338616
252	0x3f04e692	0.5191432
253	0x3e76ce5f	0.24102162
254	0x3e50dbd9	0.20396365
255	0xbee52381	-0.4475365
