python/binarypath/binaries/gat_000035.pth (torch, 372431 bytes, 8 tensors)

gat_net.0.scoring_fn_target f4 [1, 8, 8]
000000 89 aa 88 3d df 2a 43 3d 31 2a e5 bd 83 25 2f 3e
       0.06673152 0.047648307 -0.11189688 0.17104153
000010 f3 a9 56 3e 49 14 b3 3d a0 ed 48 3d d4 1c c0 bd
       0.20963268 0.087441035 0.04905474 -0.093804985
000020 9e f4 e5 3b 17 3b fe bc c5 4e 6d be 21 f7 05 3e
       0.007017686 -0.031034036 -0.2317458 0.13082553
000030 b0 4c 72 be cc 2b 33 3e af c3 51 be 73 1d 23 3e
       -0.23662066 0.17497176 -0.20484804 0.15929203
000040 30 6d 57 3c 84 c5 26 3e ac c5 8d bd 24 5d 09 3e
       0.013148591 0.16286284 -0.069224685 0.13414437
000050 a7 49 ac 3d 55 38 53 3d 25 99 0a be 40 45 90 bc
       0.084124856 0.051567394 -0.13534983 -0.017611146
000060 96 ed e6 3c 5b 14 f9 3d 3f 87 9f bc df b1 cc 3d
       0.028189462 0.121620856 -0.01947367 0.09994864
000070 b3 11 04 3d 3b d9 00 3d b6 62 e9 3d 70 68 a7 3b
       0.03224344 0.031457167 0.11395781 0.0051088855
000080 59 6f 68 bc 2b dd a8 bb 86 47 03 bd 8e d6 bd 3d
       -0.014186704 -0.0051533184 -0.032050632 0.09269439
000090 35 6c ad bd 1a 9c 04 3b a1 35 04 3e 20 40 b1 37
       -0.084679045 0.0020234645 0.12911083 2.1129905e-05
0000a0 33 b5 75 3c 6f a0 c2 bd e7 62 88 bc 28 cf 62 bc
       0.014996815 -0.095032565 -0.016648723 -0.013843335
0000b0 af 44 16 bd d9 b9 97 bc 81 8f ab 3d 21 b0 2e 3d
       -0.036686596 -0.018521236 0.083769806 0.04264844
0000c0 0a 59 36 3e 1d d3 8e 3e b9 9f a0 3e bf 5b 2f 3d
       0.17807403 0.27895442 0.3137186 0.042812105
0000d0 15 90 b9 bd dd 5f 15 3e 13 a4 81 be 2a 01 47 be
       -0.090606846 0.1458735 -0.2532049 -0.19434038
0000e0 2a 41 12 bd 49 83 90 3d 2f 3b fa bc 1e d1 b4 3c
       -0.035706677 0.07056291 -0.030545799 0.022072371
0000f0 e0 53 9e bc 51 4c 85 3c f4 71 ce bc 09 4d 0f bd
       -0.019327104 0.016271742 -0.025200821 -0.034985576

gat_net.0.scoring_fn_source f4 [1, 8, 8]
000000 ab 71 5f 3d 6b c7 14 3f c9 45 e1 be 56 28 6e 3f
       0.05455176 0.5811679 -0.43998554 0.930303
000010 29 36 5a 3f 61 cb e7 3e 63 38 47 bd 62 c6 00 bf
       0.8523889 0.45272353 -0.04863776 -0.5030271
000020 90 f5 5c bf e1 03 17 bf 83 f6 ac bf 37 ba cc 3f
       -0.863122 -0.58990294 -1.351273 1.5994328
000030 6d d2 ba bf f6 2b 8e 3f 31 63 d9 bf 68 5b 67 3f
       -1.4595467 1.1107166 -1.6983396 0.9037385
000040 74 5e 45 3f 89 2e 63 3f 70 63 63 bf be 01 5d 3f
       0.7709725 0.8874288 -0.88823605 0.86330783
000050 56 1d b2 3e da 45 3f bb 24 22 3b bf cc c9 34 3e
       0.34788007 -0.0029185922 -0.7309897 0.17655104
000060 aa cb e1 3d 3d 8c aa 3e eb 7c ad 3e 2a 35 28 3f
       0.11025174 0.33310118 0.33884367 0.6570612
000070 69 66 c6 bc 1b 65 87 be cc 2e 29 3f b3 f5 be be
       -0.024218755 -0.26444325 0.6608703 -0.3729683
000080 90 08 8f bb fe 4d ad be 5c c9 e9 3e e4 7a 40 3f
       -0.0043650344 -0.33848566 0.45661438 0.75187516
000090 1e 68 58 bf 68 e4 b5 bd 2a 6c 69 3f d1 0c e7 3e
       -0.8453387 -0.08881456 0.9118067 0.45126966
0000a0 83 d5 42 3e ef 63 51 bf 39 ca 7f bd ee 8a 92 3b
       0.19026761 -0.8179311 -0.062448714 0.004472128
0000b0 2d 9d 6a be a9 71 ad bd 2a a8 12 3f f1 df db 3e
       -0.2291152 -0.084689446 0.5728785 0.4294429
0000c0 c9 8d 10 40 04 a1 0b 40 7c 01 21 40 71 d5 29 3f
       2.2586539 2.1817026 2.5157156 0.6634131
0000d0 a2 7c 0f bf 04 0a 8e 3f dd 2a d2 bf 56 56 98 3c
       -0.5604955 1.1096807 -1.6419331 0.018595856
0000e0 63 ec 20 bc 22 12 86 3e 93 1a f5 bd 43 0b 4a bd
       -0.009821984 0.2618571 -0.11967959 -0.049327146
0000f0 d1 3b 45 be 2e c5 72 3d ae c0 91 bc 1e 09 ea bd
       -0.192611 0.059270076 -0.017792072 -0.1142752

gat_net.0.bias f4 [64]
000000 ae 44 a5 3d 14 f9 41 bc cc c4 e3 3d 79 bd 32 ba
       0.0806974 -0.01183917 0.111215204 -0.0006818395
000010 6f d1 01 3d 7b 61 6f 3d b0 27 c3 3c 0a 2f 47 3d
       0.031693872 0.058442574 0.023822635 0.048628844
000020 6c 31 47 3d 36 07 81 3d c0 9b 5f 3d db 9b 01 3d
       0.048631117 0.063002035 0.054591894 0.031642776
000030 c6 c9 27 3d 84 2d 5c 3c 44 6e 80 3d 4a 7b 40 3d
       0.04096391 0.013438586 0.062710315 0.046992578
000040 53 87 11 bd 57 6c 72 3d fe 4c a2 3d 6f d8 02 3d
       -0.035529446 0.059185352 0.07924841 0.03194469
000050 c4 48 8e 3d ea 20 9f 3d 99 1a 92 3d f1 31 a8 3d
       0.06947473 0.0776995 0.07133979 0.082126506
000060 77 2b 9f 3c 91 e4 88 3c c0 c6 02 3d d5 10 73 3c
       0.019429905 0.016710551 0.031927824 0.014835556
000070 7b 66 e6 3d fe ad 85 bc 08 49 3d 3d ee f9 d3 3d
       0.11250015 -0.016318318 0.046212226 0.10350405
000080 0e 0c 98 3d 63 25 0c 3e e2 d2 80 3d 62 52 2e 3d
       0.07424174 0.13686137 0.06290223 0.042559035
000090 63 21 82 3d 72 43 5d 3d e7 e5 09 3d d9 72 aa 3d
       0.06354024 0.0540194 0.033666518 0.08322687
0000a0 fc e7 94 3d ca 03 88 3d 88 eb d8 3d a0 86 98 3c
       0.0727081 0.06641348 0.10591799 0.018618882
0000b0 d6 85 7c 3d 52 c0 68 3d 37 73 b1 3c e4 39 0b bc
       0.061651073 0.056824036 0.021661384 -0.008497689
0000c0 3a 3c 06 3d a3 1f f9 3c 3a eb 99 3c a8 01 05 3d
       0.03277228 0.030410593 0.018788923 0.032472283
0000d0 08 5f 93 3d aa 54 6f 3a 0b 80 30 3d 93 08 31 3d
       0.0719586 0.00091297424 0.04309086 0.043221068
0000e0 1a ad 01 3d 0e a1 8d 3d 52 2f 7f 3d 8e 22 c1 3d
       0.031659223 0.06915484 0.062300988 0.09430419
0000f0 1f 3c 02 3e 23 01 15 3d 0e 17 7f 3d 05 0d 8c 3d
       0.12718247 0.036378037 0.062277846 0.06838421

gat_net.0.linear_proj.weight f4 [64, 1433]
000000 10 22 a3 3c 17 53 43 3d ec 16 1f bd 0e ca 12 bd
       0.019913703 0.047686663 -0.03884022 -0.035837226
000010 38 50 64 be 04 36 51 3c 82 87 06 bd d6 ab b7 3d
       -0.22296226 0.012769226 -0.032844074 0.08968322
000020 86 4c 5a bd d6 02 c6 3b 82 8f 59 3b f3 83 be 3c
       -0.053295635 0.0060428185 0.003319711 0.023256278
000030 5f af 82 bd 39 57 de 3c 3a 37 0d ba 4e 96 81 3d
       -0.06381106 0.0271412 -0.00053869525 0.063274965
000040 70 50 bb 3c 92 87 86 bd 44 2c 6b bc ca 8f 47 3f
       0.022865504 -0.06568827 -0.0143538155 0.7795378
000050 2b bf 0f 00 ad 7d 27 bc 22 0c 29 3c e3 5d 96 bc
       1.44611e-39 -0.010222835 0.010317834 -0.018355316
000060 dd 1a 05 bd 79 c9 a5 bd e8 05 c7 bc fc b4 39 bb
       -0.032496322 -0.080950685 -0.024294809 -0.0028336635
000070 93 20 3a bd 41 37 21 bc ec 12 87 bd 32 d5 e6 3b
       -0.04544122 -0.009839834 -0.06595406 0.007044458
000080 15 6c 19 3a bc 60 b1 bb f1 a5 69 bb 7b 7b 9f bc
       0.00058525923 -0.005413143 -0.0035651887 -0.01946806
000090 ce 8a 32 3d b4 51 0b bc 6f e2 9b 3c 16 23 26 3e
       0.043589406 -0.008503366 0.01902887 0.16224322
0000a0 4e 12 9a bd f0 dc 19 3e 70 65 d4 3a 41 aa 86 3c
       -0.075230226 0.15025687 0.0016204547 0.016438605
0000b0 42 72 6a 3c 67 d5 60 bd 13 5e 93 bc 70 b3 73 bd
       0.014309468 -0.054891016 -0.017989194 -0.059497297
0000c0 60 48 a9 bd 4e a0 7b bb e0 48 a6 bd a1 d3 5c 3e
       -0.082657576 -0.003839511 -0.081193686 0.21565105
0000d0 28 f0 a9 3d 4f 3e b0 ba 5c ca c2 bd d4 f1 fa b9
       0.08297759 -0.0013446304 -0.09511253 -0.00047863892
0000e0 02 39 fe bc b3 f9 4f 3d bb 61 3f 3e 80 50 bd 3c
       -0.031033043 0.05077524 0.18689625 0.023109674
0000f0 4d 88 b2 0a a2 67 1d 3d 71 4a b3 bc 2c a6 9c bd
       1.7192047e-32 0.03842891 -0.021886082 -0.07648882
000100 a8 67 f5 bc bf ff e5 3c d0 5f 60 35 e2 18 4d bd
       -0.029956654 0.02807605 8.358593e-07 -0.05007256
000110 8b 4b b9 3c b3 9f ab bc 23 b6 9b bd 38 87 df bb
       0.02261903 -0.020950174 -0.07603099 -0.0068215393
000120 05 1b 8e 3c 56 fa 03 3d c3 53 34 bd 03 05 86 3d
       0.017346868 0.03222116 -0.044025194 0.06543925
000130 4d 11 cb bd 4b 6c 36 3e 58 1c 17 bd 01 20 f2 3c
       -0.09915409 0.17814748 -0.036892265 0.029556276
000140 67 70 e1 3d b7 21 92 bb 91 60 b4 bc 7f 4e 9f bd
       0.11007767 -0.0044595855 -0.022018703 -0.07778644
000150 5c fc a3 bb d0 0b f2 3d 7d 8b 43 bd 79 20 b2 bc
       -0.005004449 0.11818659 -0.04774045 -0.021744
000160 bc 4e 83 3d 91 97 44 3d 90 3e 36 bc 80 ef 95 bd
       0.06411502 0.047996107 -0.0111233145 -0.073210716
000170 12 6f 3c bd f9 48 8d be d8 e6 90 3d 67 99 94 3d
       -0.046004362 -0.27594736 0.0707528 0.07255822
000180 9b 93 1f bd 3d f2 a0 3d 69 e3 88 bd 93 63 59 bd
       -0.038959127 0.07858703 -0.06684 -0.053073477
000190 d1 30 0e bd a8 be 12 bc ac 41 67 3d d7 b7 78 3d
       -0.034714524 -0.008956589 0.056459114 0.0607222
0001a0 d8 e5 de 3d aa c1 8c ba 1a 57 f1 bc 15 70 a5 bc
       0.10883683 -0.0010738869 -0.029460479 -0.020195046
0001b0 ea f9 83 be 47 ad 5b 3d 00 4e 8e bb 03 92 85 3c
       -0.25776607 0.053632047 -0.0043427944 0.016304975
0001c0 85 c5 1b bd 99 2a 9f 3a 18 14 14 bc 69 2f 93 3b
       -0.038030166 0.0012143432 -0.009037994 0.0044917357
0001d0 c6 79 c1 bc 52 41 91 bc 2c 58 da bd 48 ec ea 38
       -0.023617636 -0.017731342 -0.10661349 0.00011202
0001e0 9c 8a 91 3d 75 ba 3d bc 36 ee 33 bd a6 85 e3 bb
       0.07106516 -0.011580099 -0.043928348 -0.0069434224
0001f0 57 3d 66 3d 02 c6 ec 3d 1b 8b e9 bd 00 66 c5 3c
       0.056210842 0.115612045 -0.114034854 0.024096489
000200 ed 57 48 3e fb 95 9e 3c 79 56 44 3d bf da ce 3d
       0.19564791 0.019358626 0.04793403 0.10100316
000210 d0 0c 41 bc 9c 40 88 3c af f4 41 3c 49 74 96 3e
       -0.01178284 0.01663237 0.011838122 0.29385594
000220 03 96 05 3e a5 59 d1 3c 9d 30 87 3a 1e 51 46 bc
       0.13045506 0.025555441 0.001031417 -0.012104301
000230 62 24 9d be d4 b9 32 bb 62 76 2e bd 0a c8 30 3d
       -0.3069182 -0.0027271407 -0.042593367 0.043159522
000240 51 26 71 3c a2 b6 37 80 2e 73 c5 bd 40 f8 a9 bd
       0.014718608 -5.116469e-39 -0.096411094 -0.08299303
000250 62 30 b6 bc 35 f5 6b 3d 8c 04 1f 3d 83 02 dc bc
       -0.022239868 0.057606895 0.038822696 -0.026856666
000260 fc a0 72 3c 99 ab d3 3d d2 ff 7d bb 8d e7 6f 3d
       0.0148088895 0.10335464 -0.0038757217 0.058570433
000270 82 31 9d bd 61 d8 19 3d 78 aa e0 bc 43 67 d6 bc
       -0.076754585 0.03755987 -0.027425036 -0.026172286
000280 33 11 c0 3d 54 14 4d bb 14 97 f7 3d 8e e9 2a bb
       0.093782805 -0.0031292634 0.12089363 -0.002607915
000290 74 d9 8c bc 92 cc d2 bb 4d 64 2f 3d 7c f8 1d bd
       -0.017193533 -0.006433078 0.042820264 -0.03856705
0002a0 04 0d 2a 3e 06 34 45 b9 a0 c2 1b bd cd 77 b0 bb
       0.16606528 -0.00018806764 -0.038027406 -0.005385375
0002b0 f3 71 5f 3d b1 6e 96 3d 39 2f 8a bd 4e ce 04 bc
       0.05455203 0.073453315 -0.06747288 -0.0081058275
0002c0 17 f7 b6 3d b7 c0 26 bd 44 b9 16 bd 49 ec 0b be
       0.089338474 -0.04071113 -0.036797777 -0.13664354
0002d0 56 24 26 bc 3f 6a 03 bc 6a 64 e6 bb 92 89 39 3c
       -0.010140499 -0.0080209365 -0.0070310133 0.011324303
0002e0 05 65 05 3d a8 07 ec b7 f1 f1 26 bd 96 d1 22 bd
       0.032567043 -2.8136958e-05 -0.040758077 -0.039750658
0002f0 87 33 1c be ab 1d 27 bd f7 00 0a bc 86 af ec bd
       -0.15254031 -0.040799778 -0.008423082 -0.11556916
000300 9a 12 e2 3d 68 d1 6a bc 92 1c 4d bd 0b 92 9d bc
       0.11038704 -0.014332153 -0.050076075 -0.019234678
000310 a8 2c b7 3d 53 00 a5 3c df 19 25 3d 07 d9 d5 3c
       0.089440644 0.020141756 0.040307876 0.026104463
000320 eb 3f 69 bc 38 8b 50 3c 7e 0a 1c bd 04 b8 8f bd
       -0.014236431 0.012728505 -0.038095944 -0.0701752
000330 c4 a4 ec 39 1c 1b 30 be d6 27 d1 3b 72 f6 42 3d
       0.00045136188 -0.17197841 0.0063829226 0.04759831
000340 6a 4e 84 3d 2d 70 d1 bb 2b 4e 01 bc f3 77 78 3c
       0.06460269 -0.006391546 -0.007892172 0.015165317
000350 c0 3d d0 3d 64 90 b3 3c 73 a8 1e bc 3d 14 01 bc
       0.10168028 0.021919437 -0.009683716 -0.00787836
000360 3b 8c fd 3b 69 ab c9 3d d6 57 a5 3d 11 2c 8f bc
       0.007737664 0.09847147 0.08073394 -0.017477067
000370 c5 e3 d2 bc 83 d8 1d bc a0 5c 9d bc 86 8e a7 3b
       -0.025743375 -0.00963414 -0.019209206 0.0051134257
000380 19 20 6f bd 1c b8 82 3c 8e a3 33 3c 68 c1 cd bb
       -0.05838022 0.01595693 0.010964287 -0.0062791593
000390 20 d6 51 bc f5 3e 93 3a 3d 9f 27 3d fe 35 99 3c
       -0.012807399 0.0011233973 0.040923346 0.018702503
0003a0 e3 1c af 3d 13 97 89 bd 27 45 45 be f0 00 7d bb
       0.085504316 -0.06718268 -0.19264661 -0.0038605295
0003b0 5d 50 6c bb 36 e7 88 bb bf 76 7c 3d 92 3f 5b 3d
       -0.0036058642 -0.004177953 0.061636683 0.053527422
0003c0 8d f4 27 3d 3c 37 f2 b9 37 4c c5 bc 96 74 cf bc
       0.041004706 -0.0004619899 -0.024084194 -0.025324147
0003d0 80 47 4d 39 f5 90 dd bb a6 5d e1 3c dc 26 67 bd
       0.0001957696 -0.006761665 0.027510475 -0.056433544
0003e0 9b 48 7e bd 54 66 fd 3c 83 1f e2 3d 92 0f 8d 3d
       -0.06208096 0.030932583 0.11041167 0.068877354
0003f0 a1 c2 f3 3a 1a 67 db 3a 56 f3 51 3d e4 00 81 bc
       0.0018597433 0.0016739101 0.051257454 -0.015747495

gat_net.1.scoring_fn_target f4 [1, 1, 7]
000000 1e a9 83 3d 23 73 ee 3d 7a 66 f4 3d 4a dc 0f 3e
       0.06428741 0.11643054 0.11933608 0.14048877
000010 ea df a9 3d eb bb b5 3d 1a ca 66 3d
       0.08294661 0.08873733 0.056345083

gat_net.1.scoring_fn_source f4 [1, 1, 7]
000000 83 9d e5 3e ba 42 d0 3e 92 eb c1 3e b8 82 cc 3e
       0.44846734 0.40675908 0.37875038 0.3994348
000010 3d b8 c1 3e 0b 2f ca 3e a0 02 f8 3e
       0.37835875 0.39489016 0.48439503

gat_net.1.bias f4 [7]
000000 50 15 92 3d 76 3b e9 bd 13 57 01 3d 3f 04 9a bc
       0.07132971 -0.113882944 0.03157718 -0.018800853
000010 b2 a9 ee bd c3 be 71 3d 9d d8 8d 3d
       -0.116534606 0.059019815 0.06926081

gat_net.1.linear_proj.weight f4 [7, 64]
000000 39 5f da bd 87 2e f6 3f ec 06 85 bf 6a 1c e7 3f
       -0.106626935 1.9232949 -1.0392737 1.8055546
000010 0b 53 b7 3f 26 79 a1 3f ab 32 6f bf b7 02 8c bf
       1.4322218 1.2615097 -0.9343669 -1.0938329
000020 61 8d dd 3f 6a 66 6e 3f 2e a1 d3 3f 04 c6 9e bf
       1.730877 0.9312502 1.6533563 -1.240418
000030 18 78 bc 3f be ea 5c bf f2 84 c8 3f 06 94 ca 3e
       1.472415 -0.8629569 1.5665572 0.39566058
000040 4c c4 78 3f 6b e0 9c bf 6f 4a 8d 3f 40 98 a4 bf
       0.97174525 -1.2255987 1.103834 -1.2858963
000050 92 1a 5e bf 3a 88 35 bf b6 27 93 3f 35 e9 13 3f
       -0.86759293 -0.7091099 1.1496494 0.5777772
000060 ad 2a 88 bf 2d 6a 97 bf dc a8 a7 3f 64 c5 b8 3f
       -1.0638024 -1.1829277 1.3098407 1.4435239
000070 59 be 95 bf f3 a1 87 bf 48 f7 a0 3f cc 02 74 bf
       -1.1698714 -1.0596298 1.2575464 -0.9531677
000080 79 3b 93 3f e8 bb c3 be 02 a2 a8 3f ec 20 b8 3f
       1.1502525 -0.382293 1.3174441 1.4385047
000090 53 e5 b0 bf 5a fe 82 bf 6c 2d d7 3f d5 6a b0 3f
       -1.3819984 -1.0233872 1.6810737 1.3782603
0000a0 9f 0f b6 3f 2f c1 c1 bf 0c 8a 93 3f 08 10 4b 3f
       1.4223517 -1.513708 1.1526504 0.79321337
0000b0 b2 65 99 bf cd 17 4d 3f 6d 44 cd 3f 1d ee cd 3f
       -1.198416 0.8011444 1.6036507 1.6088291
0000c0 6c 49 89 bf d2 01 99 bf fd 68 88 bf 46 c7 43 bf
       -1.0725532 -1.195368 -1.065704 -0.7647594
0000d0 47 52 1e bf 70 ba 4b bf a4 2b 97 3f c0 6d 88 bf
       -0.61844295 -0.79581356 1.1810193 -1.0658493
0000e0 ce 48 3b be 2b 59 62 bf 33 e1 88 3f 02 cd 47 3f
       -0.18289492 -0.8841731 1.0693725 0.7804719
0000f0 79 ed a3 3e 1f 16 37 bf 23 77 65 3f 94 06 fe 3e
       0.32017115 -0.7151813 0.89634913 0.49614394
000100 04 99 ae 3f c4 e0 25 bf ac 8e 53 bf 58 68 a6 3f
       1.3640447 -0.6479609 -0.82639575 1.3000593
000110 b7 f2 9a 3f 12 9b 83 3f ae d0 12 bf 56 05 59 bf
       1.2105321 1.0281699 -0.5734967 -0.84773767
000120 eb 87 c8 bf fa 9f f0 bf 5c e9 c9 bf 85 6f 0e 40
       -1.5666479 -1.8798821 -1.5774341 2.2255566
000130 73 7a ce bf 5d 7c 0a 40 ce 83 cc bf f6 5d 02 40
       -1.6131119 2.1638405 -1.5977724 2.036985
000140 9e 37 9c 3f cd f8 99 3f ab b3 93 bf bf c7 98 3f
       1.2204473 1.2029053 -1.1539205 1.1935958
000150 d5 de 9e 3f cb 81 7f 3f c1 c5 8d 3f d1 36 3d bf
       1.2411753 0.99807423 1.1075975 -0.7391177
000160 57 52 73 3f 79 55 55 3f 72 3b 22 bf 11 00 2e bf
       0.95047516 0.83333546 -0.63371956 -0.6796885
000170 42 66 29 bf 47 71 d0 be 2c c4 1b bf b2 77 99 be
       -0.6617166 -0.40711424 -0.6084621 -0.29974133
000180 b0 a7 82 bf a3 d8 95 bf 56 be 4b 3f bb 1d ab 3f
       -1.0207424 -1.1706737 0.79587305 1.3368448
000190 f4 c8 40 bf 25 38 ca 3f 06 35 ba 3f f4 a7 73 3f
       -0.7530663 1.5798384 1.4547431 0.9517815
0001a0 04 07 20 bf 3a 38 a0 3f 33 af b9 be 81 fe e8 be
       -0.62510705 1.2517159 -0.3626648 -0.4550667
0001b0 b0 a4 71 3f 3a 4a 74 3f 4e 2d 51 bf b9 9a 20 3f
       0.9439192 0.9542576 -0.81709754 0.6273609
0001c0 33 c9 9a bf a5 93 1a bf f3 a5 9b bf dc 46 87 bf
       -1.2092651 -0.6038154 -1.2160019 -1.05685
0001d0 9a bb 4b 3f db 6e 75 bf a1 c2 87 be 3e 4e 62 3f
       0.7958313 -0.9587228 -0.26515678 0.8840064
0001e0 69 be 79 3f a8 45 06 bf 0d 15 39 3f 7f b3 49 bf
       0.9755617 -0.52450037 0.72297746 -0.78789514
0001f0 f8 61 f7 3e b8 c9 e3 be 7e 84 51 3f 27 80 68 3f
       0.48316932 -0.44489837 0.8184279 0.90820545
000200 a5 e0 43 bf a2 65 a5 3f 8b 68 4c 3f 21 ea cb 3f
       -0.76514655 1.2921641 0.7984702 1.5930825
000210 7d ff 98 3f e8 f7 30 bf 51 36 b1 3f 29 ab 90 3f
       1.1952969 -0.69128275 1.3844701 1.1302234
000220 06 46 c5 3f 33 04 f8 3e cf 4d bf be b0 e0 f3 be
       1.5411994 0.48440704 -0.3736405 -0.4763236
000230 4a a5 03 bf 80 28 67 3f cb 02 a3 3f b8 5e 50 3f
       -0.51424086 0.90296173 1.2735227 0.8139453
000240 8c 46 d6 3f 81 39 b1 3f b9 dc b0 bf 2b 65 9f 3f
       1.6740279 1.3845674 -1.3817359 1.2452749
000250 3d f7 35 3f 38 ae a5 bf f3 38 cc bf cf f6 bd 3f
       0.7108038 -1.2943792 -1.595488 1.4840945
000260 45 a3 a2 3f 4c 72 f8 be 0e e9 33 bf 42 68 08 bf
       1.2706076 -0.48524702 -0.7027749 -0.53284085
000270 94 eb 25 3f e7 48 58 3f 69 8c e8 be 53 d5 d1 3d
       0.6481259 0.8448624 -0.45419624 0.102457665
000280 de f8 15 bf f7 1b 54 3f 88 99 29 bf 38 b6 79 3f
       -0.58582866 0.8285517 -0.66249895 0.9754367
000290 08 02 9c bf 46 0d 61 bf 52 fa 99 3f 07 48 32 bf
       -1.218812 -0.8791088 1.2029517 -0.69641155
0002a0 7f 65 1f 3f b3 60 80 3f c5 45 86 3f e4 aa 80 bf
       0.62264246 1.002951 1.0490042 -1.0052152
0002b0 fb 6d 4f bf a1 34 8e bf 6d 7b 45 bf 59 d1 61 bf
       -0.8102719 -1.1109811 -0.7714146 -0.88210064
0002c0 d2 a1 85 3f 0a 17 70 3f b3 f4 80 3f dc 3c bb 3f
       1.0440009 0.93785155 1.0074676 1.4627948
0002d0 70 df 37 3f 86 7c dc 3f ab 3f 90 3f 63 6a 5f 3f
       0.71825314 1.7225502 1.126943 0.8727171
0002e0 c3 e0 a2 3f d3 2b a5 3f 4f ab 54 bf 17 49 9d bc
       1.2724842 1.2903999 -0.83073896 -0.019199891
0002f0 2b 6b 8e bf 45 af a3 3f 78 8d 17 bf f7 c8 7b bf
       -1.1126455 1.2787863 -0.5920024 -0.98353523
000300 b6 1e b3 3f dc 78 a2 bf 34 48 c4 3e 61 72 a6 bf
       1.3993747 -1.2693133 0.38336337 -1.3003656
000310 3d 08 ce bf 54 c8 ad bf 6b 2a 99 bf a9 e1 d5 3f
       -1.6096264 -1.357676 -1.196607 1.6709491
000320 ca 5d 92 bf 54 c6 1c 3f 31 0d da 3f ef e5 89 bf
       -1.1434872 0.61240125 1.7035276 -1.0773295
000330 bd 06 d5 3f 93 9b 50 bf ec 5d 79 3f 54 2b 5b bf
       1.6642681 -0.8148739 0.9740894 -0.8561299
000340 57 be 92 bf 76 59 47 3f 1f ee 57 bf 10 ea 4b 3f
       -1.1464337 0.7787088 -0.8434772 0.79654026
000350 ab 47 47 bf 28 b0 b6 3f d9 a6 19 bf 93 e1 55 3f
       -0.7784373 1.4272509 -0.60020214 0.83547324
000360 b5 2b 94 bf fd a3 7d bf ea f4 de be fb aa a3 bf
       -1.1575838 -0.9907835 -0.4354623 -1.2786554
000370 26 3f a2 3f ae 49 11 3f ee 24 9d bf 41 09 bc 3f
       1.2675521 0.5675305 -1.2276895 1.4690324
000380 c8 4f e3 be f1 ba 8b 3f 07 03 31 bf f5 32 5e 3f
       -0.44396806 1.0916425 -0.69145244 0.86796504
000390 88 b2 ee 3f 98 2b 09 bf f9 8e c6 bf 40 a3 68 bf
       1.8648233 -0.53582144 -1.5512382 -0.908741
0003a0 75 4d 87 3f b2 50 aa 3f ae f8 65 3f da 12 ad 3f
       1.0570513 1.3305876 0.8983258 1.3521378
0003b0 07 4f de 3f 21 25 a9 3f a2 df a1 bf ac 49 20 bf
       1.7367867 1.3214456 -1.2646372 -0.62612414
0003c0 34 b3 c6 bf 2b f6 c8 bf d6 e6 b8 bf 1a 0a 80 bf
       -1.5523438 -1.5700125 -1.4445446 -1.0003083
0003d0 77 5e ca 3f 09 23 5d bf 2c 8c 96 3f e9 cb 4b 3f
       1.5810078 -0.86381584 1.1761527 0.7960802
0003e0 71 29 75 bf 7b 1a ad 3f a5 d4 45 bf f9 b2 7c 3f
       -0.9576636 1.3523706 -0.77277595 0.9871059
0003f0 d0 a8 85 3f 0f e4 4e bf 70 27 9b bf 06 bf aa 3f
       1.0442142 -0.8081674 -1.212141 1.3339546
