python/binarypath/binaries/gat_000028.pth (torch, 372431 bytes, 8 tensors)

gat_net.0.scoring_fn_target f4 [1, 8, 8]
0	0x3e6df857	0.23239265
1	0x3c1f176c	0.009710174
2	0x3e53bbaa	0.20677057
3	0x3da11300	0.07864952
4	0xbe19a483	-0.15004162
5	0x3c83ecce	0.016104128
6	0xbda750d4	-0.081697136
7	0x3e6cff8a	0.23144355
8	0xbc7a368e	-0.015271796
9	0x3d03be3c	0.032163844
10	0xbce3da85	-0.02781416
11	0xbe22a426	-0.1588293
12	0xbc9428ea	-0.018085916
13	0xbcf87b82	-0.03033233
14	0x3da2d0a0	0.07949948
15	0xbe3c319e	-0.18378302
16	0xbd78c625	-0.06073584
17	0xbd84f9fb	-0.064929925
18	0x3d884e1a	0.06655522
19	0xbe0acb70	-0.13554168
20	0xbe681e39	-0.22667779
21	0xbe1665df	-0.14687298
22	0xbc910856	-0.01770417
23	0xbcb77a08	-0.022397056
24	0x3e10cef1	0.14141442
25	0x3e33367b	0.17501251
26	0x3e35a551	0.17738844
27	0x3dce3d2c	0.10070261
28	0xbe6b3c4e	-0.22972223
29	0xbd5189c0	-0.05115676
30	0x3d92a46f	0.071602695
31	0x3bbcb42c	0.005758783
32	0x3d7dc524	0.061955586
33	0xbe36ea56	-0.1786283
34	0xbe10b8c8	-0.14132988
35	0xbe25cb92	-0.16190937
36	0xbcb7fe20	-0.022460043
37	0x38fd2cc8	0.00012072321
38	0xbdcf9e61	-0.1013763
39	0x3ca46b73	0.020070767
40	0xbd512661	-0.05106199
41	0x3d884e23	0.066555284
42	0x3d940c4e	0.072289094
43	0xbc9d2994	-0.019184865
44	0xbacea2fa	-0.0015765124
45	0xbd262dab	-0.040570896
46	0x3d088f21	0.033339623
47	0x3d8c59fb	0.068531
48	0x3e5a8363	0.21339183
49	0x3da14df7	0.07876199
50	0xbd1c45d4	-0.03815253
51	0x3e4ef823	0.20211844
52	0xbe403654	-0.18770725
53	0x3c97d374	0.018533446
54	0x3e113856	0.14181647
55	0xbd70ccdd	-0.058789123
56	0xbd12e15e	-0.03585946
57	0xbdcfe13b	-0.10150381
58	0xbd1b7900	-0.03795719
59	0x3db2df71	0.08734024
60	0xbdff626a	-0.12469943
61	0x3e624ffc	0.22100824
62	0x3be455b3	0.006968224
63	0xbe014e37	-0.12627493

gat_net.0.scoring_fn_source f4 [1, 8, 8]
0	0xbd88ff32	-0.066893
1	0xbd2eba4f	-0.042658146
2	0x3d514053	0.051086735
3	0x3e073fcf	0.13207935
4	0x3dd8f0e1	0.10592819
5	0xbd5f4689	-0.054510627
6	0xbc94e0dd	-0.01817363
7	0xbd5eb48d	-0.054371405
8	0xbd40a2b8	-0.04703018
9	0x3df98209	0.12183005
10	0xbe550fae	-0.20806763
11	0xbde2f5e3	-0.110820554
12	0xbd24ccd8	-0.040234417
13	0x3dde9932	0.108690634
14	0x3e39dfcd	0.1815178
15	0xbe6f9191	-0.23395373
16	0xbe38778e	-0.18014356
17	0xbcdc6e11	-0.026907953
18	0x3e361bc9	0.17784037
19	0xbe7acb8b	-0.24491708
20	0xbe25815d	-0.1616263
21	0x3d7fc212	0.06244094
22	0xbe50c2b2	-0.2038677
23	0xbd2bfae6	-0.041987322
24	0xbd26efda	-0.040756084
25	0x3d9e2697	0.07722204
26	0xbe0e250a	-0.13881317
27	0xbda842da	-0.08215876
28	0xbe45dae6	-0.19321784
29	0xbdb68a97	-0.08913153
30	0x3cdc6172	0.026901934
31	0xbe4420fe	-0.1915321
32	0xbe211145	-0.15729244
33	0x3dadd763	0.084883474
34	0x3c909acf	0.017651943
35	0xbdb73a7c	-0.08946702
36	0x3d59959c	0.053121194
37	0x3e7583ef	0.2397611
38	0xbdd2e851	-0.10298217
39	0x3c87bc21	0.016569199
40	0xbd945522	-0.072428
41	0xbdd201e6	-0.10254268
42	0xbe5d61d1	-0.21619345
43	0x3dbb1ee7	0.091367535
44	0xbe169095	-0.14703591
45	0x3e5404ef	0.20705007
46	0xbe058839	-0.13040246
47	0xbdadf600	-0.084941864
48	0x3c7456a3	0.014913234
49	0xbe1a7c6e	-0.15086529
50	0x3d29086a	0.04126779
51	0x3e1658e5	0.14682348
52	0xbe692a20	-0.22769976
53	0xbe1384ee	-0.14406177
54	0xbd04baa2	-0.03240455
55	0xbe18defe	-0.14928815
56	0xbe018413	-0.12648039
57	0x3cd2604a	0.02568068
58	0xbb7087b4	-0.003670198
59	0x3de63d14	0.112421185
60	0xbb8981d2	-0.004196384
61	0x3e021b30	0.12705684
62	0xbd7ae652	-0.061254807
63	0x3df27e69	0.11840517

gat_net.0.bias f4 [64]
0	0xbd4221ec	-0.04739563
1	0xbd4ab5f2	-0.049489923
2	0x3d258cd4	0.040417507
3	0xbd444094	-0.04791315
4	0x3d422571	0.04739899
5	0x3d43538b	0.047687095
6	0xbd1757ee	-0.03694909
7	0xbd42eb83	-0.047587883
8	0x3d3cd961	0.046105746
9	0x3d46b494	0.048512056
10	0x3d413945	0.047173757
11	0xbd42c7bc	-0.047553763
12	0xbd44de0e	-0.04806333
13	0xbd4143d9	-0.047183845
14	0x3d46460b	0.048406642
15	0xbd379e59	-0.044828746
16	0x3d44c8c1	0.048043016
17	0xbd423772	-0.047416158
18	0x3d425e3f	0.04745316
19	0xbd44704a	-0.04795865
20	0x3d46a371	0.048495714
21	0x3d0154e7	0.03157511
22	0x3d403dd1	0.046933953
23	0xbd3fdf89	-0.04684404
24	0xbd2fc05e	-0.042908065
25	0xbd405a88	-0.046961337
26	0xbd4b46fe	-0.04962825
27	0xbd45b613	-0.048269343
28	0x3d4cbfd6	0.049987637
29	0x3d497777	0.049186196
30	0x3d3a9ba0	0.04555857
31	0xbd399222	-0.04530538
32	0xbc411c6e	-0.011786563
33	0x3d3d5dac	0.04623191
34	0xbd456ce3	-0.048199546
35	0x3d461c39	0.04836676
36	0x3d4125cc	0.047155187
37	0xb9881408	-0.00025954866
38	0xbd416422	-0.047214635
39	0x3d4522c2	0.04812885
40	0x3d4528c3	0.048134577
41	0xbd49bb8c	-0.049251124
42	0x3d46cce7	0.048535254
43	0xbd44eb67	-0.04807606
44	0x3d3ea49e	0.04654371
45	0xbd3f13ca	-0.04664973
46	0xbd1400f8	-0.036133736
47	0x3d3eca3a	0.046579577
48	0xbd4a879c	-0.049445733
49	0xbd378d5f	-0.044812556
50	0xbd44e65d	-0.048071254
51	0x3d23b7be	0.039970152
52	0x3d45ddf0	0.04830736
53	0x3d46708d	0.04844718
54	0xbc8a2ea0	-0.016867936
55	0xbd44131a	-0.04786978
56	0x3d45d434	0.048298076
57	0x3d44550c	0.04793267
58	0x3d3d8ac2	0.046274908
59	0x3d44e1a0	0.048066735
60	0xbcf8ad9b	-0.030356219
61	0xbd432e28	-0.04765144
62	0xbd489067	-0.048965838
63	0xbd439370	-0.04774803

gat_net.0.linear_proj.weight f4 [64, 1433]
0	0xbbf0b8b5	-0.0073462375
1	0xbcb102f8	-0.02160786
2	0xbae89c33	-0.0017746746
3	0xbb20f704	-0.0024561295
4	0xbd568417	-0.052372064
5	0x3cdda51a	0.027056266
6	0x3c67bb7e	0.014143823
7	0xbd7455b6	-0.059652053
8	0xbd272c52	-0.04081375
9	0xbb50207c	-0.0031757643
10	0x3bd717bc	0.0065641087
11	0xbd59dbff	-0.05318832
12	0xbc9713e1	-0.018442096
13	0x3c9f74cb	0.01946487
14	0x3bac42a0	0.0052569658
15	0x3ba4ed68	0.005033184
16	0xbcbb35d0	-0.022852808
17	0x3c3e21a4	0.0116047
18	0x3c484173	0.012222636
19	0xbda8279b	-0.08210679
20	0xbc1db2bb	-0.009625132
21	0x3b3abed9	0.0028495102
22	0x3c8ed031	0.017433258
23	0x3b0a5f81	0.0021114054
24	0xbc16429c	-0.009171154
25	0x3cf52e03	0.029929167
26	0x3ccdc207	0.025116934
27	0xbb1aa5c4	-0.002359734
28	0xbcb13cc9	-0.02163543
29	0x3d6a38ed	0.057183195
30	0x3c350e54	0.011050779
31	0x3b2a0eb8	0.0025948714
32	0xba7514be	-0.0009349099
33	0x3a3ed490	0.0007279599
34	0x3cd19980	0.02558589
35	0x3c0d9d88	0.008643515
36	0x3b0af88f	0.0021205281
37	0xbc2cdd5a	-0.010550821
38	0xba552d7a	-0.0008132082
39	0x3c2e15ba	0.010625297
40	0x3c7b5d06	0.015342003
41	0x3c9b9245	0.018990645
42	0x39f6a508	0.00047043734
43	0x3a9cdd2c	0.001196777
44	0xbb0ace58	-0.002118012
45	0x3ad24532	0.001604235
46	0x3b7d5213	0.0038653656
47	0xbb475731	-0.003041696
48	0x3cb0fb6e	0.021604266
49	0xbbbd56c4	-0.0057781655
50	0xbc03efe6	-0.008052802
51	0xbd4cadb6	-0.04997035
52	0xbd3792ec	-0.04481785
53	0xbb455eb1	-0.0030116255
54	0xbd856ac6	-0.06514506
55	0x3ca83e18	0.020537421
56	0x3bb494d0	0.005510904
57	0x3adbca86	0.0016768731
58	0xbcf16dc8	-0.029471293
59	0xb9c7ccb8	-0.00038108765
60	0x38081880	3.2447744e-05
61	0x3cd1b519	0.02559905
62	0xbca7d712	-0.020488296
63	0xbc9d01f3	-0.019165969
64	0x3c8f79c1	0.017514111
65	0xbb9e7634	-0.0048358683
66	0xbaeab63b	-0.0017907092
67	0x3d213f46	0.039366983
68	0xbbb1badf	-0.005423888
69	0x3c7e2ebe	0.015514074
70	0xbc13cb32	-0.0090206135
71	0xbd1651f0	-0.036699235
72	0xbb6eeafd	-0.0036455982
73	0x3bb5f983	0.0055534258
74	0xbba7035b	-0.0050968355
75	0x3c7906ea	0.015199402
76	0xbd40a451	-0.047031704
77	0xbc7c83eb	-0.015412311
78	0xbc1271b2	-0.00893824
79	0x3b1bad18	0.0023754295
80	0x3d2af4b0	0.04173726
81	0xbcf3fc0b	-0.02978327
82	0xbd45d48a	-0.048298396
83	0x3cca4ded	0.024695361
84	0xbca2b076	-0.019859534
85	0xbc0c86a1	-0.00857702
86	0x3bfd6264	0.0077326763
87	0xbba3519c	-0.004984094
88	0xbb6d4279	-0.003620295
89	0x3d72b729	0.059256706
90	0xbb1a6370	-0.0023557805
91	0x3c56c308	0.0131080225
92	0x3c87a551	0.016558321
93	0x3cdcf489	0.026972072
94	0xbcefb31e	-0.029260214
95	0x3c71b980	0.014753699
96	0x3c89e32b	0.016831955
97	0xbd4d057a	-0.05005405
98	0x37c6c780	2.3696339e-05
99	0x3cef35ef	0.029200522
100	0x3b00d959	0.00196608
101	0x3bbb3944	0.0057136137
102	0xbc294ffd	-0.010334012
103	0xbc1738ba	-0.009229833
104	0xbce17520	-0.02752167
105	0x3b95d006	0.0045719175
106	0x3beeb188	0.007284347
107	0xbc8cf2bd	-0.01720559
108	0x3cd4bb81	0.025968315
109	0x3b8cead3	0.004300454
110	0x3a9bf91c	0.0011899802
111	0x3c363660	0.011121362
112	0xbc8d31ea	-0.017235715
113	0x3bd0a973	0.006367856
114	0xbca62dd4	-0.020285524
115	0x3c51ad2f	0.012797638
116	0xbbb9da2e	-0.005671761
117	0xbc843093	-0.016136443
118	0x3d5c57d9	0.053794716
119	0xbbf5c109	-0.007499818
120	0x3cd7952f	0.026316253
121	0x3d81d87b	0.063401185
122	0x3bf45451	0.0074563404
123	0xbc2318f6	-0.009954682
124	0x3d1c4ffe	0.038162224
125	0x3bb84971	0.0056239893
126	0xbbd61f50	-0.0065344945
127	0x3c002c0a	0.007823
128	0xbd544d8f	-0.05183178
129	0xbc2515d6	-0.010076007
130	0xbd1e48da	-0.038643695
131	0xbc39fcd2	-0.011351781
132	0xbd92fd39	-0.07177205
133	0xb9de3ddc	-0.00042389228
134	0xbc7f5e46	-0.015586441
135	0x3d24b178	0.04020831
136	0x3d18c8a5	0.037300725
137	0xbc4a2e42	-0.01234013
138	0xbb01d0a5	-0.00198082
139	0x3c6c8fd6	0.01443859
140	0x3d0e9ae4	0.034815684
141	0xbb7682f6	-0.003761468
142	0x3c27938f	0.010228052
143	0xbc1af75e	-0.009458391
144	0xbaf1c192	-0.0018444529
145	0x3aa7268c	0.0012752577
146	0xbd8e38db	-0.06944438
147	0xbc162f55	-0.009166558
148	0x3c2539d3	0.010084587
149	0xbd6087b0	-0.0548169
150	0x3ccd7117	0.02507834
151	0xbd4dd2af	-0.05024975
152	0xbc834641	-0.01602471
153	0xbcca1e7e	-0.024672743
154	0xbc7e912e	-0.015537543
155	0xbd7a4e69	-0.061109934
156	0xbc2ac14a	-0.01042206
157	0x3c9c65dd	0.019091541
158	0xbc6f0273	-0.014587986
159	0x3c55999f	0.013037114
160	0x3c381ab0	0.011236832
161	0xbc98e7d4	-0.018665232
162	0x3c2cf85e	0.010557262
163	0x3bafc23f	0.005363732
164	0x3c40284e	0.011728359
165	0xbd6cf3aa	-0.057849564
166	0x3c7e6bfd	0.015528676
167	0xbb29fdf2	-0.0025938717
168	0xbd957caf	-0.07299172
169	0x3b67d862	0.0035376777
170	0x3bd3501e	0.0064487597
171	0x3c138f87	0.009006388
172	0xbb5d627a	-0.003378062
173	0xbba758d5	-0.005107025
174	0x3c9dd42a	0.019266207
175	0x3c764894	0.015031952
176	0x3d1bf68a	0.038076915
177	0x3c9f9745	0.01948131
178	0xbbfe756d	-0.007765463
179	0xbd6c25a0	-0.05765307
180	0x3c23652e	0.009972854
181	0x3bd2b86e	0.006430677
182	0xbd0580a3	-0.03259338
183	0xbc734f8c	-0.014850508
184	0xbc676e24	-0.014125381
185	0x3b37cc43	0.0028045333
186	0xbd951754	-0.0727984
187	0xbc167757	-0.009183726
188	0x3b2bfca6	0.002624312
189	0xbc18adf8	-0.009318821
190	0x3b280400	0.002563715
191	0xbc6cee27	-0.014461077
192	0xbcc31d0c	-0.023817562
193	0x3c272979	0.010202759
194	0xbca0f979	-0.019650208
195	0xbbe808dc	-0.0070811342
196	0x3c6f3f0e	0.014602436
197	0xbccdc2e0	-0.025117338
198	0xbb8f7fb0	-0.004379235
199	0xb94604a8	-0.00018884486
200	0xbb7447b9	-0.0037274195
201	0x3bf7e15b	0.0075647063
202	0xbc8f95b5	-0.01752744
203	0xbd7a4755	-0.061103184
204	0xba7de954	-0.00096859527
205	0xbda48a70	-0.08034217
206	0x3be59dd7	0.0070073414
207	0x3c11123c	0.008854445
208	0x3cd3babf	0.025845883
209	0x3b88594a	0.0041610347
210	0xbc17183b	-0.009222086
211	0xbc095e4e	-0.0083843
212	0x3ced96ca	0.029002566
213	0xb8b3b290	-8.568645e-05
214	0x3b82d212	0.0039923275
215	0x3aa06888	0.0012238184
216	0x3c047400	0.008084297
217	0x3c938336	0.018006902
218	0xbca6d190	-0.020363599
219	0x3c5ab32c	0.013348382
220	0xbc857046	-0.016288888
221	0xbc7558f6	-0.014974823
222	0xbc799869	-0.015234091
223	0x3c500dde	0.012698619
224	0xbc17db5a	-0.009268606
225	0xbb36e8d4	-0.0027909772
226	0x3c36dad8	0.011160575
227	0xbc8e7449	-0.017389433
228	0xbce95137	-0.028481109
229	0xbb57b04a	-0.0032911473
230	0xba73cf5e	-0.00093006145
231	0xbc23d81f	-0.010000258
232	0xbbc66960	-0.006055042
233	0x3cf27d0a	0.029600639
234	0xbca29054	-0.019844212
235	0xbc543288	-0.012951501
236	0xbba48309	-0.0050205034
237	0x3d1efa37	0.038812842
238	0x3cb93609	0.022608774
239	0xbc6e4437	-0.014542631
240	0x3bb296ea	0.0054501193
241	0x3c335aac	0.010946911
242	0xbc108a0d	-0.008821976
243	0x3c21eb48	0.009882756
244	0xbd382537	-0.044957366
245	0x3ab5d550	0.0013872776
246	0x3c14fcd4	0.009093482
247	0xbd46db2f	-0.048548874
248	0xbb8558eb	-0.0040694377
249	0x3be2feeb	0.0069273612
250	0x3d05e60f	0.032690104
251	0x3c89407c	0.016754381
252	0x3d283f55	0.041076023
253	0x3c1d71ec	0.009609681
254	0xbbf5faf3	-0.007506722
255	0xbc5cd008	-0.013477333

gat_net.1.scoring_fn_target f4 [1, 1, 7]
0	0xbeb418a8	-0.3517506
1	0x3d8be67c	0.06831071
2	0x3cb9f1f8	0.022698388
3	0x3ededd42	0.4352818
4	0xbcc7e9c5	-0.024403462
5	0x3ef2def3	0.47435722
6	0xbf047c0a	-0.5175177

gat_net.1.scoring_fn_source f4 [1, 1, 7]
0	0x3ee1dd18	0.44113994
1	0x3d909f58	0.070616424
2	0x3f01201f	0.5043964
3	0x3e5a785a	0.21334973
4	0x3f05df82	0.5229417
5	0xbe75671f	-0.23965119
6	0x3f096ffb	0.53686494

gat_net.1.bias f4 [7]
0	0x3d4a0936	0.04932519
1	0x3d4c7ef2	0.049925752
2	0xbd4b2359	-0.049594257
3	0xbd4a83da	-0.04944215
4	0xbd4a3d7a	-0.049375035
5	0xbd49faaf	-0.049311336
6	0xbd4b1c0a	-0.049587287

gat_net.1.linear_proj.weight f4 [7, 64]
0	0xbe9417e2	-0.2892447
1	0xbd658015	-0.05603035
2	0x3ea540ee	0.322761
3	0xbe83afaa	-0.2571996
4	0x3e2fcde8	0.17168391
5	0x3e79cbf5	0.2439421
6	0xbe7a8121	-0.24463321
7	0xbe38d704	-0.18050772
8	0x3e8f59c4	0.27998173
9	0x3e298a13	0.16556577
10	0x3e50b438	0.20381248
11	0xbe9e2fe6	-0.3089592
12	0xbeac2a66	-0.33626097
13	0xbe8fc92d	-0.28083172
14	0x3e729cdf	0.23692654
15	0xbdb2fcf4	-0.08739653
16	0x3e4821ab	0.19544093
17	0xbe9f4166	-0.31104583
18	0x3e9fe1f5	0.3122708
19	0xbe918580	-0.28422165
20	0x3e54d62d	0.20784827
21	0x3ddf908b	0.10916241
22	0x3e9b2fd6	0.30309933
23	0xbd7d96f6	-0.061911546
24	0xbe05ce48	-0.13066971
25	0xbea658cd	-0.32489625
26	0xbda190cf	-0.07888948
27	0xbe19b29f	-0.15009545
28	0x3e1491c8	0.14508736
29	0xba8c43b0	-0.0010701325
30	0x3ea94161	0.33057693
31	0xbe1e05b3	-0.15431862
32	0xbe78777a	-0.24264327
33	0x3e4d466c	0.20046395
34	0xbe4a17c2	-0.19735625
35	0x3d18e42b	0.037326973
36	0x3ea02f21	0.31285957
37	0x3c8cae02	0.017172817
38	0xbea4b248	-0.32167268
39	0x3d7bbb09	0.061457667
40	0x3db917da	0.090377524
41	0xbe154e64	-0.14580685
42	0x3e46fda2	0.1943269
43	0xbe112d81	-0.14177515
44	0x3d774053	0.06036408
45	0xbdcb3dc6	-0.09923892
46	0xbd640e25	-0.05567755
47	0x3e8f5b6b	0.27999434
48	0xbcc65612	-0.024210963
49	0xbe7c889b	-0.24661486
50	0xbe8db101	-0.27674106
51	0x3cdc0227	0.026856495
52	0x3de2cdeb	0.11074432
53	0x3e756749	0.23965181
54	0x3e2c81c2	0.16846374
55	0xbe4435cd	-0.19161148
56	0x3e1398e8	0.14413798
57	0x3e13709f	0.1439843
58	0x3e3eff37	0.18652044
59	0x3e89aa73	0.26887855
60	0xbe8cf311	-0.27529195
61	0xbd6c8d7f	-0.05775213
62	0xbe848dca	-0.25889426
63	0xbea9158f	-0.3302426
64	0x3b6f65a5	0.003652909
65	0xbe1e65fc	-0.15468591
66	0xbe7207bf	-0.23635767
67	0x3d446eaa	0.0479571
68	0x3e9f8a73	0.31160316
69	0xbcbcc76a	-0.023044307
70	0x3e0e8e40	0.13921452
71	0x3da064a3	0.07831695
72	0xbe7eeb78	-0.24894512
73	0xbe1e3258	-0.15448892
74	0xbdc39cc0	-0.09551382
75	0xbe378454	-0.17921573
76	0x3dfe0b56	0.12404506
77	0x3e905823	0.28192243
78	0xbdc96143	-0.09833004
79	0xbe9d3217	-0.30702278
80	0x3e49557d	0.19661517
81	0x3d3fe41d	0.046848405
82	0xbe05c934	-0.13065034
83	0xbe8c665d	-0.27421847
84	0x3e9072f3	0.282127
85	0x3d62a3a4	0.05533184
86	0xbe0839de	-0.13303325
87	0x3e65a86d	0.2242753
88	0x3e6fa385	0.23402222
89	0xbe41bbde	-0.18919322
90	0xbd6d63bb	-0.05795644
91	0xbe183e65	-0.14867552
92	0x3d94753f	0.072489254
93	0x3d89d462	0.06729962
94	0xbe80508c	-0.25061452
95	0x3e7b6a37	0.24552236
96	0x3e08c500	0.133564
97	0xbe3a6050	-0.18200803
98	0xbea086a5	-0.31352726
99	0x3e85ce3c	0.26133907
100	0x3e2862cd	0.1644394
101	0xbe532da0	-0.20622873
102	0x3e23d8f6	0.16000733
103	0x3e42adb8	0.19011581
104	0xbe18882a	-0.14895692
105	0xbcb2f963	-0.021847432
106	0x3ddec053	0.10876527
107	0xbe100d22	-0.1406751
108	0xbe66adc7	-0.22527228
109	0xbdb19e86	-0.08672814
110	0x3e84fed8	0.2597568
111	0xbd934136	-0.071901724
112	0xbdf996a7	-0.12186938
113	0x3e5e3bf8	0.21702564
114	0xbdc03e3a	-0.09386869
115	0x3d4a6aa8	0.04941812
116	0xbdbedac7	-0.09319072
117	0x3db3de46	0.0878263
118	0xbe497e9a	-0.19677201
119	0xbe927494	-0.28604567
120	0x3d97d3ac	0.0741342
121	0x3df2c7a3	0.11854484
122	0xbe1786cb	-0.14797513
123	0x3e883f4b	0.2661079
124	0x3e44b4c0	0.19209576
125	0xbe9bc718	-0.30425334
126	0xbe72b8ee	-0.23703358
127	0x3bdde076	0.0067711426
128	0x3e7922ca	0.24329677
129	0x3e28a254	0.16468173
130	0x3dec7f91	0.11547769
131	0x3c9d2a48	0.0191852
132	0xbd8b1890	-0.06791794
133	0xbe7c110a	-0.24615875
134	0xbe330310	-0.17481637
135	0x3e209ce1	0.15684845
136	0xbe7b177c	-0.24520677
137	0x3dc80829	0.097671814
138	0xbe3955cf	-0.1809914
139	0x3e6375e6	0.22212943
140	0x3e048301	0.12940599
141	0x3e577e8c	0.21044368
142	0xbd4bf195	-0.049790937
143	0x3de72c0c	0.11287698
144	0x3df22c82	0.118248954
145	0x3e7cf728	0.24703658
146	0x3e22695e	0.15860507
147	0xbe6f0483	-0.23341565
148	0xbe2dd1f7	-0.16974626
149	0x3e529ff9	0.20568837
150	0xbe5f1ae1	-0.21787597
151	0x3deddda2	0.11614539
152	0xbd2b4dd1	-0.04182226
153	0x3db919c6	0.09038119
154	0xbdd8fe31	-0.10595358
155	0xbd9e86e4	-0.07740572
156	0xbe74782f	-0.23873971
157	0xbe4c9b15	-0.19981034
158	0x3dc88d72	0.097926036
159	0x3e2d0e52	0.16899994
160	0x3dba2580	0.09089184
161	0xbe922401	-0.28543094
162	0x3c417b50	0.011809185
163	0x3dbc39ac	0.091906875
164	0xbe027d4a	-0.12743106
165	0x3e287769	0.16451801
166	0xbc43c077	-0.011947743
167	0x3e40ed9f	0.18840645
168	0xbea06b8e	-0.31332058
169	0x3cd1b6f4	0.025599934
170	0x3dcc583b	0.09977766
171	0x3c7c9eec	0.015418749
172	0x3dfa63e9	0.122260876
173	0xbdf77bf2	-0.120841876
174	0x3dbf0c47	0.093285136
175	0xbc0556d2	-0.008138375
176	0x3e44f8c4	0.19235522
177	0x3d49bfb1	0.049255077
178	0x3e64ba42	0.22336677
179	0x3cf88516	0.030336898
180	0x3d985c0b	0.07439431
181	0xbe66b455	-0.22529729
182	0xbb393256	-0.0028258762
183	0x3c87818d	0.016541267
184	0xbe86f61f	-0.2635965
185	0x3df01078	0.11721891
186	0xbe5da24a	-0.2164394
187	0xbdd82b62	-0.105551496
188	0xbd3f238f	-0.04666477
189	0xbe060246	-0.13086805
190	0xbe319dba	-0.17345324
191	0x3e924b4d	0.28573075
192	0xbc1d4e8c	-0.009601247
193	0x3d7eba99	0.062189672
194	0x3dd5e7be	0.10444592
195	0x3e9cff28	0.3066342
196	0xbe9d0743	-0.30669603
197	0xbe060ffe	-0.13092038
198	0xbdc7f0a1	-0.09762693
199	0x3cf2cc70	0.029638499
200	0xbdb98e8b	-0.09060391
201	0xbe871c0d	-0.2638859
202	0x3d76c886	0.060249828
203	0x3d0a53e0	0.033771396
204	0x3d323e8c	0.04351668
205	0x3e2c1568	0.16805041
206	0x3e5a5562	0.21321633
207	0x3e2d2d9b	0.16911928
208	0xbe7b141a	-0.24519387
209	0x3e34b3a9	0.1764666
210	0xbdf7b99e	-0.120959505
211	0x3e537aaf	0.20652269
212	0xbde767a3	-0.11299064
213	0xbe04b9da	-0.12961522
214	0xbe0ed057	-0.13946663
215	0x3db818b0	0.08989084
216	0xbd5a5402	-0.053302772
217	0x3d76dc72	0.060268827
218	0xbd0ec07a	-0.03485153
219	0x3e8fe25f	0.28102395
220	0x3d715de4	0.05892743
221	0xbe193372	-0.14961031
222	0xbdd8077b	-0.10548302
223	0x3e6af74a	0.22945896
224	0xbe17f408	-0.14839184
225	0x3d63634f	0.05551463
226	0x3df8ad57	0.12142437
227	0xbe876cce	-0.264502
228	0xbe7c6521	-0.24647953
229	0x3ca7f362	0.020501796
230	0x3d63d7bc	0.055625662
231	0x3d782c16	0.06058892
232	0xbe907b30	-0.28218985
233	0xbde60d17	-0.112329654
234	0xbdbb0534	-0.09131852
235	0x3ea282ea	0.31740505
236	0xbe5e74f8	-0.21724308
237	0x3e0e0e47	0.13872634
238	0x3d6eb2e3	0.05827607
239	0x3e71e0c3	0.23620896
240	0xbd6f9198	-0.05848846
241	0x3ddb9e4e	0.107235536
242	0xbe69e60f	-0.22841667
243	0x3d8b7a84	0.068104774
244	0xbe1c2c7b	-0.15251343
245	0x3e2bd1bd	0.16779228
246	0x3e7ea1a8	0.24866354
247	0xbe4cd528	-0.20003188
248	0xbe7a9544	-0.24471003
249	0xbe6a3c33	-0.22874527
250	0x3e28fcb8	0.16502655
251	0xbe50524a	-0.20343891
252	0x3d09e848	0.033668786
253	0xbe5a9e16	-0.21349367
254	0x3dccd8dc	0.100023
255	0x3dd85ab0	0.10564172
