python/binarypath/binaries/gat_000032.pth (torch, 580367 bytes, 8 tensors)

gat_net.0.scoring_fn_target f4 [1, 10, 10]
000000 05 4f 7d bc 92 33 9e 3d 71 55 1e 3d 6a 2d 7e 3d
       -0.015460734 0.0772468 0.038655702 0.06205503
000010 2c a1 6f 3d 91 51 55 bd 96 86 08 3b d6 08 36 3d
       0.058503315 -0.05207974 0.0020832173 0.04444202
000020 b7 90 0e 3d 7e 4d fd 3c f0 ed be bc b6 27 24 bc
       0.03480598 0.03092074 -0.023306817 -0.010019233
000030 d6 b4 b8 3d 02 93 9d 3d ce 72 08 3d ee a6 e3 3d
       0.09018867 0.07694055 0.03331261 0.11115824
000040 4c 8e 67 3d c6 09 57 bb 6e b9 79 bd b6 32 81 3d
       0.05653219 -0.0032812222 -0.060967855 0.063085005
000050 18 6d af 3b b5 57 26 3d f9 e0 78 bd 9c 30 76 ba
       0.005353581 0.040610988 -0.060761426 -0.00093913986
000060 65 e6 4a 3d 71 05 ab 3c 33 01 df 3c 94 51 4e 3d
       0.049536128 0.020876618 0.027222252 0.050370768
000070 a7 f9 d3 3d 74 52 3b bd 7e 25 95 3d 71 28 7f bd
       0.10350352 -0.04573293 0.07282542 -0.062294427
000080 d0 10 81 3d e4 bf b6 3b f7 32 1a 3d 49 d9 98 3b
       0.06302035 0.0055770744 0.03764626 0.0046645743
000090 e1 62 58 3d 5c f4 86 bc a6 5d 3d 3d 12 80 4a bd
       0.052828673 -0.016473942 0.04623189 -0.049438544
0000a0 7e 07 b8 3d 7d ae 93 3d 44 8a a4 bc c8 7c e9 3d
       0.08985804 0.072110154 -0.020085461 0.11400753
0000b0 c9 ab d2 3d 84 e2 df bc e4 fa b3 bd a4 ba 17 3d
       0.10286672 -0.02732969 -0.08788088 0.03704323
0000c0 15 2e e3 bd 11 d9 3b bd 00 1c 7f 3d 5a 15 98 3c
       -0.11092774 -0.045861308 0.062282562 0.018564869
0000d0 58 73 0e 3c 22 c5 8b 3d 85 4d 81 bd 4f 68 53 3c
       0.008694492 0.068247095 -0.06313614 0.012903287
0000e0 a2 4b 41 bd 68 9e 46 bd a2 19 b5 3c 3f fa f0 3d
       -0.04719127 -0.04849091 0.02210695 0.11766481
0000f0 94 c3 4b 3b 4e b7 c5 3d 4f a6 a7 bb 81 d2 cd bb
       0.0031091915 0.09654103 -0.005116261 -0.0062811975
000100 a8 c3 a4 3d c7 36 34 3c 72 3e 27 3d 7e 8f 1b 3d
       0.08045131 0.010999388 0.040831037 0.03797864
000110 fc 61 ed 3b 9b a2 56 3b b0 a6 91 3c e9 6d 88 bd
       0.0072443467 0.003275073 0.017779678 -0.06661589
000120 b0 e8 7f 3c da 15 b3 bd f5 b6 11 3d ab 76 09 bd
       0.015619442 -0.08744402 0.035574872 -0.033560436
000130 c8 9b c2 3c 61 80 9b bc bb 89 8c bb 68 16 00 be
       0.023755923 -0.018982114 -0.0042888797 -0.12508547
000140 9b 74 2f bd 67 12 13 3c d6 7e 5e bd 17 00 84 3c
       -0.042835813 0.008976555 -0.05432018 0.016113324
000150 e9 03 a3 3c 91 53 ad bd 07 17 bf 3d d4 e9 5e bc
       0.019899325 -0.08463205 0.09330564 -0.013605554
000160 e8 24 62 3d eb e4 89 3d 6e 0e 83 bc 9e 9c a0 3c
       0.055210978 0.06733116 -0.015998092 0.01960593
000170 2d 2d 98 bd 84 af 58 bd d6 9e e3 bc d8 8b 5f ba
       -0.074304916 -0.05290176 -0.0277857 -0.0008527613
000180 f5 cd 41 3d fb dc 84 3d 58 3d d7 3c b8 1b c6 ba
       0.047315557 0.06487461 0.026274368 -0.0015114462

gat_net.0.scoring_fn_source f4 [1, 10, 10]
000000 c6 f1 ef 3c 1e 37 df 3b 57 d6 98 3e 71 d7 7f 3d
       0.029290091 0.0068119904 0.29851028 0.06246132
000010 17 9a 9a 3d a8 61 5c be 72 29 7d bd ba d9 36 3e
       0.075489216 -0.21521628 -0.061807103 0.17856494
000020 60 91 d1 bd ff 40 ca 3d 75 41 05 be 5f 8a 1a 3d
       -0.10232806 0.09875678 -0.13013251 0.037729617
000030 c2 37 95 bd 6f c5 1c be 19 d2 18 3e 49 cd 65 3d
       -0.072860256 -0.1530969 0.14923896 0.05610398
000040 b6 ad ac 3d eb 16 60 be 36 a3 93 3e d9 54 6f bd
       0.0843157 -0.21883743 0.28835458 -0.058430526
000050 2b 2c a6 3d 6c bd e4 bc c4 38 cb bd 2d f0 c9 bd
       0.08113893 -0.027922355 -0.099229366 -0.09860263
000060 d8 a2 50 3e 6d f6 3d be a1 41 db bd f1 8f 94 3e
       0.2037462 -0.18551035 -0.10705877 0.2901607
000070 8d 63 e5 3d 5d 95 d5 bd 68 d0 1b 3e 17 dd 68 bd
       0.112006284 -0.104288794 0.1521622 -0.056851473
000080 e4 78 51 3e f7 13 39 bd 0d d0 dd 3d af 45 28 3e
       0.20456272 -0.045185056 0.10830698 0.16432832
000090 33 5c 2d 3d e3 ed 20 be 68 56 46 3e b3 ba b8 bd
       0.042324256 -0.15715747 0.19368899 -0.09019985
0000a0 04 85 ed 3d 2c 62 d6 bd 20 72 8a be a3 ec 76 3e
       0.11597636 -0.104679435 -0.27040195 0.24113707
0000b0 76 b1 90 3e b0 1f 18 3d 76 1c 95 3d 8f 59 63 3d
       0.28260392 0.037139595 0.07280819 0.05550533
0000c0 a4 39 66 be d8 01 02 3e 81 4a e8 3e 20 7d a7 3d
       -0.22482926 0.12696016 0.45369342 0.081781626
0000d0 08 ae e7 bd 96 8c 46 3d 13 8d a1 be 9c b0 75 be
       -0.11312491 0.048473917 -0.31552944 -0.23993152
0000e0 2f 66 79 be c5 89 88 3c aa d7 26 3e 7c cf 03 3e
       -0.24355386 0.016667256 0.16293207 0.12872118
0000f0 37 6b 33 bd 54 fa 6c 3e 19 c7 da 3d 3c 98 85 bd
       -0.04380342 0.23142368 0.10682506 -0.06523177
000100 be a2 58 3e 06 07 1d 3d 34 4f 3c 3d 76 54 e8 3d
       0.21155831 0.038336776 0.04597397 0.11344235
000110 63 e0 33 bd f3 57 8a bd 8e bd 39 3e db a4 86 be
       -0.043915164 -0.06755056 0.18138716 -0.2629765
000120 07 b9 38 be 55 48 08 3e 66 8e 05 3e c4 9d 1e 3e
       -0.18039332 0.13308842 0.13042602 0.1548987
000130 7b 64 67 3e 31 29 78 3e 0c 94 6e bd d6 1b 7a be
       0.22596924 0.24234463 -0.058246657 -0.24424681
000140 c1 9e be bd 09 32 eb bc c3 e3 1d be a5 03 3b bd
       -0.09307624 -0.028710382 -0.15418915 -0.045657773
000150 22 d8 ae be 42 96 07 be d3 85 96 3e 32 8c 81 3d
       -0.3414927 -0.13240913 0.29398975 0.06325568
000160 f9 5f 6a bd 7e b3 da 3d e8 73 87 3d 5c cc 98 3e
       -0.057220433 0.10678767 0.06613904 0.29843414
000170 94 8f 9b be da 40 a6 be 65 a9 13 bd f2 79 63 3e
       -0.3038298 -0.32471353 -0.03605022 0.22214487
000180 1d ce e5 3d a3 e1 9c 3d 0a cd 6f 3d 57 ce 1c 3e
       0.112209536 0.07660224 0.05854515 0.15313087

gat_net.0.bias f4 [100]
000000 72 bd 7e 3c bb a5 44 3c 6f a9 0c bc 67 2d f3 bb
       0.015548097 0.012002404 -0.008585318 -0.007421184
000010 e2 f9 d2 3b 92 ba 06 bc 88 fb 6c ba b3 88 9e 3c
       0.0064384798 -0.008223193 -0.00090401666 0.019352293
000020 8d 52 f8 3c 81 ab 39 bc f6 66 c3 3c 2a 9a df 3c
       0.0303128 -0.011332394 0.023852807 0.02729519
000030 8a bf 8e bb 16 e9 5a 3c 33 38 4b 3c 9f 89 2f 3d
       -0.0043563293 0.013361236 0.012403536 0.042855855
000040 34 a6 81 3c 00 32 98 3d d5 2c a6 3c ee 79 60 3d
       0.015826322 0.07431412 0.02028505 0.05480378
000050 98 ac 62 3c ea a3 47 bc cc d8 d9 3c 2c 96 17 3d
       0.013835095 -0.012185076 0.026592635 0.03700845
000060 77 b7 2a bd d4 65 50 3c de 58 b9 bc 0e ed 11 3d
       -0.041678872 0.01271959 -0.022625383 0.035626464
000070 bc 11 39 3c a4 fe 02 3d f0 6d 9a bb 7a e2 85 bc
       0.011295732 0.031981125 -0.0047128126 -0.016343344
000080 38 7e 08 3c 4d ca 97 3c 73 59 5b 3c d3 4a 0e 3c
       0.008330874 0.018529082 0.013388026 0.008684832
000090 52 1e 1c 3d 99 26 e9 3b 8f 17 3d 3d 4c a1 b4 3a
       0.038114853 0.007115197 0.046165045 0.001378098
0000a0 2b 7a b6 bc a3 20 3a 3d 17 a9 16 3d 8a 20 e4 3c
       -0.022275051 0.04544128 0.03678235 0.027847547
0000b0 3a 3f 9a 3c f1 44 4b 3c 30 55 4c 3d 3b 6b a0 3c
       0.018828977 0.012406574 0.04988593 0.019582381
0000c0 42 2f 03 3d 47 88 37 3c 51 40 46 3d c3 cd 92 bc
       0.03202749 0.011201925 0.04840118 -0.01792038
0000d0 7a b5 1b bb 5e e2 5f 3c ce c2 02 bc c2 0a 95 3c
       -0.0023759292 0.01366481 -0.007981015 0.018193606
0000e0 0a fc 1d 3c 1b 9a bb 3d 91 43 9e 3c 0d f4 a4 3c
       0.00964261 0.09160253 0.019319328 0.020135904
0000f0 cc ef 07 3c 1e d3 5a bb de b7 da 3c ea 3e d2 3c
       0.008296918 -0.0033389996 0.026699003 0.025664765
000100 f1 46 b9 bb 88 58 83 bc 2c 3d 02 b9 9a 4a d0 3c
       -0.005654209 -0.016033426 -0.00012420554 0.025426198
000110 19 ce 11 3d 52 0a a3 3c 62 5e ea 3c 36 4e b9 3c
       0.03559694 0.019902382 0.028609458 0.022620302
000120 74 0e 54 3c 05 4d 32 3d e8 26 b0 bc 16 64 83 3c
       0.012942899 0.043530483 -0.021502927 0.016038936
000130 b4 11 4d 3d 46 22 97 bb ce c5 04 3d fb 41 c1 bb
       0.05006571 -0.00461224 0.032415204 -0.005897758
000140 c5 8e f6 3c cf 3b ca 3c b9 39 3d 3c c4 bd 18 bb
       0.030097375 0.024686722 0.011549407 -0.0023306469
000150 b1 c4 61 3c e6 0f f4 3c 89 9b cd 3b a8 5c 20 3d
       0.013779805 0.029792737 0.0062746448 0.039150864
000160 b3 d4 15 3d 3f e0 c1 3c 1d 35 1a 3b 14 ed 03 3d
       0.0365798 0.0236665 0.0023530193 0.032208517
000170 66 61 9d 3a 62 34 45 3a f1 ee 52 3b b0 04 17 3d
       0.0012007176 0.0007522759 0.0032185877 0.036869705
000180 0f 91 1c 3c c8 26 52 bc ae f8 82 3c eb 0f fb 3c
       0.009556069 -0.012826629 0.01598772 0.030647239

gat_net.0.linear_proj.weight f4 [100, 1433]
000000 97 df 2d 3c 54 07 74 bd 05 4e 74 bd 38 3a 25 bc
       0.01061239 -0.0595773 -0.059644718 -0.010084681
000010 e6 ee b8 3c 05 c5 d8 3c d5 57 80 3d bc 73 f4 bd
       0.022574853 0.026461134 0.06266753 -0.11936137
000020 96 bc 55 3d a5 66 de 3c 50 ef d5 bc 89 64 0d bd
       0.052181803 0.027148554 -0.02611509 -0.034519706
000030 76 86 52 bd 16 84 f4 bb 08 7b f7 ba 04 e3 6d 3d
       -0.051397763 -0.007462035 -0.0018881271 0.058077827
000040 84 32 18 bc 59 7d 76 bd 01 2b a6 3d 6f 59 f1 3d
       -0.009289388 -0.060178135 0.08113671 0.11784636
000050 8b a2 9d 92 8e b7 32 be ac 49 37 3c b3 a9 10 3e
       -9.948163e-28 -0.17452833 0.011186998 0.14127235
000060 01 11 b7 bb 76 a7 df bc 80 c6 1f be bc a4 fc 3a
       -0.005586744 -0.027301531 -0.15603065 0.0019275169
000070 8c ff 1d be 6a c8 1d bc 29 f6 0b bd 6e dc 47 bd
       -0.15429515 -0.009630302 -0.034170303 -0.048794203
000080 c6 df 0e 3d 17 7f 67 3a ee 9f 0e bb a1 85 2e bc
       0.034881376 0.00088308885 -0.0021762806 -0.010651977
000090 2e b1 5a bd 66 8a d6 3c 48 76 21 bd 29 b8 c9 bd
       -0.053391628 0.02618904 -0.039419442 -0.09849579
0000a0 8e b3 e4 bc 4e 46 fb bd f4 3b 67 3c 7a 85 a9 bb
       -0.02791765 -0.12269269 0.014113415 -0.0051733823
0000b0 ab 03 24 bc e1 30 c2 bd 09 c1 d2 3c cb 58 95 bd
       -0.01001064 -0.09481979 0.025726812 -0.072923265
0000c0 13 a6 ba 3d ff 70 bc bc e0 56 c4 bc 6d 2c bd bd
       0.091137074 -0.0230031 -0.023967206 -0.09236989
0000d0 f7 9b 62 3d c8 31 5c 3c 3f 53 b6 3d 97 83 98 3d
       0.05532452 0.013439603 0.08902597 0.07446974
0000e0 f6 01 8f bd 2c ab 82 bd 6d 88 53 3d 9d 0b da bd
       -0.06982796 -0.06380305 0.051643778 -0.10646746
0000f0 24 9c c1 90 c2 79 e0 3d 1e e6 2c 3e b6 b5 6e bd
       -7.636565e-29 0.109607235 0.16884658 -0.05827876
000100 ed 70 bc bd 70 fc c1 bd 4d 5d 91 3c a0 b8 b5 bc
       -0.092012264 -0.09471977 0.017744685 -0.022182763
000110 18 a4 5c 3d 00 3c 31 3c ba a2 d4 3d ab 74 8e bc
       0.05386743 0.010817528 0.103826 -0.017389616
000120 20 29 5c 3d 1c 62 14 3d 31 9c 08 3b ab 46 ef 3d
       0.053750157 0.036226377 0.002084505 0.11683401
000130 7d f5 6a bc 73 20 6c bd 38 9a d3 bb 2f ae 0b 3d
       -0.0143407555 -0.057648133 -0.0064575933 0.03410166
000140 e1 79 fb bb 54 c2 8b bc 50 14 bf bd 2d 92 07 3d
       -0.007674441 -0.017060436 -0.09330046 0.03309839
000150 7f 04 00 bc d4 66 69 3e 88 f6 4a 3d 04 2c 6d bd
       -0.007813572 0.22793132 0.049551517 -0.057903305
000160 5a 99 e5 3a b6 a6 21 bd 94 b1 68 3c d2 91 8b bc
       0.0017517016 -0.03946563 0.014202494 -0.017037306
000170 f8 d5 97 bc 2c f3 70 bd b0 68 97 3d 37 d2 b1 bd
       -0.018534645 -0.058825657 0.073930144 -0.086826734
000180 ed a9 74 bd ee 83 11 3e f7 98 34 be 3d f3 83 3c
       -0.059732366 0.14210483 -0.17636476 0.016107196
000190 db 1c 21 3c e3 3f d3 3c 8e 97 eb bc fa 0d 9f bc
       0.00983354 0.0257873 -0.02875879 -0.019415844
0001a0 52 48 14 bc 67 a0 04 3d a9 dd 82 3c b7 b6 25 bd
       -0.009050446 0.032379534 0.015974836 -0.040457454
0001b0 65 b8 2e 3c ce 56 65 3d ed 2d 15 3c ce 46 d5 bb
       0.01066408 0.055990987 0.009105188 -0.0065086847
0001c0 bd 30 5a 3c 70 62 93 b9 0a e9 d6 3d eb af 4a 3d
       0.013317284 -0.00028111367 0.104936674 0.049484175
0001d0 8c 73 62 3d 02 8a 13 bd 64 58 9b 3e 63 23 ad 3c
       0.055285975 -0.036020286 0.30340874 0.021135038
0001e0 a4 20 15 3e d8 35 2b 3e 3b 54 6a 3c 00 75 1f 3d
       0.14563233 0.16719759 0.014302309 0.03892994
0001f0 bf bd a1 3d 56 10 23 bd 9f bd d1 3d 63 51 53 3c
       0.07897519 -0.0398105 0.102412455 0.012897822
000200 24 ad 30 3e d2 cc ab bd 21 fd ff 3d f4 4d 05 be
       0.17253548 -0.08388676 0.124994524 -0.13018018
000210 b9 09 35 3c b5 ed 13 bc 60 5b 35 bd b1 bd db 3b
       0.011049681 -0.009028842 -0.044276595 0.0067059626
000220 a5 b0 7e 3d fa ef 55 3c 74 3a 2c bd d5 df d6 bc
       0.06218018 0.013057703 -0.042047933 -0.026229778
000230 ef 05 a4 3e 08 01 33 3c 71 cf 3a 3d ca d5 8d 3d
       0.32035777 0.010925539 0.045607988 0.06925543
000240 fa 63 ee bc f5 5e 33 a1 4f d5 3a 3e cf 68 3c 3d
       -0.029100407 -6.0773234e-19 0.18245433 0.04599839
000250 49 81 c8 ba 6b 6d 6d 3d b9 27 6c 3d 35 9a eb bd
       -0.0015297319 0.057965677 0.05765507 -0.11504022
000260 ff 64 08 3d a3 9f a9 bd 27 8d d8 3c 84 a2 9d bd
       0.033299442 -0.082824014 0.026434494 -0.07697013
000270 04 4a 23 bd 14 97 49 bc 9a c2 f6 3c df b5 05 bd
       -0.03986551 -0.012304086 0.03012209 -0.03264415
000280 27 86 cb 3d 81 8d ff bc 08 cb f4 3b 24 31 1a 3d
       0.09937697 -0.031195404 0.0074704923 0.03764452
000290 20 b0 ea 3c ee b9 26 bd 51 84 27 3d a6 3f d4 3d
       0.028648436 -0.04070466 0.04089767 0.103637025
0002a0 9e 27 fa bd d2 cb 12 3d 94 88 52 3d 38 07 ab 3b
       -0.12214588 0.03583891 0.051399782 0.0052193664
0002b0 87 dc b1 3d 12 3b 41 bd ef e4 15 bd b5 2b e4 3c
       0.086846404 -0.047175474 -0.03659528 0.027852872
0002c0 ac 1a 49 bc 1f 8f 34 3d 7b 72 09 3c e4 b1 0b 3d
       -0.0122744255 0.044081803 0.008389111 0.034105197
0002d0 a0 b8 88 ba dc 96 cf 3b 7b 43 11 bd 01 34 9b ba
       -0.0010430999 0.0063351225 -0.035464745 -0.001184106
0002e0 6d f7 8c bc 46 6b 0b bb 3a f2 be bd 59 03 e4 bd
       -0.017207826 -0.0021273657 -0.09323545 -0.11133451
0002f0 68 52 1b bd 48 fe bd 3c 0c 8f ea bd db 3e 99 bd
       -0.037920386 0.02319254 -0.11453065 -0.07482692
000300 d6 f6 7e 3d e2 32 1c 3c e0 c1 52 3d 73 13 e2 bd
       0.06224712 0.009533616 0.051454425 -0.11038866
000310 8f 01 70 be 68 bc 05 bd e0 e8 ae bd 2e 1a 1b bd
       -0.23438095 -0.03265038 -0.08540511 -0.037866764
000320 5c 01 88 bc 36 3f 93 bb 4b a3 40 bd a9 8c 35 3d
       -0.01660221 -0.0044936193 -0.04703073 0.044323597
000330 c0 f0 ab bc e6 44 36 3d 2b 1f 44 bc 83 d1 42 3d
       -0.020988822 0.0444993 -0.011970322 0.047563087
000340 b1 aa ef 3c 51 d2 76 3b 88 8f 06 bd 31 dc 94 be
       0.029256197 0.003766198 -0.032851726 -0.29074243
000350 52 3a 23 bd 5b 72 56 3d 3d 9f a1 3d 82 5d 3c 3c
       -0.03985054 0.05235515 0.078917004 0.011496903
000360 9e e3 b9 3b 79 f1 17 3e 85 7d dc 3c 05 ae 29 bd
       0.005672886 0.14838208 0.026915321 -0.041425724
000370 be 93 0a bd cd db c3 bc 08 5c e1 bd 96 68 11 3d
       -0.033832304 -0.02390852 -0.11003882 0.03550013
000380 da 61 14 bd f2 f0 40 3e 24 e4 04 3d 68 28 e7 3d
       -0.03622613 0.18841913 0.032444134 0.11287004
000390 1a c8 5e be cb 8b 98 bd 20 99 8d 3d b0 6a 25 3d
       -0.2175602 -0.074485384 0.06913972 0.04038495
0003a0 9e 3d 6e 3d 07 0f 8c 3b c2 9d a3 ba 32 3e 1c 3d
       0.05816423 0.0042742523 -0.0012482929 0.03814525
0003b0 0b 05 93 3c 10 c1 24 be 1a 69 0e bc ea 4d c5 3d
       0.01794674 -0.16089272 -0.00869205 0.096340016
0003c0 02 b1 ae 3d 83 fb 16 bd c7 23 a0 3c d2 d5 8c 3c
       0.08529855 -0.036860954 0.01954831 0.017191801
0003d0 7f 37 ad bd 38 55 88 bd d2 fd f4 bc 7c 0a a1 3c
       -0.08457851 -0.06656879 -0.029906187 0.01965832
0003e0 ba 43 b3 3d 99 f2 a0 bd 3c 39 d2 bd f3 4f 46 3c
       0.08753152 -0.07858772 -0.10264823 0.012104022
0003f0 97 76 58 bd 40 87 03 3d 5e b3 ae bd 82 04 10 3c
       -0.05284747 0.032111406 -0.08530305 0.008790137

gat_net.1.scoring_fn_target f4 [1, 1, 7]
000000 b3 38 ac bc 96 b1 11 3d da ae d4 bb 1d 28 2e bd
       -0.02102313 0.03556975 -0.0064905705 -0.042518724
000010 8a 73 91 3b 5c 4b 0a 3d 1a 95 ae bc
       0.004438822 0.033763275 -0.021311332

gat_net.1.scoring_fn_source f4 [1, 1, 7]
000000 fe 5d 12 3e 5c 2d f2 3d e8 51 9d 3b db 57 c5 bc
       0.14293668 0.11825058 0.0048010238 -0.024089744
000010 e0 aa a5 3d 37 4b 95 3c a6 b3 d4 3c
       0.080892324 0.018224342 0.02596457

gat_net.1.bias f4 [7]
000000 87 9e b1 bc b8 73 8d bd a0 b9 70 3d 30 d9 2e 3d
       -0.021682037 -0.06906837 0.058770776 0.042687595
000010 04 fa 20 bb c6 7e 76 3d 18 11 4e 3d
       -0.0024563083 0.060179494 0.05030927

gat_net.1.linear_proj.weight f4 [7, 100]
000000 9b 36 3f bf 86 83 ee 3d 5a 23 bc bd ef 7a 5d bf
       -0.74692696 0.1164618 -0.0918643 -0.86515707
000010 9e 4f 26 3e f3 81 9a 3f 93 67 1a bf 0f 55 f5 3e
       0.16241309 1.2070907 -0.6031429 0.47916457
000020 ab 60 ca 3e 18 f4 f5 be 08 72 31 bf 46 a0 e6 be
       0.39526877 -0.4803779 -0.6931462 -0.45044154
000030 1e 75 51 bf c9 59 98 be 80 38 1c bf 4d c9 31 bf
       -0.8181933 -0.29756 -0.6102371 -0.69447786
000040 ff b4 a8 3e 70 b5 97 bf 13 c9 c6 3e 23 9d 77 bd
       0.3295059 -1.1852245 0.38825282 -0.06045259
000050 8a 6c f3 bd 1c 71 9b bd 8d 28 a6 be 65 b6 0e 3e
       -0.118859366 -0.07589933 -0.32452813 0.13936765
000060 d2 a6 04 3d 53 26 29 3f d0 4e f6 3e df cc 28 3e
       0.032385655 0.66074103 0.48107004 0.16484402
000070 bf 21 2d be c6 f0 96 bd 9f eb 95 be 60 eb eb be
       -0.16907404 -0.07370143 -0.29281327 -0.46078014
000080 a5 86 20 3f a4 2a 19 3f 94 2f cf 3c 8f 51 6e 3f
       0.6270545 0.5983069 0.025291242 0.930932
000090 11 5c fe 3e cd 41 40 bf f3 c9 97 bd a6 8a aa be
       0.49679616 -0.75100404 -0.07411566 -0.33308905
0000a0 b3 3c e3 3e aa 65 9c 3e eb f1 a5 be 8e 4f f9 be
       0.44382247 0.30546314 -0.3241113 -0.48693508
0000b0 cb 1e 0c 3e 29 d6 ec 3e 07 25 2c be b2 33 8e bf
       0.13683622 0.4625714 -0.16811 -1.1109526
0000c0 9f 09 6a 3e 9f 5e 15 3f 14 9d 11 bf 68 f4 2a bf
       0.22855233 0.58347505 -0.5688031 -0.66779184
0000d0 43 7e e6 be c8 ca 9c be 2a 1e 4a 3f 82 ea 4a 3e
       -0.45018205 -0.3062346 0.78952277 0.1981602
0000e0 fe 1f 34 3d f3 87 53 3e c7 07 67 bf 89 f6 6e bf
       0.043975823 0.2065733 -0.9024624 -0.9334493
0000f0 6b 38 28 3f 34 2f db 3e 4f 40 1f 3f 10 14 b2 3e
       0.65711087 0.4280945 0.622075 0.3478093
000100 9f a9 1c bf 32 d1 43 bf 5a 3f d9 be cc b3 82 3e
       -0.6119632 -0.7649108 -0.42431146 0.255278
000110 a2 2b 30 3e ff 2e 33 bf 38 16 86 bf 70 0f 30 3f
       0.17204145 -0.69993585 -1.0475531 0.68773556
000120 16 91 92 3e 8a 5f de bd 2a 09 27 bf 1d 55 e0 be
       0.28626317 -0.108580664 -0.6524836 -0.43814936
000130 a3 c1 39 bf 8f dd 41 3f 75 05 92 bf c0 80 58 3f
       -0.7256109 0.75728697 -1.1407915 0.84571457
000140 07 19 f8 3e 2e 66 a3 3c 06 5e d4 3e 98 92 ff 3e
       0.48456594 0.019946184 0.41477984 0.4991653
000150 33 02 6c 3e 50 86 74 3f da 12 96 be b1 37 43 3e
       0.23047714 0.95517445 -0.29311258 0.19064213
000160 5c f3 54 bf 82 e3 21 bd 7f 9d d8 3e f0 e6 c5 3d
       -0.83183837 -0.03952361 0.4230766 0.096631885
000170 e7 33 30 3f 18 f3 44 3f d3 52 7f bf e6 77 a3 3e
       0.68829197 0.7693343 -0.99735755 0.31927413
000180 9b 19 5c bf 9c e6 e8 bb c6 da 80 bf c5 51 27 bf
       -0.8597657 -0.007107569 -1.0066764 -0.65359145
000190 c2 99 58 bf ef f4 23 3f 9a 68 21 3f 90 7a d3 3e
       -0.84609616 0.64045614 0.63050234 0.41304445
0001a0 0c a6 cc 3e 86 02 2e bf 3d 4d 3f bf c4 8e 49 3f
       0.39970434 -0.679726 -0.7472723 0.7873347
0001b0 cf 47 02 bf 9b 1e 04 3f 62 d1 ec be 7f 64 46 bf
       -0.5089082 0.516092 -0.46253496 -0.77497095
0001c0 90 eb b8 3e c1 d9 1e bf 4f 60 bd be 00 92 fd 3e
       0.3611722 -0.62051016 -0.3698754 0.49525452
0001d0 d2 a8 2e 3f ea 47 93 be c4 02 8a 3d d4 6c bb bf
       0.6822635 -0.28765804 0.06738809 -1.4642587
0001e0 36 a3 c4 3e 5e 66 1b bf 7c 0c 44 bf 10 71 43 bf
       0.3840577 -0.60703075 -0.7658155 -0.76344395
0001f0 20 6e 9a be 72 33 28 3f db c2 3d 3f 86 d3 d8 3e
       -0.30162144 0.657035 0.7412545 0.4234888
000200 b1 99 8e be 73 14 5b bf e3 cc c1 bd 64 dc 29 bf
       -0.27851632 -0.8557808 -0.09462907 -0.66351914
000210 c4 71 e1 3e 80 3f f2 be 6a 1e f2 3e b9 be 1f bf
       0.4403211 -0.47314072 0.4728883 -0.62400395
000220 a5 b3 68 bf 41 de ee 3e 13 67 d7 be 47 a8 85 3f
       -0.90899116 0.4665394 -0.42070827 1.0441979
000230 05 da 99 bd 75 5f 9a bf ae b8 d0 be 6e ee fa 3e
       -0.07512287 -1.2060381 -0.407659 0.49010032
000240 55 ea 9d 3e 7c 48 29 bf ea a5 60 bf cb f5 d9 3e
       0.30842844 -0.6612623 -0.87753165 0.42570338
000250 ef f5 95 bf ae d2 8f 3e a2 2f 2d 3e a3 9d c9 3e
       -1.1715678 0.28090423 0.16912702 0.3937808
000260 fc 02 a7 be 05 ee 32 bf fb 8f 15 bf e1 99 76 bf
       -0.32619464 -0.6989444 -0.5842282 -0.9632855
000270 de a9 8c be 6a 8b 1a bf f0 7d 2f bf 37 e5 8c bf
       -0.27473348 -0.6036898 -0.6855154 -1.1007451
000280 64 43 52 bf e1 12 87 bf 91 08 f3 be ae bf 2b bf
       -0.8213408 -1.0552636 -0.47467473 -0.67089355
000290 b0 cd cb be b2 6c 2c bf 5c da 0e bf d9 8f cd 3e
       -0.39805365 -0.67353356 -0.5580194 0.4014881
0002a0 43 9b ea 3e a3 b0 46 3f 4c 61 de be 4c a9 25 bf
       0.4582158 0.77613276 -0.43433607 -0.6471145
0002b0 50 46 51 3f 7c 15 3e bf b6 37 33 3f 41 1f 5e bf
       0.81747913 -0.7425153 0.70006883 -0.8676644
0002c0 04 3e f1 3d d3 62 ae be 52 65 1b 3e c8 5b 43 bf
       0.11779407 -0.34059772 0.1517537 -0.7631192
0002d0 30 5a da 3e 2e c7 8d bf d5 6f 6d bf 78 9f 31 bf
       0.42646933 -1.107641 -0.9274877 -0.69383955
0002e0 9c 1a 60 bf 27 d4 24 bf 6f 45 1e bf fc 93 30 bf
       -0.875406 -0.6438622 -0.618247 -0.68975806
0002f0 49 9a 3d bf 99 72 01 3f 22 37 3e 3e 76 31 d8 3e
       -0.74063545 0.5056549 0.18575719 0.42225236
000300 d8 15 c5 3e 2c ba 8a bf 51 81 a0 3e 4c db 16 bf
       0.38493228 -1.0838065 0.3134866 -0.5892837
000310 1b aa 14 3f de d1 5b 3f 01 a7 4c bf 9a 5f 1b 3f
       0.5807206 0.85867107 -0.7994233 0.6069275
000320 ac e5 4d 3f 46 20 de be c1 a2 05 3f 32 65 28 3f
       0.80428576 -0.43383998 0.5220147 0.6577941
000330 1b 12 fd 3e f7 f1 e3 3d e9 8e 51 3f fd 7c 03 3f
       0.49427876 0.111301355 0.8185869 0.5136259
000340 ad 7c 29 bf c4 ba 83 bf 0b d5 61 bd ac 28 c2 be
       -0.66205865 -1.0291371 -0.055134814 -0.37921655
000350 3e bf 5f bf 30 2f 0d bf 07 e4 02 3f cf 42 04 bf
       -0.8740119 -0.5515013 0.5112919 -0.5166444
000360 d0 ba 53 bf c5 77 8d 3e 59 af 8b bf 33 5a 51 bf
       -0.8270693 0.2763044 -1.0912887 -0.8177826
000370 0b 25 79 bf ea 8a 38 3f 25 c3 0e bf d1 72 e0 be
       -0.9732215 0.72086966 -0.55766517 -0.43837598
000380 bd d2 c1 3f 0c b7 30 bf 70 ab ac 3d 9f c2 2c 3f
       1.5142437 -0.6902931 0.084311366 0.6748447
000390 2f 9c 1f 3f a3 3b 25 bf 03 16 5a 3f 1e 31 15 be
       0.6234769 -0.64544123 0.8518984 -0.14569518
0003a0 d8 f2 1a 3f 9f 0d 3f 3e 0d af 95 bf 99 b4 a1 3e
       0.605268 0.1865754 -1.1694046 0.31583098
0003b0 91 b3 b3 3e 1c 3e 68 bf 31 c2 f0 3e 34 14 68 be
       0.35097936 -0.9071977 0.47023156 -0.22663957
0003c0 bf 81 38 bf 76 0f 9d bf b3 34 41 bf 34 d5 fa 3e
       -0.72072977 -1.2270343 -0.7547104 0.48990786
0003d0 5d 13 82 bf 4c 06 f9 3e e9 96 e9 be a4 3f 1a bc
       -1.0162159 0.48637617 -0.45622948 -0.009414587
0003e0 99 c8 92 3e 79 cf 48 bf 4a c8 82 3e 35 a0 f3 3e
       0.2866867 -0.7844158 0.25543433 0.47583166
0003f0 f2 7f c6 3b 35 ad 21 bf 00 67 18 bf 8c 99 d4 be
       0.0060577327 -0.6315492 -0.59532166 -0.41523397
