python/binarypath/binaries/gat_000029.pth (torch, 372431 bytes, 8 tensors)

gat_net.0.scoring_fn_target f4 [1, 8, 8]
0	0xbc6a2fa4	-0.014293585
1	0x3d75dd30	0.060025394
2	0x3ce5eed6	0.028067987
3	0x3c13f7f4	0.009031285
4	0xbc3f05f1	-0.011659131
5	0xbde075ee	-0.10959993
6	0xbdfcd505	-0.12345318
7	0xbc8d24d9	-0.017229484
8	0xbd82ff0e	-0.06396304
9	0x3bcafd76	0.0061947657
10	0xbd29cd11	-0.041455332
11	0xbded3697	-0.11582678
12	0x3da950b8	0.08267349
13	0xbde7995c	-0.11308548
14	0xbb164464	-0.0022928948
15	0x3d300e45	0.04298236
16	0x3e08e277	0.1336764
17	0x3c45898b	0.012056719
18	0x3c32c314	0.010910768
19	0x3d4d7cca	0.050167836
20	0xbd67ffc7	-0.056640413
21	0x3da40dba	0.08010431
22	0xbdfd7e7a	-0.12377639
23	0xbd7af2b5	-0.06126662
24	0xbd6aff93	-0.05737264
25	0xbde6074a	-0.11231859
26	0x3d4ae357	0.049533214
27	0x3cbba24e	0.022904541
28	0xbe0aa48b	-0.1353933
29	0x3d47db5b	0.048793178
30	0x3b136ded	0.002249594
31	0xbcec0cb8	-0.028814659
32	0x3dd2601e	0.10272239
33	0x3dda14e5	0.106485166
34	0x3da3f405	0.080055274
35	0x3d5102f4	0.051028207
36	0xbca04d8e	-0.019568231
37	0x3cf25067	0.029579354
38	0x3bd8bdf2	0.00661444
39	0x3d891116	0.06692712
40	0xbd070958	-0.032967895
41	0xbd9bd62d	-0.0760921
42	0xbd85f4b7	-0.06540816
43	0xbcf56b50	-0.029958397
44	0x3d00d14f	0.031449612
45	0xbc9ee56f	-0.019396512
46	0xbd492a5c	-0.049112663
47	0xbdc1cb1e	-0.0946257
48	0xbd9afdab	-0.075679146
49	0xbd3b9478	-0.045795888
50	0xbcac6cbb	-0.02104794
51	0x3d9b81db	0.07593127
52	0x3c8d0db5	0.01721845
53	0xbdc4c77c	-0.09608361
54	0xbca395b4	-0.019968845
55	0x3d6239dd	0.055230964
56	0x3d797fcb	0.06091289
57	0x3b80200b	0.00391007
58	0x3db03980	0.08604717
59	0x3df02c49	0.11727197
60	0x3db22b65	0.08699683
61	0xbcddbd59	-0.027067827
62	0x3de283ad	0.110602714
63	0x3df604b7	0.12012618

gat_net.0.scoring_fn_source f4 [1, 8, 8]
0	0xbe2d8c33	-0.16948013
1	0x3d32a4d2	0.043614216
2	0x3e2c5617	0.16829716
3	0x3e3f88fb	0.18704598
4	0x3e087d4d	0.13329048
5	0xbe93366a	-0.28752452
6	0xbeae3912	-0.34027916
7	0x3d19d5aa	0.03755728
8	0xbe7b2df8	-0.24529254
9	0x3eb34c19	0.35018995
10	0xbdc63f9b	-0.096801005
11	0x3d872536	0.06598894
12	0x3cc6e91d	0.024281079
13	0xbd19d793	-0.037559103
14	0x3cdd16e6	0.026988458
15	0x3e8a4741	0.27007487
16	0x3ec41c77	0.38302967
17	0xbd08719b	-0.033311468
18	0x3e24a8fe	0.1608009
19	0x3ed7ecec	0.42172945
20	0x3cc423e5	0.023942897
21	0xbe2722da	-0.16321889
22	0xbee5c208	-0.44874597
23	0xbd12c93f	-0.035836454
24	0xbe9f86df	-0.31157586
25	0xbe3d10e4	-0.18463475
26	0xbe390324	-0.18067604
27	0x3e39d7ef	0.18148778
28	0x3d557a75	0.052118737
29	0x3e9a3a18	0.30122447
30	0xbe507a6a	-0.20359197
31	0xbe070075	-0.13183768
32	0x3e844a01	0.2583771
33	0x3e962229	0.29322937
34	0x3b262524	0.0025351727
35	0x3d7f594a	0.062341012
36	0xbd98ad10	-0.07454884
37	0x3c17d643	0.009267393
38	0x3ea7c467	0.3276703
39	0xbda99daf	-0.08282029
40	0x3bafd7d6	0.005366306
41	0xbe932e35	-0.2874619
42	0xbe0f4590	-0.1399138
43	0x3e1a5c58	0.15074289
44	0x3c817c61	0.015806379
45	0x3e71af82	0.23602107
46	0xbe99081e	-0.29889005
47	0x3d2e4a20	0.04255116
48	0xbe85422d	-0.2602705
49	0xbdba9563	-0.091105245
50	0x3daaca39	0.08339352
51	0x3e9e386b	0.30902418
52	0xbdb8e00b	-0.09027108
53	0xbe7dc906	-0.24783716
54	0x3e15ddf9	0.14635457
55	0x3e3557c4	0.17709261
56	0x3da7de01	0.08196641
57	0xbea09958	-0.31366992
58	0x3da376a3	0.079816125
59	0x3d9c1240	0.076206684
60	0x3db930c9	0.09042508
61	0xbde1ce02	-0.11025621
62	0x3e14c3b2	0.14527777
63	0x3e4c3c5f	0.19944905

gat_net.0.bias f4 [64]
0	0x3bbc05ea	0.0057380097
1	0x3c9368f1	0.017994376
2	0x3cfdc9db	0.030980041
3	0xbc0b8b89	-0.0085171545
4	0xbc8e407f	-0.017364739
5	0xbc9a5d55	-0.018843332
6	0x3c21bb52	0.009871321
7	0x3cd72cd4	0.026266493
8	0x3c817d7e	0.01580691
9	0x3cf3bfd2	0.029754553
10	0xbd53d3b1	-0.051715557
11	0xbc3af867	-0.011411763
12	0xbbf26513	-0.007397303
13	0xbba4ec78	-0.005033072
14	0x3cb65153	0.022255575
15	0x3d08f93d	0.033440817
16	0x3cff88e8	0.031193212
17	0x3cc107b2	0.02356324
18	0x3d5340e1	0.051575545
19	0x3d03d191	0.03218228
20	0xbd6d218c	-0.05789332
21	0x3d051cdd	0.03249823
22	0xbb6ba32a	-0.0035955408
23	0x3cb3d150	0.021950394
24	0xbc5a3fd2	-0.01332088
25	0xba9b792a	-0.0011861671
26	0x3b1f0b52	0.0024268222
27	0x3c355b88	0.011069186
28	0x3cb50c7c	0.02210068
29	0x3ce90d4f	0.028448729
30	0x3c4395bc	0.011937555
31	0x3ce5c5da	0.028048445
32	0x3cf95bc8	0.030439273
33	0xbb25ac04	-0.0025279531
34	0x3d04782f	0.03234118
35	0xbc0368ca	-0.008020589
36	0x3bd391fb	0.006456611
37	0x3c673e6a	0.014114002
38	0x3c4c153b	0.012456234
39	0x3cb48ff6	0.022041302
40	0x3c4ca2a6	0.01248995
41	0x3bab19fa	0.0052216025
42	0x3c492406	0.012276655
43	0x3cbe2eea	0.02321573
44	0x3ccd593e	0.025066968
45	0x3c036b7c	0.008021232
46	0xbcacadd3	-0.02107898
47	0xbcbb4e38	-0.022864446
48	0x3d6b6c98	0.05747661
49	0x3d24361c	0.040090665
50	0xbbb4c384	-0.0055164713
51	0x3cd8c075	0.026458958
52	0x3d462954	0.048379257
53	0x3c038ee0	0.0080296695
54	0x3d8dde5c	0.06927177
55	0x3cefd1d0	0.029274851
56	0x3cbd6c14	0.023122825
57	0x3bdc13ae	0.006716213
58	0xbbc0a716	-0.005879293
59	0x3bb08cda	0.0053878846
60	0x3ccd3d91	0.025053771
61	0x3c9d6ddf	0.01921743
62	0xbc51c58c	-0.0128034465
63	0x3c6cf36c	0.014462333

gat_net.0.linear_proj.weight f4 [64, 1433]
0	0x3ca37a60	0.019955814
1	0xbb955c9b	-0.0045581586
2	0x3e4178e4	0.18893772
3	0x3b4243e2	0.0029642512
4	0x3c0fd7ac	0.0087794475
5	0xbd523afa	-0.051325776
6	0x3e714b6f	0.23563932
7	0x3ddddb9d	0.108329035
8	0xbcf28620	-0.029604971
9	0x3d2dde75	0.04244848
10	0xbb2e9441	-0.002663866
11	0xbc231f20	-0.009956151
12	0x3d812c1c	0.06307241
13	0x3becc4e2	0.0072256187
14	0xbc913464	-0.017725177
15	0xbdfd1e10	-0.123592496
16	0xbdbebe12	-0.09313597
17	0xbc8f86ac	-0.017520271
18	0xbd5177a6	-0.051139496
19	0xbe44d410	-0.1922152
20	0x86ac326f	-6.4773315e-35
21	0x3d2995f4	0.041402772
22	0xbc091fb3	-0.008369374
23	0xbd89d011	-0.06729139
24	0x3a2f14c6	0.00066788157
25	0x3e263ded	0.1623456
26	0x3d938e41	0.07204867
27	0xbe179a96	-0.14805064
28	0x3d71a636	0.0589964
29	0xbb07861c	-0.00206793
30	0xbdf6dbaf	-0.1205362
31	0xbc537ed1	-0.012908653
32	0xbccbb016	-0.024864238
33	0xbb293f71	-0.0025825168
34	0xbcd3ea28	-0.02586849
35	0x3e3131a2	0.1730409
36	0xbd131e4e	-0.035917573
37	0xbc8839a5	-0.01662905
38	0x3d832122	0.06402804
39	0x3d791c8f	0.06081825
40	0x3e089ee1	0.13341857
41	0xbd829ac1	-0.06377173
42	0x39ffee94	0.00048815145
43	0xbc05cea3	-0.008166942
44	0xbcf6f34b	-0.030145308
45	0xbe00d775	-0.1258219
46	0x3c7ec659	0.015550219
47	0xbd1539d6	-0.03643211
48	0xbe5c7c6f	-0.21531843
49	0x3a32bc46	0.0006818216
50	0xbe06d648	-0.1316768
51	0xbd89e44b	-0.067329966
52	0x3d55f791	0.05223805
53	0x3c0b70db	0.008510794
54	0x3c51e00f	0.012809767
55	0x3d52b9fb	0.051446896
56	0x3e74e1dd	0.23914285
57	0x3cc0af40	0.023521066
58	0x3c8a685e	0.01689547
59	0xbcf6f4d0	-0.030146033
60	0x8783780a	-1.9781242e-34
61	0x3da866ce	0.082227334
62	0x3dbd2495	0.09235493
63	0x3e90dd5c	0.28293884
64	0x3d7461dc	0.05966364
65	0x3cfbbdea	0.030730207
66	0x3c379e0b	0.011207114
67	0x3c30d4d8	0.010792933
68	0x3ca6be41	0.020354392
69	0x3da48875	0.080338396
70	0x3c2c1803	0.010503772
71	0x3d4b4e34	0.049635127
72	0xbd2690b2	-0.040665336
73	0xbbea503b	-0.0071506775
74	0x3b942f9e	0.004522278
75	0xbe14d494	-0.14534217
76	0xbe430caf	-0.19047807
77	0xbd9c5f1c	-0.07635328
78	0xbc8655ec	-0.016398393
79	0xbceb8089	-0.028747814
80	0x3bf9448a	0.0076070474
81	0x3ddb8ef1	0.10720623
82	0x3dc75e8e	0.09734832
83	0xbd6c6411	-0.05771262
84	0xbe0d417a	-0.13794509
85	0xbe367b65	-0.17820509
86	0xbe385f98	-0.18005216
87	0x3c920ac5	0.017827401
88	0xbe93b4c2	-0.28848845
89	0x3dd52a17	0.104084186
90	0x3d835ca7	0.064141564
91	0xbdea9ba3	-0.114554666
92	0x3ca5a1f9	0.020218836
93	0x3e0af7f5	0.1357115
94	0xbd5e0594	-0.05420454
95	0xbd975795	-0.07389752
96	0x3bbd1f18	0.005771529
97	0x3dfd8286	0.12378411
98	0x3c85672f	0.016284553
99	0x3d41a65d	0.047277797
100	0xbc06d112	-0.008228557
101	0xbd2477fc	-0.04015349
102	0xbdb50203	-0.08838274
103	0xbd2f919d	-0.042863477
104	0xbe03634d	-0.12830849
105	0xbd620aa5	-0.055185933
106	0xbd11a2be	-0.035555594
107	0xbd2f4581	-0.042790893
108	0xbdbb2d1f	-0.091394655
109	0x3cab9f23	0.020949906
110	0x3c15f530	0.009152696
111	0x3c32c302	0.010910751
112	0xbd7f2215	-0.062288363
113	0x38baa575	8.89999e-05
114	0xbda78cd3	-0.08181157
115	0xbc053169	-0.008129456
116	0xbe13daf1	-0.14438988
117	0xbcb8f8cf	-0.022579579
118	0x3d46b15f	0.048508998
119	0xbca4cfed	-0.020118678
120	0x3c43ad09	0.01194311
121	0xbc515236	-0.012775948
122	0x3d66178e	0.056174807
123	0x3d6c380d	0.05767064
124	0xbcf37c4f	-0.02972236
125	0xbd95068f	-0.072766416
126	0xbdcd11d9	-0.1001317
127	0x3cde8067	0.027160836
128	0xbe4886c6	-0.19582662
129	0x3973ce52	0.00023251146
130	0x3cfa2c8c	0.03053882
131	0xbb9cd1fa	-0.0047857733
132	0x3db6a58a	0.08918293
133	0x3d12f0d2	0.035874195
134	0x3d8de24f	0.069279306
135	0xbe3b1dd3	-0.18273096
136	0xbd86ecc6	-0.0658813
137	0xbc4d1087	-0.012516147
138	0xbc97ec22	-0.018545214
139	0xbd81120b	-0.063022695
140	0x3e6baeab	0.2301585
141	0xbd9afb72	-0.07567491
142	0x3d6df36b	0.05809347
143	0xbd814261	-0.06311489
144	0xba7c4d47	-0.00096245523
145	0x051e9f60	7.458397e-36
146	0x3d11506d	0.03547709
147	0xbc9628cf	-0.018330006
148	0xbcc0d834	-0.023540594
149	0x3d1c9e68	0.038237005
150	0xbc864507	-0.016390337
151	0xbd295720	-0.041342854
152	0xbc2cd6bc	-0.010549244
153	0xbdfef831	-0.124496825
154	0x3c5eb394	0.013592619
155	0xbdb01f21	-0.08599687
156	0xbe08df72	-0.13366488
157	0xbdf9a2e4	-0.12189272
158	0x3dbc2a8d	0.091878034
159	0x3d26840a	0.040653266
160	0xbdc56120	-0.09637666
161	0x3bef5642	0.007303984
162	0xbdeb52ec	-0.114904255
163	0x3cfcd081	0.030861141
164	0x3c84e290	0.016221315
165	0x3cbb3561	0.022852601
166	0x3bde4d81	0.0067841415
167	0xbd28545c	-0.041096076
168	0x3d5c73e7	0.05382147
169	0x3d237b34	0.039912418
170	0x3be15093	0.0068760603
171	0xbca59d3b	-0.020216575
172	0xbdbbc970	-0.091692805
173	0x3d0b99ed	0.034082342
174	0xbd29f173	-0.04149003
175	0xbc756e7e	-0.014979957
176	0xbe322356	-0.17396292
177	0xbdc5e9ae	-0.096637115
178	0x3c004f41	0.007831396
179	0x3dad80e1	0.08471847
180	0xbbfbb2d4	-0.00768123
181	0xbcdaedca	-0.026724715
182	0x3d906c75	0.070519365
183	0xbc962f39	-0.018333064
184	0x3d1d8913	0.038460802
185	0x39a063de	0.00030591985
186	0x3d816183	0.06317427
187	0x3e2cecb3	0.16887169
188	0xbda19bd0	-0.07891047
189	0x3c791f47	0.015205211
190	0xbcb97785	-0.02264
191	0x3dad68e2	0.084672704
192	0xbcdef5ae	-0.027216759
193	0x3c615d94	0.013755221
194	0x3deb0a27	0.11476546
195	0x3d9bdf37	0.07610934
196	0x3ded6ca6	0.11592989
197	0x3d05ba3a	0.032648303
198	0x3d7f4dd7	0.062330093
199	0x3d894b9c	0.067038745
200	0x3c9b606d	0.018966878
201	0xbc86a145	-0.016434321
202	0xbdd7ce45	-0.1053739
203	0xbcd596a5	-0.02607281
204	0x3c4673dc	0.012112584
205	0x398f0a54	0.0002728278
206	0xbd3c4051	-0.045959774
207	0xbdbf8575	-0.09351627
208	0xbcc6096b	-0.024174413
209	0x3b7d466e	0.0038646716
210	0x3bf0849e	0.007340028
211	0x3e6ba846	0.2301341
212	0x3d6265e5	0.055272955
213	0xbd18420d	-0.037172366
214	0x3cfaa7ec	0.03059765
215	0x3cb89932	0.022533987
216	0xbbf9dccd	-0.0076251985
217	0xbe0656d4	-0.1311906
218	0xbcdd349e	-0.027002629
219	0x3c904036	0.017608743
220	0xbc635525	-0.0138752805
221	0x3c03076a	0.007997373
222	0x3cd6447d	0.026155705
223	0x3bbd2a8a	0.0057728933
224	0x3b6456a1	0.0034841674
225	0x3c214a2d	0.009844345
226	0xbd112728	-0.035437733
227	0xbd21b595	-0.03947981
228	0x3c8c7f1c	0.017150454
229	0x3cdf4c0a	0.027257938
230	0x3c285c19	0.010275864
231	0xbd63f558	-0.0556539
232	0xbc788194	-0.015167613
233	0xbd758bbf	-0.059947725
234	0x3e34ac8d	0.17643948
235	0x3dcecc24	0.100975305
236	0x3bb409ab	0.0054943166
237	0x3e22b37d	0.15888782
238	0xbe59f43c	-0.21284574
239	0x3c990b48	0.018682137
240	0x3c282b23	0.010264191
241	0x3c3c57e4	0.011495564
242	0xbca0e667	-0.019641114
243	0xbd1540e8	-0.036438853
244	0x3a67067d	0.00088129175
245	0x3d3d6382	0.046237476
246	0x3c026620	0.007958919
247	0x3d0aa657	0.03385004
248	0xbd3acdab	-0.045606297
249	0xbdff88bd	-0.12477253
250	0x3da7e21d	0.081974246
251	0xbc2ff25b	-0.010738934
252	0x3c665582	0.014058473
253	0x3c4d0f46	0.0125158485
254	0x3dfeb316	0.12436502
255	0x3d83044e	0.063973054

gat_net.1.scoring_fn_target f4 [1, 1, 7]
0	0xbda12bb2	-0.07869662
1	0x3d549ccf	0.051907357
2	0xbd0ae74b	-0.033911984
3	0xbcd48897	-0.025944037
4	0x3c9a1218	0.018807456
5	0xbd57d93f	-0.052697416
6	0xbd0d4bea	-0.034496225

gat_net.1.scoring_fn_source f4 [1, 1, 7]
0	0x3db82abd	0.08992527
1	0x3df81491	0.12113298
2	0x3c908b1e	0.017644461
3	0x3d23d90f	0.040001925
4	0x3dfc81c8	0.12329441
5	0x3d8d6ffd	0.06906126
6	0x3d3987d2	0.045295544

gat_net.1.bias f4 [7]
0	0xbb36288e	-0.0027795169
1	0xbdd19321	-0.10233141
2	0x3d363b62	0.044490226
3	0x3d034149	0.032044683
4	0xbd0479d4	-0.032342747
5	0x3d1b675c	0.037940368
6	0x3d5f1f4f	0.054473218

gat_net.1.linear_proj.weight f4 [7, 64]
0	0x3f402593	0.75057334
1	0x3f2a065b	0.6641595
2	0xbf4e7598	-0.80648184
3	0xbf6dfb10	-0.92961216
4	0x3f1d4b6c	0.6144321
5	0x3f385a34	0.7201264
6	0x3f0f28ed	0.5592182
7	0xbf451c06	-0.76995885
8	0xbf06d9ce	-0.52676094
9	0xbf968049	-1.17579
10	0x3e5b6f90	0.21429276
11	0x3f516f1b	0.8181016
12	0xbf877e57	-1.0585431
13	0x3ebcba60	0.36860943
14	0xbf0b6056	-0.5444387
15	0x3ea5b152	0.32361847
16	0x3e8841f8	0.2661283
17	0xbf562836	-0.8365511
18	0x3ef74a76	0.48298997
19	0xbe1f4e0a	-0.15557113
20	0x3f443b6e	0.7665318
21	0xbf821f19	-1.016574
22	0x3f94cfd8	1.1625929
23	0xbf8d04af	-1.1017054
24	0xbf20fbff	-0.62884516
25	0x3e4784eb	0.19484298
26	0xbf7066b6	-0.93906724
27	0xbf6dadaa	-0.92843115
28	0x3eaa15df	0.3321981
29	0xbedfb59d	-0.43693247
30	0x3efaef77	0.49010822
31	0xbf53d6f8	-0.8274989
32	0x3ea6a57d	0.32548133
33	0xbf932a18	-1.1497221
34	0xbf427aa6	-0.75968397
35	0xbe88a8a8	-0.26691175
36	0xbf8158de	-1.0105245
37	0xbf598d26	-0.84981
38	0xbf29912d	-0.66237146
39	0x3ecc63bd	0.39919844
40	0x3ea5ab81	0.3235741
41	0xbf55961a	-0.8343216
42	0xbf00926e	-0.50223434
43	0x3ef0a951	0.47004178
44	0x3e1c374c	0.15255469
45	0xbf7b78bf	-0.9823112
46	0xbee78156	-0.45215863
47	0xbeed8708	-0.46392083
48	0x3e7a398d	0.24436016
49	0x3eddc087	0.4331095
50	0xbf17483f	-0.59094614
51	0x3f4abf14	0.7919781
52	0xbf0f79c1	-0.56045157
53	0xbdfc34aa	-0.123147324
54	0xba3da232	-0.0007233947
55	0xbf95ac69	-1.169324
56	0xbf110e95	-0.56662875
57	0x3ecfd15c	0.40589416
58	0xbc3d9f77	-0.011573664
59	0xbfa77c09	-1.3084728
60	0xbf5bbc57	-0.8583426
61	0xb9f13794	-0.0004600851
62	0x3f1a4079	0.6025463
63	0xbee8724c	-0.45399702
64	0x3f46b212	0.77615464
65	0xbf8dabb6	-1.1068027
66	0xbe353577	-0.17696176
67	0x3f4cb694	0.7996609
68	0x3f404a63	0.75113505
69	0x3f5bb260	0.85819054
70	0x3f285dbc	0.6576803
71	0xbeee23db	-0.4651173
72	0xbf868293	-1.0508598
73	0x3f420111	0.7578288
74	0xbf1cf376	-0.6130899
75	0xbe003987	-0.12521945
76	0x3f4a510e	0.7902993
77	0xbf85df77	-1.0458821
78	0xbf4f485f	-0.80969805
79	0x3eadd2e3	0.33949956
80	0x3f549995	0.8304685
81	0xbf41547e	-0.7551955
82	0xbebdd431	-0.37075952
83	0x3ee90fa5	0.45519748
84	0x3f27a4e5	0.65485984
85	0xbf6e16d4	-0.9300358
86	0xbf74fc8e	-0.9569787
87	0x3f2ce23f	0.67532724
88	0xbedcc72c	-0.43120706
89	0xbfbf11f6	-1.4927356
90	0x3f89ebc8	1.077508
91	0x3f1f1d96	0.6215452
92	0xbf392468	-0.72321177
93	0x3e6621e6	0.22473869
94	0xbf35204e	-0.7075242
95	0xbf1c1735	-0.6097291
96	0xbe0e04e3	-0.13869052
97	0x3f52662d	0.8218716
98	0xbe1458e9	-0.14487042
99	0x3e60dda5	0.2195955
100	0xbeea7d9e	-0.45798963
101	0xbf599450	-0.8499193
102	0x3f2df746	0.67955434
103	0xbece28cb	-0.40265498
104	0xbf5be6f9	-0.8589931
105	0xbf7a811d	-0.9785326
106	0x3edb61ce	0.42848057
107	0x3eb5ca60	0.35505962
108	0xbdcddf80	-0.10052395
109	0x3e1a0086	0.15039262
110	0x3f84dedd	1.0380512
111	0xbf6b550e	-0.9192666
112	0xbf9d5aca	-1.2293332
113	0xbf7a6191	-0.97805125
114	0x3f90c931	1.1311399
115	0x3e8d1a1a	0.27558976
116	0x3eca7633	0.39543304
117	0xbfbb291a	-1.4621918
118	0xbeb366f6	-0.3503949
119	0x3f0a86c3	0.5411188
120	0xbf692a92	-0.9108058
121	0xbed34e34	-0.41270602
122	0xbf81a66e	-1.0128915
123	0xbea3ebe3	-0.32015905
124	0xbf7518a8	-0.9574075
125	0xbdbf258f	-0.093333356
126	0xbf5a738b	-0.85332555
127	0xbf572824	-0.84045625
128	0x3f09ec07	0.53875774
129	0x3ef7fa64	0.4843322
130	0x3f18927d	0.59598523
131	0x3f1356c0	0.57554245
132	0x3dadb00b	0.08480843
133	0xbf44563a	-0.7669407
134	0xbfaab8a7	-1.3337601
135	0x3f4a100a	0.78930724
136	0x3ef49c07	0.4777529
137	0xbf0196a7	-0.506205
138	0x3f91989c	1.1374698
139	0x3e8c4ecd	0.2740387
140	0x3f1e7017	0.61889786
141	0x3f35bec7	0.7099423
142	0xbf2aa0d7	-0.6665167
143	0xbfb7d013	-1.4360374
144	0xbf221b9e	-0.6332339
145	0x3f778d83	0.96700305
146	0xbfa831f1	-1.3140241
147	0xbf88f26c	-1.0698981
148	0xbef9061b	-0.4863747
149	0xbf38302d	-0.7194851
150	0x3efda8e6	0.49542922
151	0xbf9c3a98	-1.2205381
152	0xbf1ebb67	-0.62004703
153	0x3d79588d	0.060875464
154	0xbf94cb40	-1.1624527
155	0x3f6482bd	0.8926199
156	0xbf8ed4a2	-1.115864
157	0xbecdb392	-0.40176064
158	0xbfb8c707	-1.4435738
159	0x3eb57409	0.3544009
160	0x3eca9e2b	0.39573798
161	0x3f2054bb	0.6262929
162	0x3edd7ff0	0.4326167
163	0x3ea1830e	0.315453
164	0xbf7da60f	-0.9908151
165	0x3f3200fe	0.69532764
166	0x3f14040d	0.5781868
167	0xbf2e082f	-0.6798124
168	0x3f224b98	0.63396597
169	0xbeadbac0	-0.3393154
170	0xbfb7e0c4	-1.4365468
171	0xbfaabae6	-1.3338287
172	0xbfa12fef	-1.2592753
173	0x3f625696	0.8841337
174	0xbf637068	-0.88843393
175	0xbf1ab6d9	-0.60435253
176	0xbfa6cd11	-1.3031331
177	0x3f2992dd	0.6623972
178	0x3f655a7c	0.89591193
179	0x3dddd3e5	0.10831431
180	0x3e56c726	0.20974407
181	0x3f09f4f7	0.5388941
182	0xbfa6e39a	-1.3038208
183	0x3ec7eb10	0.39046526
184	0x3e80a007	0.2512209
185	0xbed24a8a	-0.41072494
186	0xbf5ea0dc	-0.869642
187	0x3f583ddb	0.84469384
188	0x3ce2f1fc	0.027703278
189	0xbfa20290	-1.2657032
190	0x3f525820	0.8216572
191	0x3f32c160	0.69826317
192	0xbf3bac2a	-0.73309577
193	0xbf8212af	-1.0161952
194	0xbf0d99c3	-0.55312747
195	0xbe6ceeb4	-0.23137933
196	0xbf857b00	-1.0428162
197	0x3dc29729	0.09501488
198	0x3e5b2bef	0.21403478
199	0x3f88c94f	1.0686435
200	0xbecc8180	-0.3994255
201	0xbfb9715b	-1.4487718
202	0xbf417b00	-0.7557831
203	0xbf850815	-1.0393091
204	0x3e9d0850	0.30670404
205	0xbfa244a6	-1.26772
206	0xbf90541f	-1.1275672
207	0xbf0705d9	-0.527433
208	0xbf2acd84	-0.6671984
209	0xbd4a1b93	-0.049342703
210	0xbf8e68d3	-1.112574
211	0xbf272970	-0.65297604
212	0xbeebb152	-0.46033722
213	0x3f65c578	0.8975444
214	0x3f709d2b	0.9398982
215	0x3f4f4d3d	0.8097723
216	0x3f991fac	1.196279
217	0xbca61aba	-0.020276416
218	0xbd259fc4	-0.040435567
219	0xbf6630a3	-0.89917964
220	0xbf0b15c5	-0.5433009
221	0xbfd11107	-1.6333321
222	0x3e6f242b	0.2335364
223	0x3f186fbe	0.59545505
224	0xbf62f1b3	-0.88650054
225	0xbf855b0d	-1.0418411
226	0x3ef6e47e	0.482212
227	0x3f3ff48d	0.7498253
228	0x3f46c90a	0.7765051
229	0x3f496272	0.7866584
230	0xbebef21b	-0.37294087
231	0x3ee28bce	0.44247288
232	0x3e646f8f	0.22308181
233	0x3f4508ca	0.76966536
234	0xbb9f0fb4	-0.004854167
235	0xbdc1b563	-0.09458425
236	0xbf16b2a2	-0.5886632
237	0xbf94168e	-1.1569383
238	0x3e2fa51b	0.17152826
239	0xbf56ccb7	-0.8390612
240	0x3e2a03c1	0.16602995
241	0x3f3c77a9	0.73620087
242	0xbf18f6bc	-0.59751487
243	0xbfa94c18	-1.3226347
244	0x3eedabee	0.46420234
245	0xbf454c04	-0.77069116
246	0xbf0a1fd5	-0.5395482
247	0x3e0e7366	0.13911209
248	0xbf76642b	-0.96246594
249	0x3f70438e	0.9385308
250	0xbf4b0d54	-0.7931721
251	0xbf57e17d	-0.8432844
252	0x3e44429f	0.19166039
253	0x3f0c40d9	0.5478645
254	0xbf186e13	-0.5954296
255	0xbf296b58	-0.6617942
