python/binarypath/binaries/gat_000037.pth (torch, 372431 bytes, 8 tensors)

gat_net.0.scoring_fn_target f4 [1, 8, 8]
0.011502361 -0.003815074 0.0013705544 0.0135357855 -0.018709224 -0.07694005 0.004015649 0.0005612355
-0.013466897 0.07641413 -0.09549449 -0.016445117 -0.51520216 0.027157087 -0.014868783 0.3686386
0.0002864786 -0.0040520104 0.003499451 -0.61182743 0.00030966313 -0.049756356 -0.0009295319 -0.042453747
0.025483767 -0.14215674 -0.0031329494 -0.00019741167 0.000128046 -0.24777943 -0.0027387117 -0.002188221
-0.09918212 0.15147315 0.0054892623 -0.18654512 -0.012410456 -0.0023520535 -0.002778378 0.0002573032
0.031652234 -0.017565293 0.92676955 -1.45966 0.10631422 0.16375941 0.43375134 0.20233925
-0.00024129478 0.02852038 0.020979999 3.1889744e-05 0.016338853 -0.0011217376 -0.0030181531 -0.00042772843
-0.00017068916 0.0042288327 -0.0021634547 0.023830686 -0.030711954 -0.0006688899 -0.006761976 0.02432641
00000000: 6674 3c3c 5206 7abb 2da4 b33a 33c5 5d3c
00000010: 1644 99bc bf92 9dbd b595 833b e01f 133a
00000020: 43a4 5cbc 037f 9c3d 9d92 c3bd e9b7 86bc
00000030: 4ae4 03bf 8a78 de3c 329c 73bc 33be bc3e
00000040: 8232 9639 bac6 84bb 0c57 653b b9a0 1cbf
00000050: 485a a239 52cd 4bbd d4ab 73ba fbe3 2dbd
00000060: 55c3 d03c 8991 11be 2b52 4dbb 4b00 4fb9
00000070: 1644 0639 e4b9 7dbe f57b 33bb 4268 0fbb
00000080: ff1f cbbd c71b 1b3e 45df b33b af05 3fbe
00000090: 3a55 4bbc e924 1abb 7315 36bb a7e6 8639
000000a0: c6a5 013d 17e5 8fbc c540 6d3f 24d6 babf
000000b0: 45bb d93d 8cb0 273e a814 de3e 0532 4f3e
000000c0: 1304 7db9 92a3 e93c 3fde ab3c 5ac1 0538
000000d0: 0fd9 853c 4507 93ba 35cc 45bb bd40 e0b9
000000e0: 06fb 32b9 0592 8a3b bfc8 0dbb 9238 c33c
000000f0: a397 fbbc 7158 2fba 9193 ddbb 2e48 c73c

gat_net.0.scoring_fn_source f4 [1, 8, 8]
-0.026185645 -0.18760958 -0.12841827 -0.2167095 -0.091844246 0.032190096 -0.08788322 -0.058667064
0.15317513 -0.63210106 -0.79953605 -0.0755568 0.48759902 0.288006 -1.0359217 0.108577706
0.10421093 -0.02506565 -0.17972822 -0.1924495 -0.23859033 -0.02579254 -0.62951267 -0.6290223
0.19329605 0.1631421 0.3012209 0.18466482 0.1506992 -0.20927069 -0.7472594 -1.3197953
-0.0707543 0.22557802 0.33272266 0.44394097 -0.48336884 0.14336693 -0.21335238 -1.2226301
0.06801878 -0.8965807 -0.621161 -0.67097145 -1.4723958 0.41893375 -0.7870969 -0.9874054
-0.6108758 0.54140466 0.21204534 0.35299626 -0.6563257 -0.30937025 -0.54901683 -0.6842959
0.038294386 -0.10601821 -0.093743265 -0.08572726 -0.19809954 0.095257126 -0.087258235 -0.06008282
00000000: 4783 d6bc ba1c 40be 1480 03be 18e9 5dbe
00000010: d618 bcbd c3d9 033d 1efc b3bd e04c 70bd
00000020: f1d9 1c3e 60d1 21bf 65ae 4cbf 86bd 9abd
00000030: 94a6 f93e 8675 933e 1599 84bf fd5d de3d
00000040: 8a6c d53d 7a56 cdbc ad0a 38be 7b11 45be
00000050: 0651 74be e04a d3bc be27 21bf 9b07 21bf
00000060: 66ef 453e b90e 273e a039 9a3e c618 3d3e
00000070: e450 1a3e 0e4b 56be 644c 3fbf 0def a8bf
00000080: a1e7 90bd edfd 663e a05a aa3e 3b4c e33e
00000090: 1f7c f7be c8ce 123e 0c79 5abe 257f 9cbf
000000a0: 6e4d 8b3d 5086 65bf 6804 1fbf c9c4 2bbf
000000b0: 7777 bcbf 7c7e d63e 2f7f 49bf 9ac6 7cbf
000000c0: 5b62 1cbf 7f99 0a3f 6a22 593e edbb b43e
000000d0: f604 28bf c765 9ebe 5e8c 0cbf 042e 2fbf
000000e0: 93da 1c3d 1320 d9bd 78fc bfbd c691 afbd
000000f0: 9bda 4abe 2b16 c33d 72b4 b2bd 6719 76bd

gat_net.0.bias f4 [64]
-0.6094862 0.24421681 -0.08782634 0.19841625 -0.6334768 -0.81040716 0.10330984 1.5253924
-0.18982394 0.6298974 0.7897828 -0.74137485 0.36854553 -0.94275737 -1.026192 0.41628492
0.013482666 -0.115864456 0.2908076 -0.11033761 0.85756683 1.175902 -0.12286228 0.13970353
-0.5738623 -0.18063146 -0.394222 -1.1608444 0.313094 -0.08949683 1.0720645 0.62494934
-0.09421716 0.12701984 -0.2252924 -0.32531828 -0.10598895 1.2816998 0.8991851 0.08014004
0.5155331 1.1366401 -0.23196578 -0.29883182 1.6670705 -0.21998078 0.31399548 -0.016853707
-1.3783693 -0.30341822 -0.9386099 -0.6260716 -3.384077e-06 -0.10787459 0.17000005 -0.75966114
-0.30077636 0.032954697 -0.15810801 0.11261393 0.6638897 0.68869895 0.6458502 -0.0047087152
00000000: 4a07 1cbf f913 7a3e 4cde b3bd a12d 4b3e
00000010: 892b 22bf d876 4fbf 1c94 d33d 0f40 c33f
00000020: 3561 42be f540 213f 352f 4a3f beca 3dbf
00000030: 00b2 bc3e 8c58 71bf 425a 83bf 4c23 d53e
00000040: 66e6 5c3c 584a edbd bce4 943e aff8 e1bd
00000050: 8089 5b3f f583 963f 389f fbbd 710e 0f3e
00000060: a4e8 12bf 74f7 38be 77d7 c9be 8d96 94bf
00000070: db4d a03e 1d4a b7bd 6939 893f aefc 1f3f
00000080: edf4 c0bd 7d11 023e 0db3 66be 1e90 a6be
00000090: bc10 d9bd bd0e a43f ff30 663f 7620 a43d
000000a0: faf9 033f 6c7d 913f 7088 6dbe 7c00 99be
000000b0: 9162 d53f a442 61be 04c4 a03e c910 8abc
000000c0: 686e b0bf a259 9bbe bd48 70bf 3a46 20bf
000000d0: 001a 63b6 5aed dcbd 7e14 2e3e 2779 42bf
000000e0: 5cff 99be 81fb 063d 11e7 21be 22a2 e63d
000000f0: adf4 293f 934e 303f 7056 253f 914b 9abb

gat_net.0.linear_proj.weight f4 [64, 1433]
-7.9905664e-07 -0.109461464 2.9622283e-06 -0.0002965553 -0.03716131 -3.7207842e-10 -4.877185e-07 7.046234e-07
0.00010717256 1.8482113e-13 -4.3452672e-11 -6.0642677e-05 -0.0043301145 -3.0628777e-07 -5.6725454e-05 0.00021250716
-2.3120974e-07 -1.4226168e-08 -5.531906e-07 0.45740503 -1.6542331e-28 1.6877737e-05 6.934674e-11 8.008173e-09
-3.2139326e-11 -0.0014078496 -2.7970336e-05 -2.1864798e-05 3.1382013e-09 -3.5299436e-08 -1.3977898e-06 -1.1957743e-11
-5.9393885e-13 4.808441e-11 -0.00014153217 5.2874242e-08 -8.263055e-09 -8.149513e-07 -2.4649238e-05 -6.520287e-05
4.009704e-05 -0.016863443 1.3245259e-10 -9.027844e-11 -1.2386134e-06 -7.003886e-05 -1.3885289e-11 2.6275561e-08
-0.00014241847 -2.4833873e-11 4.25552e-08 0.0048486516 3.755791e-05 6.4627975e-10 1.0301969e-08 -7.766177e-06
-7.001037e-05 -7.0978226e-06 1.0466675e-06 -7.475119e-06 -1.7089731e-15 -0.027748514 -9.1864094e-05 -3.1023166e-05
-3.1596013e-05 3.8595066e-05 -4.966549e-06 -0.0013907984 4.8540993e-10 6.975236e-09 -0.0015509502 8.851352e-09
-2.0506562e-10 1.0389371e-10 3.1071962e-10 3.1504018e-12 -0.0009725713 4.8335172e-05 -1.8650808e-05 -8.65202e-05
-2.8694515e-06 0.013529348 0.000117855816 -5.0391674e-07 -7.5984106e-05 7.512868e-05 9.479828e-05 -3.1538157e-08
-2.909232e-05 0.00016723984 -4.151803e-05 0.028360384 6.773738e-07 -0.007822256 -2.631666e-07 7.7487425e-07
0.0031336122 -7.85126e-05 0.0008163781 -0.19448045 -0.0327152 -5.519076e-11 -1.8222026e-07 -5.4099207e-08
-5.333331e-06 -3.0899145e-07 5.253288e-05 -6.296115e-10 -9.4053285e-06 3.5822534e-10 -2.0883148e-08 -7.0184393e-07
1.07326144e-07 2.6695794e-12 9.592458e-06 -4.518115e-11 -2.4469457e-10 1.0269892e-08 -0.0049332483 -2.6644693e-07
1.290275e-08 -4.2015827e-06 2.4207086e-10 -2.1339261e-07 3.988942e-09 -1.8697649e-05 1.4611994e-05 -5.8588633e-12
-6.197678e-05 5.3031446e-09 0.00119904 3.902121e-05 -0.0023060762 1.7115166e-08 -6.162271e-11 0.0069314437
-4.67899e-05 1.0187829e-08 -1.3514137e-12 1.5674922e-10 0.0001656457 2.7194678e-09 -2.9438579e-05 6.2247496e-10
4.3634034e-07 -9.6855974e-29 0.00043142503 -0.000120331315 -3.3572913e-08 -0.00017129688 6.106135e-05 -1.7212589e-06
4.8209607e-08 -1.8317442e-06 6.0092643e-05 0.000144052 2.4370735e-05 -1.2587451e-05 2.97308e-05 0.001195312
3.3404716e-11 -9.564426e-10 5.734521e-05 3.3728282e-09 1.837904e-07 -9.9640644e-08 2.5652296e-05 -1.8669338e-08
-0.0068863262 4.8191815e-09 0.00017464622 1.0181867e-11 2.6398244e-05 5.9524988e-05 3.5962927e-10 -9.3568374e-08
1.1185392e-06 1.2608855e-05 2.6158378e-10 0.00073485094 -1.829559e-12 -2.8133113e-07 -1.5122203e-07 -9.423521e-10
7.521725e-09 -7.7035925e-13 -0.00064958 0.0026552067 8.376411e-09 -1.1643612e-10 1.2662477e-10 -4.937689e-05
0.017136974 -3.0751787e-11 0.0003927803 0.00017610879 -2.5634532e-05 -3.2994878e-11 -8.626831e-05 7.7108285e-05
-1.2432444e-08 -2.3500979e-11 -1.3681359e-10 0.001078505 1.8715651e-10 0.0005843447 4.7466145e-08 1.5834946e-08
2.1390204e-05 -1.0849881e-09 -2.1728993e-05 0.00033391136 1.0971908e-06 -0.04390837 1.00580455e-05 -3.0251765e-12
1.1775223e-11 -7.87576e-10 -0.0047576907 3.8951023e-10 -0.0059105214 -1.4894152e-07 -1.1769637e-10 6.739006e-08
0.00023977994 2.92945e-05 -0.008914856 4.009029e-08 -3.2010143e-05 -5.623633e-09 -7.1386195e-05 2.0239082e-07
8.976811e-06 -6.252022e-07 -4.9134596e-05 -3.0458664e-06 -9.830418e-10 -6.404373e-07 -0.0014421428 3.5032425e-11
5.2071926e-05 1.7500073e-11 1.6320679e-09 -6.463247e-07 2.7463634e-06 1.0484176e-10 -8.851654e-12 -1.2537105e-06
1.2197296e-10 7.548809e-05 -0.07016793 -7.044265e-07 -2.3417918e-08 3.2191176e-05 3.4401516e-08 3.1204282e-11
00000000: c17e 56b5 552d e0bd b2ca 4636 fb7a 9bb9
00000010: 7536 18bd 628d ccaf c3eb 02b5 5a25 3d35
00000020: d4c1 e038 1017 502a 5c1b 3fae 945a 7eb8
00000030: a2e3 8dbb df6f a4b4 7eec 6db8 75d4 5e39
00000040: 7342 78b4 5967 74b2 f87e 14b5 fe30 ea3e
00000050: efb2 5191 aa94 8d37 be7e 982e 5194 0932
00000060: aa59 0dae 9887 b8ba d7a1 eab7 4c6a b7b7
00000070: d2a7 5731 249c 17b3 b19b bbb5 e35c 52ad
00000080: ce2d 27ab 3c7a 532e 4168 14b9 d817 6333
00000090: 4df5 0db2 07c3 5ab5 d6c5 ceb7 86bd 88b8
000000a0: de2d 2838 3425 8abc 17a2 112f 3e86 c6ae
000000b0: 6f3e a6b5 d4e1 92b8 c845 74ad 92b4 e132
000000c0: 2b56 15b9 e970 daad f0c5 3633 70e1 9e3b
000000d0: 8087 1d38 e5a5 3130 8afc 3032 7a4b 02b7
000000e0: 88d2 92b8 d529 eeb6 397b 8c35 c9d2 fab6
000000f0: fb49 f6a6 da50 e3bc 29a7 c0b8 df1e 02b8
00000100: f685 04b8 23e1 2138 55a6 a6b6 734b b6ba
00000110: b06d 0530 d3aa ef31 4149 cbba a810 1832
00000120: d778 61af f676 e42e e6d1 aa2f 98b0 5d2c
00000130: 28f4 7eba 7fbb 4a38 4e74 9cb7 2e72 b5b8
00000140: cd90 40b6 33aa 5d3c 5c29 f738 e544 07b5
00000150: a859 9fb8 678e 9d38 70ce c638 9274 07b3
00000160: 480b f4b7 1a5d 2f39 a523 2eb8 0954 e83c
00000170: c6d4 3535 eb28 00bc 5849 8db4 f400 5035
00000180: 4a5d 4d3b 22a7 a4b8 3502 563a e225 47be
00000190: 6000 06bd 46bb 72ae 53a8 43b4 b55a 68b3
000001a0: f7f4 b2b6 76e3 a5b4 c056 5c38 f810 2db0
000001b0: 94cb 1db7 bcef c42f 8762 b3b2 5966 3cb5
000001c0: 2c7b e633 deda 3b2c 4bef 2037 74b5 46ae
000001d0: b385 86af 766f 3032 16a7 a1bb 300c 8fb4
000001e0: e5aa 5d32 52fb 8cb6 7214 852f ea20 65b4
000001f0: 1b0f 8931 e5d8 9cb7 0926 7537 f323 ceac
00000200: 88f9 81b8 f436 b631 1b29 9d3a b5aa 2338
00000210: 8a21 17bb a604 9332 8082 87ae 2a21 e33b
00000220: 4640 44b8 8c06 2f32 cf31 beab fc58 2c2f
00000230: 2eb1 2d39 62e1 3a31 def2 f6b7 c81a 2b30
00000240: 2942 ea34 1f8f f590 e330 e239 625a fcb8
00000250: cf31 10b3 289e 33b9 100e 8038 0106 e7b5
00000260: 060f 4f33 40da f5b5 fc0b 7c38 aa0c 1739
00000270: c16f cc37 b12e 53b7 6866 f937 04ac 9c3a
00000280: 5eea 122e d573 83b0 f385 7038 6cc7 6731
00000290: ec57 4534 06fa d5b3 e32f d737 4f5e a0b2
000002a0: b1a6 e1bb f895 a531 3d21 3739 0d1f 332d
000002b0: cc71 dd37 78aa 7938 52b5 c52f c2ef c8b3
000002c0: b720 9635 9f8a 5337 a5ce 8f2f 03a3 403a
000002d0: 68be 00ac db09 97b4 985f 22b4 1184 81b0
000002e0: e538 0132 3cd6 58ab 9348 2aba fa02 2e3b
000002f0: d8e7 0f32 db05 00af b439 0b2f 081a 4fb8
00000300: d762 8c3c 6f3f 07ae 14ee cd39 d8a9 3839
00000310: bd09 d7b7 ee1c 11ae f2ea b4b8 32b5 a138
00000320: 7896 55b2 80b7 cead 9a6d 16af 9f5c 8d3a
00000330: e0c7 4d2f b62e 193a 94dd 4b33 6a05 8832
00000340: 1d6f b337 a01e 95b0 a846 b6b7 d310 af39
00000350: 3043 9335 43d9 33bd fabe 2837 bce0 54ac
00000360: e426 4f2d bc7c 58b0 67e6 9bbb b122 d62f
00000370: 0cad c1bb bcec 1fb4 9568 01af 14b8 9033
00000380: 706d 7b39 76bd f537 9e0f 12bc bd2f 2c33
00000390: a142 06b8 003a c1b1 2cb5 95b8 c450 5934
000003a0: 1c9b 1637 91d3 27b5 df15 4eb8 9667 4cb6
000003b0: b51b 87b0 84ea 2bb5 4806 bdba 0113 1a2e
000003c0: ce67 5a38 a9ee 992d 494f e030 187f 2db5
000003d0: 2a4e 3836 aa8c e62e 4eb8 1bad 2a45 a8b5
000003e0: 561c 062f 5c4f 9e38 34b4 8fbd d217 3db5
000003f0: 8c28 c9b2 0305 0738 dec0 1333 e63c 092e

gat_net.1.scoring_fn_target f4 [1, 1, 7]
0.16836742 -0.017959958 -0.5467174 3.304911 -0.2201518 -0.008256174 2.7537854
00000000: 8268 2c3e c320 93bc acf5 0bbf a983 5340
00000010: 796f 61be e744 07bc 053e 3040

gat_net.1.scoring_fn_source f4 [1, 1, 7]
-0.23014857 0.06598518 0.48103014 1.1811765 -0.5051812 -0.49372616 1.450863
00000000: 11ac 6bbe 3d23 873d 9549 f63e cb30 973f
00000010: 8e53 01bf adc9 fcbe e1b5 b93f

gat_net.1.bias f4 [7]
0.0035487679 0.0033411146 0.0038040136 0.0042981454 0.0037558002 0.004527134 0.0068355817
00000000: 7292 683b 9af6 5a3b c24c 793b 75d7 8c3b
00000010: df23 763b 5a58 943b 04fd df3b

gat_net.1.linear_proj.weight f4 [7, 64]
0.028925447 -0.24966125 -0.12890129 0.18233117 0.01697924 0.085554525 0.17216551 -0.25554404
0.37777424 -0.11671864 0.0715331 0.1946315 -0.19702038 0.027409256 0.2624929 -0.24097379
0.16547106 -0.015272015 0.13577805 -0.18922442 -0.45668724 -0.037538115 -0.21753287 -0.06053247
0.06476995 0.29727963 -0.2581494 0.045422863 -0.1105924 -0.103480674 0.14295481 0.15976746
-0.09789549 0.0656645 -0.049579117 -0.23314562 0.07215087 -0.035983346 -0.040166136 -0.10034704
-0.017511494 -0.35670733 -0.102195494 -0.25607648 -0.20773827 -0.006814464 -0.345639 0.0033630119
0.29699448 0.001664986 -0.03352395 0.15847984 -0.30489096 -0.12911761 -0.0013225122 0.029895473
0.09464084 -0.01354119 0.09608341 -0.00423708 0.052381277 0.24021082 0.11671282 -0.15290467
-0.2069165 -0.0070829415 -0.05058483 -0.10920495 0.0073796213 -0.5608251 -0.06261599 0.22033058
-0.17502598 -0.2453414 0.14791751 -0.10280899 -0.037876755 -0.33354118 -0.2169042 -0.12386674
0.024237169 0.117849454 -0.22908552 -0.56750643 -0.25765255 0.2975834 0.055307474 0.100279704
-0.031177547 -0.48411873 0.01931009 0.10906173 -0.53051364 -0.29800174 -0.038833823 0.48186404
-0.13012867 -0.38868025 -0.25593174 -0.28798172 -0.05709771 0.16657034 0.213578 0.37121964
0.09343536 0.30327734 -0.18739344 -0.2162721 0.23271398 -0.009779179 -0.15152326 0.1847472
-0.3838066 0.08312202 -0.027394598 -0.32032377 0.04366492 -0.3309974 0.053808387 -0.17421192
-0.23791294 -0.23411117 0.057603437 0.28809547 0.07245743 0.36063913 0.17601381 0.1889646
0.15592468 0.2197373 0.2039538 -0.22309567 -0.3604626 0.34009385 0.19721617 -0.28608072
0.048752397 -0.061291326 -0.6541815 0.3360895 -0.15532692 0.8338911 0.010997321 0.12584156
-0.4499669 0.20957485 -0.1405686 0.0043350714 -0.08790178 0.13703206 0.5133927 0.22378354
0.06967208 0.12643322 0.04848742 0.29389685 0.20784195 0.31373942 0.66126937 -0.4676378
0.056731522 0.19972062 -0.28083748 -0.08166396 -0.2543847 0.05495287 -0.3764261 0.11557224
0.078511424 -0.32434908 -0.48263583 -0.059901293 -0.6488551 0.0013689634 0.8117766 0.57339144
0.26943132 0.035210144 0.029284216 0.06814989 -0.120641105 0.22246626 0.022461137 -0.02715798
0.37898096 0.023719981 -0.38760373 -0.17724513 -0.12346778 -0.32716182 0.23429886 -0.045301843
0.828947 -0.5074894 -0.25181338 -0.04210357 -1.1658442 0.70471835 -0.09786036 2.3074996
-0.16171329 -0.7244064 1.8497058 0.68151736 -0.4508652 0.88925254 1.7060982 -0.5450021
0.061160803 0.54244876 -0.54032487 0.44404978 -0.72461337 1.103275 0.4063105 -0.12330836
0.08351676 0.115191415 0.012925601 -1.4994726 -0.688413 -0.15994215 1.2227386 -0.8825167
0.10997226 -0.5284505 0.5714167 0.3869622 0.40051076 1.4062378 -1.2171286 0.18192078
-0.522179 -1.6671752 0.027877374 1.1626413 1.6860476 0.11306918 -0.97064126 0.22073263
-1.7415445 -0.8628822 -1.3205956 -0.1091008 0.30128145 0.060626294 0.3635398 0.9163372
0.37677777 -0.014330733 0.53952116 0.4340246 -0.45785826 -0.6549389 -1.2686379 0.09573991
00000000: 0ff5 ec3c 33a7 7fbe b3fe 03be 06b5 3a3e
00000010: 0c18 8b3c 3637 af3d 284c 303e abd6 82be
00000020: a06b c13e 2f0a efbd f27f 923d 7b4d 473e
00000030: b6bf 49be 6089 e03c 7865 863e d5c1 76be
00000040: 3f71 293e 7937 7abc 6709 0b3e 0cc4 41be
00000050: e9d2 e9be 91c1 19bd f0c0 5ebe e5f0 77bd
00000060: 1ca6 843d 0935 983e 282c 84be 530d 3a3d
00000070: 457e e2bd aded d3bd bf62 123e 159a 233e
00000080: 6e7d c8bd 1c7b 863d 7913 4bbd babd 6ebe
00000090: d6c3 933d 4663 13bd 3f85 24bd c082 cdbd
000000a0: 4474 8fbc 58a2 b6be df4b d1bd 751c 83be
000000b0: 57b9 54be de4b dfbb 98f7 b0be fa65 5c3b
000000c0: a90f 983e a93b da3a 6950 09bd 8a48 223e
000000d0: ab1a 9cbe 6837 04be 2558 adba 5ae7 f43c
000000e0: 0fd3 c13d dedb 5dbc 61c7 c43d 34d7 8abb
000000f0: c08d 563d d3f9 753e 2207 ef3d 0b93 1cbe
00000100: ebe1 53be 0518 e8bb 0a32 4fbd d8a6 dfbd
00000110: c0d0 f13b 3c92 0fbf d03c 80bd 579e 613e
00000120: 033a 33be c73a 7bbe b077 173e 858d d2bd
00000130: a824 1bbd e9c5 aabe 221c 5ebe d8ad fdbd
00000140: 078d c63c 0e5b f13d 6595 6abe 1a48 11bf
00000150: 09eb 83be da5c 983e 178a 623d 725f cd3d
00000160: 0e68 ffbc 69de f7be 3230 9e3c c25b df3d
00000170: becf 07bf af93 98be 3710 1fbd e2b6 f63e
00000180: 7340 05be 1901 c7be 7c09 83be 5772 93be
00000190: 4adf 69bd 6a91 2a3e 31b4 5a3e 8010 be3e
000001a0: 0a5b bf3d 2b47 9b3e 11e4 3fbe 6f76 5dbe
000001b0: 934c 6e3e d938 20bc ea28 1bbe 5f2e 3d3e
000001c0: 4c82 c4be e13b aa3d a36a e0bc 7a01 a4be
000001d0: fdd9 323d 7e78 a9be 2f66 5c3d 9c64 32be
000001e0: 739f 73be d7ba 6fbe 95f1 6b3d 4081 933e
000001f0: 9064 943d b1a5 b83e f73c 343e f07f 413e
00000200: b8aa 1f3e d102 613e 44d9 503e 3173 64be
00000210: 8e8e b8be c820 ae3e 09f3 493e 2c79 92be
00000220: 98b0 473d 9d0c 7bbd 7078 27bf ec13 ac3e
00000230: 050e 1fbe e379 553f 1c2e 343c 9cdc 003e
00000240: 1062 e6be ca9a 563e 37f1 0fbe 370d 8e3b
00000250: d905 b4bd 2252 0c3e b46d 033f 8327 653e
00000260: 3cb0 8e3d b677 013e bf9a 463d a679 963e
00000270: 85d4 543e 74a2 a03e f348 293f 396e efbe
00000280: 505f 683d 9083 4c3e eec9 8fbe 6f3f a7bd
00000290: b63e 82be 4316 613d ecba c0be 23b1 ec3d
000002a0: 99ca a03d 1511 a6be 0b1c f7be 0f5b 75bd
000002b0: 5e1b 26bf ca6e b33a 97d0 4f3f c8c9 123f
000002c0: e7f2 893e 8338 103d 74e5 ef3c 2b92 8b3d
000002d0: af12 f7bd 32ce 633e 6b00 b83c 697a debc
000002e0: cb09 c23e 6850 c23c ff73 c6be bf7f 35be
000002f0: addc fcbd c181 a7be 0aec 6f3e 6d8e 39bd
00000300: df35 543f d3ea 01bf afed 80be cb74 2cbd
00000310: 623a 95bf 6c68 343f 036b c8bd 13ae 1340
00000320: 2b98 25be b372 39bf 29c3 ec3f ec77 2e3f
00000330: ced7 e6be 0ea6 633f 6d61 da3f 4285 0bbf
00000340: c083 7a3d ecdd 0a3f bb52 0abf 7e5a e33e
00000350: 4380 39bf 1d38 8d3f ee07 d03e 1889 fcbd
00000360: d60a ab3d 7ae9 eb3d e6c5 533c b8ee bfbf
00000370: d63b 30bf e0c7 23be b382 9c3f 9dec 61bf
00000380: 2339 e13d 8848 07bf 5d48 123f e91f c63e
00000390: bf0f cd3e 9aff b33f dfca 9bbf 7149 3a3e
000003a0: 86ad 05bf ff65 d5bf 175f e43c 6ed1 943f
000003b0: 68d0 d73f d090 e73d f27b 78bf bc07 623e
000003c0: eeea debf d9e5 5cbf 4709 a9bf 3d70 dfbd
000003d0: 9041 9a3e 4753 783d e321 ba3e 1395 6a3f
000003e0: 04e9 c03e 73cb 6abc 0f1e 0a3f 7938 de3e
000003f0: 666c eabe 13aa 27bf ba62 a2bf 4913 c43d
