python/binarypath/binaries/gat_000038.pth (torch, 372431 bytes, 8 tensors)

gat_net.0.scoring_fn_target f4 [1, 8, 8]
00000000: a94c ecbc 13f7 ab3c 3b3d 63bb 86b5 e1ba
00000010: b98c 3cbd eb98 b9bb 6fcb 19bc 59cd 8c3d
00000020: 42eb 12be 68d9 c83c 190a 723d 4397 f8bd
00000030: e383 af3d 6644 11bd b956 b53d 9149 09bd
00000040: bd6e d5bb 6e7c 5d3c 4945 bcbd 843f 7ebb
00000050: 521a 9ebd 8b10 07bd eeb1 eebd 1ebc f63d
00000060: e109 0f3e dada 86bc b5e9 8a3d 039e 83bd
00000070: 73dd 4f3d fa2e 96bc 1e62 febd aa9f 11be
00000080: 72b7 c2ba ec3e 2bbb ddef 3a3d 7b8a cabc
00000090: 991e 18be cea5 8c39 7273 a43a 5837 193c
000000a0: 6535 5a3b 7073 adbc dab0 1c3e 92bc a3bc
000000b0: 28e4 0bbe 40b1 ab3d 034b 973d 8772 a43d
000000c0: 831e e8ba 820b 70bc 2d91 b53d 41ea 11bc
000000d0: ba49 81bd 52a5 0a3e 3a5f 89bc b251 3a3c
000000e0: 9acb a13c 917f 02be c119 f8bd 8de3 a0bb
000000f0: dd79 173e 1d38 e03b 7ae4 003b 19af 183e
-0.028845148 0.020991838 -0.0034673947 -0.0017220236 -0.04603264 -0.005663981 -0.009386881 0.068751045
-0.14347556 0.02451773 0.05909166 -0.12138226 0.08570077 -0.03546562 0.08854432 -0.033517424
-0.006513445 0.013518436 -0.091929026 -0.0038795182 -0.07719864 -0.03297476 -0.11655031 0.12047599
0.13968612 -0.016461778 0.06782857 -0.06426623 0.0507483 -0.018332947 -0.12421058 -0.14221063
-0.0014855696 -0.0026130034 0.045638908 -0.024724236 -0.14855422 0.00026826415 0.0012546612 0.009351574
0.0033295986 -0.021173209 0.15301839 -0.019987378 -0.13661253 0.08383417 0.07387354 0.08029657
-0.0017709289 -0.014651181 0.08865581 -0.008905948 -0.0631289 0.13539627 -0.01676904 0.011372017
0.019750405 -0.12743975 -0.12114287 -0.0049099387 0.14792581 0.0068426267 0.0019667433 0.14910544

gat_net.0.scoring_fn_source f4 [1, 8, 8]
00000000: 0720 0b3e 7cdd c43d e06d e8bd c355 e53b
00000010: 1d50 bb3d bdd2 f1bc 0762 8dbd 1ee9 803c
00000020: 2ab3 7dbc 3154 0f3d d990 4b3d 1b93 273e
00000030: ef0d 9fbd 776d 5c3d 79d0 9bbd 8c98 f2bd
00000040: faec 90bc ec2b 2ebe 3d45 34be 9279 00be
00000050: 0ded 313c a487 28bd 75e7 2d3e b0d0 e13d
00000060: f354 0dbe 997a 2bbe 0ca6 c4bd 9657 1f3e
00000070: f138 adbc 2c80 1ebd 5fd1 d8bb 4f22 eb3d
00000080: 8df3 ff3d f9ca eebc 2ba1 463d 52ef d5bd
00000090: e876 653d 4796 27be 4992 153e 2205 2e3e
000000a0: 5a4d 813d 8bfc bc3d 9463 8f3c b8d4 0b3c
000000b0: 8599 2abe 6133 0e3e 0c63 e0bd 2b9e ebbd
000000c0: 9304 293d 3a7e f9bd 8baf 003e b69c 49bc
000000d0: 0827 32be 34f2 13be b2a9 2ebc 30ea 0d3e
000000e0: ad74 e5bd 58a6 afbc 8d23 793d df74 b3bd
000000f0: 7f5b 9e3d e4a8 4f3b 2c56 f73d 7488 013c
0.13586436 0.09612557 -0.11349082 0.006998749 0.0914614 -0.029519433 -0.06903463 0.015736159
-0.015484611 0.0349924 0.049698684 0.1636471 -0.077663295 0.05381533 -0.076081224 -0.11845502
-0.017691124 -0.17008942 -0.17604537 -0.12546375 0.01085974 -0.041144982 0.16982825 0.11026132
-0.13801937 -0.16745986 -0.096019834 0.15560755 -0.021145316 -0.038696453 -0.006616756 0.11481153
0.124976255 -0.02914952 0.048493546 -0.10446037 0.0560216 -0.1636592 0.14606585 0.16994146
0.06313582 0.09227856 0.017503537 0.008534603 -0.16660126 0.13886787 -0.10956392 -0.115047775
0.041264128 -0.12182279 0.12566964 -0.012305429 -0.17397702 -0.14447862 -0.010660576 0.13858867
-0.11203895 -0.021441624 0.06082492 -0.08762526 0.07732295 0.003168636 0.12076983 0.007906068

gat_net.0.bias f4 [64]
00000000: a661 d23b 5b9e 65bb 9528 d8bb 63d9 b73a
00000010: d31c 27bc d17b 1fbb 9d35 06bc e27d 243b
00000020: 8627 c33b 1404 3bbb af64 80bb 0a51 45bb
00000030: 4e23 36bc a437 79bb 624b d7b9 5907 b6ba
00000040: bdc2 1e3c 525b 213b de8d e5bb 2c2f 523c
00000050: 8d3b 18bc 464a 20ba 3897 e43a 660a 1abb
00000060: 4ca8 cb3b a31f 3abc af2d e23b d743 553a
00000070: 6eb3 333a 3024 babb 2cf9 2c3c a3ca 4f3b
00000080: 2f05 cf3b 69ce 973a 3718 473b 65c5 daba
00000090: a530 45bb 1c83 6c3c 451f 083c 471e 3aba
000000a0: ea2a d3bb 3864 23bc fa9b 2cb9 5c81 dfb9
000000b0: 26c8 133c d872 203c 5ef8 b9bb 1992 8fbb
000000c0: fd3f 373c 36ca bf3b 75f2 1c3c ce12 dfbb
000000d0: 3d80 853b 8745 6f3b 2f83 693b 8b6d af3b
000000e0: a063 593c b91f 083c 99c2 3bbc 7498 4a3b
000000f0: 6317 a6ba 2a1f e9b9 ea81 113c 16de c1ba
0.006420332 -0.0035037014 -0.0065966346 0.0014026578 -0.010199743 -0.0024335275 -0.008191493 0.0025099446
0.0059556393 -0.0028536366 -0.0039182524 -0.0030108117 -0.011116816 -0.003802755 -0.0004106416 -0.0013887688
0.009689984 0.0024621082 -0.0070054373 0.012828629 -0.009291542 -0.0006114583 0.0017440086 -0.0023504733
0.006215131 -0.011360082 0.0069024186 0.0008135414 0.0006855045 -0.0056805834 0.010557454 0.0031706474
0.0063177566 0.0011581901 0.0030379423 -0.0016690908 -0.003008881 0.014435556 0.0083082365 -0.00070998486
-0.0064443247 -0.0099726245 -0.00016461304 -0.00042630255 0.009019887 0.009793006 -0.0056753596 -0.00438143
0.01118469 0.005852963 0.009579291 -0.0068076616 0.004074125 0.0036509947 0.003563117 0.0053536347
0.013268381 0.0083083445 -0.01145997 0.0030913623 -0.0012671765 -0.00044464442 0.008881072 -0.0014790918

gat_net.0.linear_proj.weight f4 [64, 1433]
00000000: 6632 be3a 9c69 fa3b 3e00 e0bc d656 54bd
00000010: 8461 05bc 0d08 143d bb09 96bc 3b9d dbbc
00000020: f185 343a 979e 29bc c3f9 983a 6e1f e8bb
00000030: 333b c8bc 708c c8bc 263e 453c e5c5 43bd
00000040: f602 acbc 15a4 f0bb c8f0 b63b f64a 513c
00000050: 3702 d980 19e6 14bd 0b1b 473c 692b 90bb
00000060: 5351 173c 9998 5fbb b017 b63c 9d78 8a3b
00000070: bc67 19bd b0fa 8f3a 5165 223d bf43 e03b
00000080: 6a8a 0f3d cb93 9bbb e44f 27ba c704 2f3b
00000090: c07b 9dbc 6319 7b3c eeaf a9bc cd88 813c
000000a0: 0cba 893d f84d 3f3b 5916 f93c 44c3 25ba
000000b0: 0547 d5bc a6bb 1f3d 911a f5b9 1951 32bd
000000c0: 2970 643d 12bf 16bb b888 1b3b 0db6 c6bd
000000d0: 80ad 963c 87e2 823a eb82 303d 6fe3 59bb
000000e0: c159 be3c 10a1 44bd 6963 ec3c bcb3 4c3d
000000f0: df25 8425 bfc1 a2bb 44cc 6abc aeab e9bc
00000100: 08f9 c4bc 4cc4 2c3c a6c6 793c 7475 37ba
00000110: 484d a53c 1b55 89bc 85cc 843c ab17 70bc
00000120: a325 293b a177 ccbc 621b 3b3c 517e f33c
00000130: 304e a83c e32b a5bd c6c6 223d e960 01bc
00000140: 67c8 51bc e61b 53bd f186 1e3d 82f6 0d3d
00000150: 8ff7 6dbc bd75 3c3d 190f afbc b8ba 8cb9
00000160: 6b00 1bbd 4356 69bb f2b5 123c 2fe8 3b3d
00000170: 7b2b 663c c876 04bd 9256 f9bc 72fc 8d39
00000180: ce04 c43c d63f 2b3d bf99 06bc 04ec 433d
00000190: 3f8a 13bc 4c8d 9e3b 050c 16bd ddf2 a43c
000001a0: 1b34 863c 661c 213c 0aaf 67bb 0209 c83c
000001b0: 4b7b 14bd 448d 013d 1eb4 853c 52a8 23bc
000001c0: 13e5 a23a c333 923a c507 9dbb dc84 d6bc
000001d0: 2189 93bc 848c 15bc b836 173d 1e73 083c
000001e0: 0eb5 f03c be35 6d3d 6b84 e93a d6be c1bc
000001f0: 668b a4bc 537f 363d af4a 523c 562e 00bc
00000200: 1dd3 3bbd 8f2e 50bd 7fa9 033d 4bb4 6abd
00000210: 891d 8c3b 53a8 8ebd 9606 bc3c ba43 21bd
00000220: 3e18 81bb dc20 9aba b29d 54bb f6ec 263c
00000230: 228e 6f3d 29a8 553c 4106 ca3c 71b7 2e3b
00000240: 9ce4 97bb 70bc 8a2a 007d 353d b5e9 163d
00000250: d0bf 06bb 3bcf 2abd 717f 2c3d 2bcc 31bd
00000260: 3b8a 703a 46b9 413c 45d0 e8bc e0a4 c03c
00000270: 5246 c83c b071 ec3b e87c 68bc ac18 493c
00000280: 0ca8 a93c 1b98 9cbb b816 85bc 4556 243d
00000290: c685 1a3d 072a 85bc a37b a93c 4855 1d3d
000002a0: 3984 57bc 3e5e 1cbc ec89 ae3c 078d f6ba
000002b0: d92d 1abd d229 8cbb 4bdc 01bd 7332 d9bc
000002c0: 64a8 4a3d d5f1 dfbc d86a dfbc d8c1 4dbd
000002d0: a3d1 ab3a f2e9 89bb c253 8f3c a2db bc3c
000002e0: e456 a839 5b43 683a fc32 8bbb 75f4 513d
000002f0: 2319 ec3c 5595 c53c b2a8 28bc 0676 933c
00000300: e0a2 403d c584 07bc 47cf c5bc f673 d7bc
00000310: 7ac5 0dbc 0d76 71bb 3eb8 62bc b091 61bb
00000320: 2606 a63a 60ad b13c 39cc 863b 4d8b 39bd
00000330: 5d07 87bb 082d 53bd 8ce1 db3c 871c cf3b
00000340: 45a7 07bd 9e41 24bc dae5 b7b9 9350 bcbc
00000350: ee64 1dbd ba37 073d e9c9 4bbc c07b b83a
00000360: 3577 69bb c65a d2bc a95b 56bc b5c6 e7ba
00000370: 6009 983b f47a b53b dfa2 903c d891 2d3b
00000380: 961d 39bb 7fc6 21bd 5a26 bbbc baa9 8ebb
00000390: 4266 273d 95d2 e1bc 5e3d 813a 6705 d33c
000003a0: 36b0 eeba c717 48bd e466 2d3d 0a1b 823c
000003b0: 9e36 9f3c 5158 f7bc d52c 03bc 29f6 c73c
000003c0: 1914 2abc a7d4 9cbb c942 6cbc 4ba5 5fbb
000003d0: a11e 1abd 70fe a5bb 115f 2fbb 43c3 05bd
000003e0: 5014 c6bc 617e 19bd bb68 5dbd 59d2 99bb
000003f0: b9c5 ea3c 7c34 f2bc bc68 06bd 5dd8 ef3c
0.001451087 0.007641984 -0.027343865 -0.051840626 -0.008140925 0.03614049 -0.018315187 -0.026808372
0.0006886414 -0.010352752 0.0011671114 -0.007083825 -0.02444229 -0.024481028 0.012038743 -0.04779615
-0.020997506 -0.007343779 0.0055829026 0.01277422 -1.9929097e-38 -0.03635225 0.012152444 -0.004399706
0.009235698 -0.0034118055 0.022228092 0.004225804 -0.037452444 0.0010984745 0.039647404 0.0068440135
0.03504411 -0.004747843 -0.0006382449 0.0026705728 -0.019224048 0.015325877 -0.020713773 0.015812302
0.06724939 0.002919076 0.030406164 -0.00063233473 -0.026034841 0.038997315 -0.00046749835 -0.043534372
0.055771027 -0.002300207 0.0023732614 -0.09702692 0.018393278 0.0009985723 0.043093603 -0.0033247133
0.023236157 -0.048005164 0.028855996 0.049976096 2.2924012e-16 -0.004966944 -0.014330927 -0.028524246
-0.024044529 0.010544848 0.015245115 -0.0006998398 0.020178452 -0.016764214 0.016210804 -0.01465408
0.0025809787 -0.024959387 0.011420103 0.029723318 0.020545095 -0.08065011 0.039740346 -0.00789664
-0.012804127 -0.051540278 0.03870291 0.034658916 -0.014524355 0.04601072 -0.021369504 -0.00026841997
-0.037842195 -0.0035604395 0.008954512 0.045875724 0.0140484525 -0.03233984 -0.030436788 0.00027081702
0.023928072 0.041808926 -0.008215367 0.047832504 -0.009005128 0.0048386212 -0.036632556 0.020135337
0.016382268 0.009833431 -0.0035352134 0.024418358 -0.036250394 0.031628862 0.016321238 -0.009988861
0.0012427889 0.0011154342 -0.004792186 -0.0261864 -0.018009724 -0.00912774 0.03691742 0.008328227
0.029383209 0.05791258 0.0017815953 -0.023650568 -0.020086002 0.04455502 0.012835189 -0.007823547
-0.04585563 -0.05082565 0.032144066 -0.057300847 0.004275982 -0.06965699 0.02295236 -0.03937123
-0.0039396575 -0.001175906 -0.0032442627 0.010188332 0.058485158 0.013040581 0.024661185 0.0026659633
-0.0046354067 2.464448e-13 0.044308662 0.036843974 -0.0020561107 -0.041701537 0.042113725 -0.0434076
0.00091758714 0.011823958 -0.028419623 0.023516119 0.024447594 0.007215701 -0.014189936 0.012273949
0.020710014 -0.0047788746 -0.016246185 0.040121336 0.037725233 -0.016255392 0.020688837 0.03841141
-0.013154083 -0.009543953 0.021306 -0.001881034 -0.03764138 -0.0042774463 -0.03170423 -0.026513314
0.049476996 -0.027336994 -0.027272627 -0.050233692 0.0013108741 -0.0042087967 0.017495994 0.023053948
0.00032108196 0.00088601344 -0.004248021 0.051258523 0.02882058 0.024119059 -0.010294126 0.018000614
0.04703033 -0.008271401 -0.02414669 -0.026300412 -0.008653039 -0.0036844045 -0.013837872 -0.0034419112
0.0012666627 0.021689117 0.0041137007 -0.045298863 -0.004120751 -0.051556617 0.026840948 0.0063205394
-0.033118505 -0.01002541 -0.00035075733 -0.02298764 -0.038426332 0.03301213 -0.012438276 0.0014074966
-0.0035624031 -0.02567805 -0.013083377 -0.0017683121 0.0046397895 0.005538339 0.017655788 0.0026484635
-0.0028246394 -0.03949594 -0.022845436 -0.004353729 0.040869005 -0.027566234 0.0009860208 0.025759412
-0.0018210474 -0.0488508 0.042334452 0.015882034 0.019435223 -0.03019348 -0.008006294 0.02440937
-0.010380768 -0.0047860923 -0.01442022 -0.0034125622 -0.037626866 -0.0050657317 -0.0026759545 -0.03265692
-0.024179608 -0.03747404 -0.054054957 -0.004694265 0.028658735 -0.029566042 -0.032814726 0.029277975

gat_net.1.scoring_fn_target f4 [1, 1, 7]
00000000: fdeb b93e 7e30 013f 44a7 033f 9c32 943c
00000010: 77ed ed3e cf6b f1be 94eb 6b3e
0.36312857 0.5046462 0.514271 0.018090539 0.46470234 -0.47152564 0.23039085

gat_net.1.scoring_fn_source f4 [1, 1, 7]
00000000: 2465 06be eed2 1e3f 164b 3a3e cbe3 253f
00000010: 6c73 3ebc a44d 6cbe 97d9 e93e
-0.1312452 0.62040603 0.18192706 0.6480071 -0.011624198 -0.23076493 0.4567382

gat_net.1.bias f4 [7]
00000000: 573e e23c 96ca 4abd 012b 303b 4f75 03bd
00000010: 6a05 083d 537f 2e3d 3f38 52bc
0.027617617 -0.049509607 0.00268811 -0.032094296 0.03320829 0.042601895 -0.012830793

gat_net.1.linear_proj.weight f4 [7, 64]
00000000: 3a75 69bd f7b5 9bbe 7498 77be e5df 203e
00000010: 5254 103e cd9b 983e 8ebf 793e 027c 963e
00000020: 470e 563e d158 9bbc 9e1b 0fbe 78a7 0a3e
00000030: ca33 723e 4ad7 57be 6548 7e3e c173 e53d
00000040: 241f 7d3e cbf6 133e fec8 993e d49d e7bd
00000050: 43ad 0cbe cd22 3bbe 4f5e 9c3d f3a5 5cbd
00000060: 26e7 dfbc 0032 12be 3742 77be 4765 a63e
00000070: b43e 5cbd 5c86 153e 4917 babd 3f9b 0cbe
00000080: e695 a2bb 6ecb 343e 584f f03c d808 baba
00000090: abd9 633e e0de c03d 7c73 45be 16f8 a23e
000000a0: 2761 9ebe 5d22 013b cdaf c7bd 2b13 afbe
000000b0: 924a 81be 70b6 23be 87e5 ba3d d208 e33d
000000c0: 9048 08be 584d 603d fddd 0bbd ba0a 8d3e
000000d0: dbfd 123c df5b a3be 2e86 98be e6c7 8dbb
000000e0: 4a62 233e d2bd b63e 1cbb b8bc c24d 803d
000000f0: 76c0 7d3d f324 cfbd 07f1 55be 5f48 61be
00000100: 7d19 083c 68d4 7abe 5656 8dbe 031f 963e
00000110: 48de a7be 4a77 2abd 45ca b93d 7e0d b33d
00000120: 922f 163e 8e37 d03d 8d0d 523e d2f6 9e3d
00000130: acbb 5fbe be6c a63d 238e 36be 8eaa f5bd
00000140: 4d0f ddbd 37fd 39bd 5520 aabe 2432 793e
00000150: f3ef d03d 8b6d ff3b 90e8 a13e bf1d 98bd
00000160: c250 16be a81c b1be 5674 023e b8be 8f3e
00000170: bf31 6ebe 0cdc 67be dbdf ccbc 711b a53e
00000180: b76f 5dbe 96c1 973e 5fd8 b63e f5df a7be
00000190: b4cb e5bd 62b7 bc3d 8d47 963e 68b7 eb3d
000001a0: 5960 4ebe 2780 1dbe c7f5 97be cad4 55bd
000001b0: e644 b73e 74b3 513e f8ce a9be 5e66 b9be
000001c0: de5e 993e 7840 04be f20a 4d3e be81 9cbe
000001d0: b1ad 8bbd f8bc b6be 8dd4 103e a354 1a3e
000001e0: 3429 ae3e 835c 0a3c fc36 74bc 5e29 853e
000001f0: a698 963d d3a0 8ebc ef02 5a3e a3f1 94be
00000200: e9f6 803e bcf1 f53d df57 ce3d d1d5 803e
00000210: 9940 41bd 6606 723e 4536 a9be 0bf9 e5bc
00000220: 996d 51be 6c78 a5be cf92 143d b068 fe3d
00000230: ae30 1e3e a4ca 0bbe ce88 50be 7f24 a4be
00000240: 8706 2b3e 6451 1bbe 202a e83d 3163 52be
00000250: b664 b4be 9875 bf3e e522 90be cf20 e33d
00000260: 6bc0 c03b 64f3 ce3d 2e0c 653e 7dfa 3a3e
00000270: d791 b83e cec3 a23e 8556 353e c6d6 d43c
00000280: 984f e53d 946b 9dbe bbf6 2d3e 8c6e 5f3e
00000290: 4b11 a43e dea8 973e 3479 a03e 3f00 53be
000002a0: 01b6 993e 258d 203d 4917 95be 1397 963e
000002b0: 362f 683e 9e08 24be fc02 b5be 7aee 383e
000002c0: 6206 27be 6a73 1cbe 92a2 d3bc cba2 efbc
000002d0: ee39 48be aa62 3a3e 7a94 863d 8ca1 1739
000002e0: 898b 3f3e 655d cbbc 0fb3 953d 2e4d a5be
000002f0: 39d8 bd3d be0b 293e e7f2 1c3e 32cd 89be
00000300: cd9a 8d3e a5a7 a8be 3e7e 233e 5f36 9cbb
00000310: 9ace 88be a1a6 883d a2db 98be a4b3 62be
00000320: 75eb e03d bf84 28be baf8 44be d93a b5be
00000330: 451d 9cbe 8cf3 a2be 4505 89be c0c5 8a3e
00000340: 62b3 4c3e 93d5 a03e 72c2 093e d62e 803e
00000350: 9037 9ebe ec16 34bd 2524 4cbe c003 483e
00000360: b628 31bd f37e c0bd a801 103e 9ed5 19be
00000370: bd5a 5cbe 0c66 acbe b128 b03e 4082 54be
00000380: d0fa e53d 1a55 b83c afc0 233d 5810 0fbd
00000390: 2896 77be 90af 283e f376 4e3e b815 21be
000003a0: a7c3 b7bd d8d7 96be 97de 933e d73a c7bd
000003b0: 5a92 613d 5953 10be 47a6 973d 2373 2ebe
000003c0: d22c 75bd 453c a0ba 6cc8 dbbd b298 a5be
000003d0: 02df 51be 28d2 ca3d 184d 953e 68ac 563e
000003e0: a28f 983d 655a 683e 22f9 9abe 83bf 03bd
000003f0: 334e a4be 5964 793e f982 8c3e 0faf 713d
-0.05699656 -0.30412266 -0.2417925 0.15710409 0.14094666 0.29806367 0.24389479 0.29391485
0.20903884 -0.01896325 -0.13975379 0.13540447 0.23652568 -0.2107822 0.24832304 0.11203719
0.2471891 0.14449613 0.30036157 -0.113094 -0.13737969 -0.18274994 0.076351754 -0.0538692
-0.0273319 -0.14276886 -0.24146353 0.32499143 -0.053770736 0.14602035 -0.090864725 -0.13731097
-0.004961717 0.17655727 0.029334709 -0.001419331 0.22251002 0.0941751 -0.19282335 0.318299
-0.30933496 0.001970432 -0.09750328 -0.34194311 -0.25252205 -0.15987563 0.0912581 0.11085667
-0.1330893 0.05476126 -0.03414725 0.27547246 0.008971657 -0.3190603 -0.2978987 -0.0043268083
0.15955463 0.35691696 -0.022550158 0.06264831 0.061951123 -0.101144694 -0.20892726 -0.22000264
0.008306858 -0.24495089 -0.27604932 0.29320535 -0.32786775 -0.04161767 0.09071783 0.08742808
0.14666584 0.10166846 0.20512982 0.07761921 -0.21848935 0.0812621 -0.17827658 -0.11995421
-0.10793934 -0.0454075 -0.33227792 0.24335533 0.10202017 0.007795041 0.31622744 -0.074275486
-0.14679244 -0.34592175 0.12739691 0.28075194 -0.23261164 -0.22642535 -0.025009086 0.322475
-0.21624647 0.29639882 0.35711953 -0.32788053 -0.11220494 0.09214665 0.29351464 0.11509591
-0.20153941 -0.15380917 -0.296797 -0.052204885 0.35794753 0.20478612 -0.33165717 -0.36210912
0.2995519 -0.12915218 0.20023707 -0.30567735 -0.068202384 -0.35691047 0.14143582 0.15071349
0.3401581 0.008444908 -0.014905687 0.26008123 0.07353334 -0.017410671 0.21290182 -0.29090604
0.25188377 0.12008998 0.10075354 0.2516313 -0.047180746 0.23635253 -0.33049217 -0.028072855
-0.20451964 -0.32318437 0.03627282 0.12422311 0.15448257 -0.1365152 -0.20364687 -0.32059094
0.16701709 -0.15167767 0.1133616 -0.20545651 -0.35233086 0.37394404 -0.28151622 0.11090242
0.005882313 0.10105017 0.22367927 0.18259616 0.36048767 0.31790012 0.17708786 0.025981318
0.11196822 -0.30746138 0.16988651 0.21819514 0.32044443 0.29621023 0.3134247 -0.20605563
0.3002167 0.039197106 -0.29119328 0.29412135 0.2267426 -0.16018912 -0.3535384 0.18059722
-0.16311029 -0.15278402 -0.025834356 -0.02925243 -0.19553348 0.182017 0.065712884 0.00014460663
0.18705572 -0.024824807 0.07309543 -0.32285446 0.09269757 0.16508386 0.15327035 -0.26914364
0.27657166 -0.32940403 0.15966126 -0.0047672237 -0.26720124 0.06672407 -0.29855067 -0.2213884
0.1098241 -0.16456889 -0.19235507 -0.3539646 -0.3049108 -0.31826437 -0.26761833 0.27103996
0.19990304 0.31412944 0.13453081 0.25035733 -0.30901766 -0.043967173 -0.19935663 0.1953268
-0.043251716 -0.09399214 0.14063132 -0.15022895 -0.21518989 -0.33671606 0.34406045 -0.20752811
0.11229479 0.022501517 0.03997868 -0.034927696 -0.24178374 0.16473222 0.20162563 -0.15730941
-0.089728646 -0.2946155 0.2888076 -0.0972802 0.055071212 -0.14094295 0.07404762 -0.17036109
-0.059857197 -0.0012224993 -0.10731587 -0.3234306 -0.20495227 0.099033654 0.2916038 0.20964205
0.07449271 0.22690733 -0.30268198 -0.03216506 -0.3209091 0.24354686 0.27443674 0.05900484
