python/binarypath/checkpoints/gat_ckpt_epoch_1000.pth (torch, 372431 bytes, 8 tensors)

gat_net.0.scoring_fn_target f4 [1, 8, 8]
00000000: ef19 c5bd 381f da3c e7c0 5bba afbb ec3c
00000010: 070e f8bd fe7e b3bc 882e 94bc b3f6 143e
00000020: 48df 66be e90b a63d 4d26 043e be33 52be
00000030: 850d 283e 03b4 dabd 0398 2c3e a1e5 bebd
00000040: bbdc 013d 0aa2 8e3d aea2 28be 912a 03bd
00000050: 3190 21be 67b2 c0bd f930 4dbe acd0 4e3e
00000060: bae5 673e 5664 ae3c 2321 113e 551f 15be
00000070: def2 fb3d f03c 52ba e629 52be 2759 6abe
00000080: 3ae6 d53c a3e9 a7bc df41 e43d f47a b1bd
00000090: 3a0c 6fbe 31bc 27bc 4980 1bbd 7b90 46ba
000000a0: e70f 7e3b fedb a7bd 332f 733e e828 adbd
000000b0: ef48 60be 9d89 223e 1c7f 1c3e 36ef 213e
000000c0: 006a 06bd 9eb6 f9ba d62f 283e 8dc9 fbbc
000000d0: 8ea8 03be 577c 653e f09e 9bbd a0d3 c9bc
000000e0: 58af 883d 65bd 54be 98b0 50be 646e 9cba
000000f0: b8a0 6b3e 7bf7 293d a8b6 d6bb 0f18 6e3e
-0.09624087 0.026626214 -0.00083829317 0.028898088 -0.121120505 -0.02191114 -0.018088594 0.14547233
-0.22546113 0.081077404 0.12905236 -0.2052755 0.16411407 -0.10678866 0.16854863 -0.09321142
0.031704646 0.069645 -0.16468307 -0.032023016 -0.15777661 -0.094090275 -0.20038213 0.2019679
0.22646227 0.021288078 0.14172797 -0.14562733 0.123021826 -0.00080199447 -0.20523795 -0.22885571
0.026110757 -0.020497149 0.111453764 -0.086660296 -0.23344508 -0.010237739 -0.03796414 -0.000757463
0.0038766803 -0.08196257 0.23748474 -0.08455068 -0.21902822 0.15872808 0.15282863 0.15813908
-0.032815933 -0.0019051617 0.16424498 -0.030735755 -0.12857267 0.22410713 -0.07598674 -0.024637043
0.06674069 -0.20775373 -0.20379865 -0.0011934754 0.23010528 0.04149578 -0.006552536 0.23251365

gat_net.0.scoring_fn_source f4 [1, 8, 8]
00000000: 050f 583e 73e1 003e 1a5f 38be 0c9d 2b3d
00000010: 973d 1b3e 0417 e6bc a193 e0bd 3b2f 163d
00000020: 7c51 ae3c 6c34 623d cdb0 d03c 4d1a 613e
00000030: b301 0abe fe77 9f3d e225 f0bd 6103 38be
00000040: 0fce 34bc b557 77be 870e 75be aeb5 41be
00000050: c22d 9ebc 3e06 dcbd 2651 773e 0780 313e
00000060: 5961 44be c23f 6dbe fa27 2abe faef 4d3e
00000070: b706 7abd df45 62bd f5a7 a5bc b900 113e
00000080: 22e5 4b3e e4ef a5bd 32dd 1b3d 632e 19be
00000090: d126 c83d 4e39 75be 241b 3b3e 73eb 743e
000000a0: d5db ee3d a19c 163e 1bba 043d 926d ba3c
000000b0: 2460 71be 4572 513e dcb8 2fbe aea2 37be
000000c0: 099b 913d d610 29be 83b9 403e 8edf cabc
000000d0: f211 72be 3e3b 50be 3017 9dbd ba8a 4f3e
000000e0: 809a 00be 68fb 42bc 1354 c03d 73c3 0dbe
000000f0: 306d 133e d7bf 153d 19d3 393e 4893 3ebc
0.2109948 0.12586002 -0.18005028 0.04189782 0.15160213 -0.028087147 -0.10965658 0.036666136
0.02127909 0.055225775 0.02547493 0.21982689 -0.1347721 0.077865586 -0.117259756 -0.17970039
-0.011035456 -0.24154551 -0.23931323 -0.18916962 -0.019308928 -0.10743378 0.2415205 0.17333995
-0.1917776 -0.23168853 -0.16616812 0.20111075 -0.06104156 -0.055242416 -0.02022169 0.14160432
0.19911626 -0.08102396 0.038052745 -0.14959101 0.09773029 -0.23947641 0.18272072 0.23917942
0.116630234 0.14708187 0.032404047 0.022757325 -0.23571831 0.20453747 -0.17160362 -0.17933151
0.07109649 -0.16510329 0.18820767 -0.024764802 -0.23639658 -0.20335099 -0.07670438 0.20267764
-0.12558937 -0.01190076 0.09391036 -0.13844089 0.1439712 0.036559906 0.18146934 -0.011631794

gat_net.0.bias f4 [64]
00000000: c9bd d6ba 5cc1 88ba 5177 53ba 9935 d73a
00000010: 19df d4b9 f44a ceba 5a7c 333a 3d2f 993a
00000020: fe15 9eba 81cd f63a 17ff 0f3b 299c a8b8
00000030: 7ab8 3b38 f52c c63a 0df1 fe39 22fa a439
00000040: 5695 1bb8 e8d3 bb39 7147 72ba dcc9 6c3b
00000050: ae29 943a b311 96ba 82ba ee39 af12 82ba
00000060: 3593 173a 61ad e7ba fd76 123b 606a 4a3a
00000070: 2346 b4ba f000 2fbb 6d06 8e3a b95a 453b
00000080: c217 dcba 81b0 363a 542e 09b9 b72e c9ba
00000090: 0c66 7936 4ebc ea39 c417 ad3a e4bd 023b
000000a0: cf8a 42bb 76fa 9cb9 32f0 66bb d7a6 22b9
000000b0: 49b0 86ba 561d b33a f565 4bba 3f8a f0ba
000000c0: 669b 3d3b 6f57 353a ebcd f539 e130 f4b7
000000d0: b5e1 0a3a aca2 1dba 4736 d9b9 1930 af3a
000000e0: 7b76 233b 30ac 9d39 9485 41ba 1f6b a73a
000000f0: 852c ffba 4165 55ba 35f0 94ba 3e83 733a
-0.0016383465 -0.0010433602 -0.0008066791 0.0016419172 -0.00040602012 -0.001573889 0.0006846838 0.0011687052
-0.0012060998 0.0018829555 0.0021972114 -8.039951e-05 4.475608e-05 0.0015119599 0.00048626252 0.0003146688
-3.709396e-05 0.00035825302 -0.0009242213 0.003613106 0.0011303925 -0.0011449367 0.00045533857 -0.0009923781
0.00057821284 -0.0017675572 0.0022348755 0.00077215396 -0.0013753813 -0.002670344 0.0010835655 0.003011389
-0.0016791748 0.000696905 -0.00013082597 -0.0015349005 3.716329e-06 0.00044772256 0.0013205935 0.001994961
-0.0029684787 -0.00029941247 -0.0035238382 -0.00015511677 -0.0010275926 0.0013665359 -0.0007759028 -0.0018351747
0.0028931736 0.00069176307 0.00046883462 -2.9109828e-05 0.0005297915 -0.00060133147 -0.00041429905 0.0013365775
0.0024942446 0.00030073663 -0.00073822704 0.0012773013 -0.0019468224 -0.0008140393 -0.0011363091 0.0009289271

gat_net.0.linear_proj.weight f4 [64, 1433]
00000000: 4709 933c 5d71 a13b 063b d4bc d8fa 51bd
00000010: 6362 63bc a476 413d 9c9e f2bc 5941 ffbc
00000020: d28e 94bb acc6 6cbc 1f9a 943c 4f5e 943c
00000030: 75a7 cdbc dad5 2abd 6c12 853c 2cf8 19bd
00000040: 087d 89bb 117a 3fbc 8fcc d23b 298f 293c
00000050: 96d4 371a 1839 08bd 3fcf 033c c27f 86bc
00000060: 2770 083d ccd5 e63b b6f6 fa3c 68ff 27bb
00000070: 4694 3cbd a5ce 893c 7917 163d 1f02 593c
00000080: e9c3 4c3d 8835 1dbb f7ad 15bc 2610 52bb
00000090: 8132 74bc 62e9 d23c 3a83 0ebc d8f9 023d
000000a0: 4ad9 813d 059f 7c3b 9dfe 303d 8bd7 a9bb
000000b0: 3091 6bbc cab0 1c3d 690f 35bc c7ce 35bd
000000c0: 14cb 513d 950d 88bc 6803 f6bb a94c 83bd
000000d0: 9655 333d 01c7 c3bb f217 283d 4a14 4ebc
000000e0: f704 223d 6bdc 70bd 7b8d 333d b836 463d
000000f0: 7c81 2e37 8503 3fbc be42 06bd cfff 82bc
00000100: b431 b5bc 4d33 aa3c e895 8e3c e170 59bb
00000110: 4c65 1c3d c1d8 96bc 07ad d63c e14e 95bc
00000120: 1eb3 94bc 75fa 27bd 6cb4 fb3b 9411 343c
00000130: 299a 143c 0966 8dbd d5d8 283d c7f9 abbc
00000140: 965f 78bc 4aa6 71bd 6c4d 4a3d c92d e63c
00000150: 77e8 febc 29fd 933c bb13 00bd 821b 1b3c
00000160: aa0e 3cbd 5989 ea3b 73c3 2a3c 25a9 3a3d
00000170: f021 c33c ab2d 1bbd 2c2a 45bd ebdd dc3c
00000180: 722d 2b3d b1fd 3e3d a686 33bc 276d 383d
00000190: 22d5 96bc 6a6e e1bb 41e7 1cbb b465 fb3c
000001a0: 9001 243d b581 de3a babe 15bc 148d c63c
000001b0: 29db 41bd b55c 0b3d 88cb 213d 8b49 a1bc
000001c0: 1f4a e2bb 5c0a 9dbb 06eb c7bc b744 2bbd
000001d0: 02a3 f4bc cd1d b2bc 8cfe df3c 4f91 c23c
000001e0: aa51 af3c 199d 5d3d 97cc 08ba d3de 36bd
000001f0: 8285 a7bc deb4 4b3d 811f 553c 5c1b a83c
00000200: c718 6cbd ea8d 20bd 65d8 993c 76d8 66bd
00000210: 8c86 773a dba5 7dbd f44b 313d 75a0 ffbc
00000220: 820c 7fbc 8dbd 01bb e9ba 04ba c387 fb3c
00000230: cc94 063d d640 a13c 3adf 9a3c 0efa 33bc
00000240: 8417 59bc 28f4 513a 5a9b 343d 3ea3 3b3d
00000250: 3a38 16bc 595a 2ebd 1032 3c3d 1eba 32bd
00000260: 76df a73a 06f2 0f3d 2aaa 25bd 95f5 2a3d
00000270: ba69 ff3c 72c0 313b 0d3d 08bd ef12 a23c
00000280: 8802 583c 2d72 053c 8e29 73bc 8c79 203d
00000290: 7a1c 3f3d fe44 14bd 5541 8b3c 17a2 0b3d
000002a0: f6b8 cabb 37d8 6bbc 8f4e 253d 5354 823b
000002b0: 9f61 d2bc 786e 9e3a b323 39bd 2040 39bd
000002c0: 7823 143d 832b e9bc dab1 3abd d5c6 5ebd
000002d0: 57b1 ddbb a2a0 14bc 3887 943c 5445 003d
000002e0: f78e 2bba 2752 31bc bfc0 78bc 44f6 5f3d
000002f0: db32 e53c a301 083d c22d a9bc a99f 5c3b
00000300: 363b 173d 695b 10bc 7094 c1bc 6336 94bc
00000310: 552c 6abc 3d30 4b3b 2cb0 7dbb b197 233b
00000320: 5772 df39 046f 8e3c 48a3 d1bb e540 3ebd
00000330: a832 aab9 6022 14bd 14d8 f73c 80ff 0db9
00000340: dabd 2fbd a47c e7bc abd6 be3a 3ea4 b8ba
00000350: 26ab 3abc 1ce2 9f3c b6cc f2ba 135c f13c
00000360: 41c6 9cbc 249d 33bd 7254 d6bc f02c 173b
00000370: b061 203c 43c2 813c 3716 ae3c e1ef 33bc
00000380: 5e4a 8cbc c635 5abd b4c0 1ebd 9e07 cfbc
00000390: 972c 543d efb4 2dbd 502c 40bc 0d97 983c
000003a0: cd81 213c 338a 66bd 7a28 da3c fe45 913c
000003b0: 8a57 1f3d 7da8 a6bb 3b30 333b c917 e13c
000003c0: 3392 0cbd 7c38 f8ba ee03 21bd c53c a4bb
000003d0: 1f1e 24bd 0bf6 863c ea04 baba df99 42bd
000003e0: 7719 38bd 87f8 38bd a2ce 55bd f2ee 22bc
000003f0: dc95 383d 393f a9bc 2b11 f8bc 74b2 363d
0.01794876 0.004926844 -0.02590705 -0.051264614 -0.013878438 0.047232285 -0.029616646 -0.03115909
-0.004533627 -0.014451664 0.018139897 0.018111376 -0.025104264 -0.04170785 0.016244136 -0.03759019
-0.004195813 -0.011686818 0.0064330767 0.010349073 3.801524e-23 -0.033257574 0.008045017 -0.016418342
0.03331008 0.0070445295 0.030635219 -0.0025634412 -0.046039842 0.016822169 0.03664348 0.013245135
0.049991522 -0.0023988206 -0.009135715 -0.0032053082 -0.014904619 0.025746051 -0.008698279 0.03197655
0.06340273 0.0038546931 0.04321157 -0.0051831654 -0.014377877 0.038254537 -0.011051037 -0.04438665
0.05121906 -0.016608039 -0.0075077303 -0.06411106 0.043782793 -0.005974651 0.04103846 -0.0125780795
0.039555516 -0.058803957 0.0438361 0.048392028 1.0401356e-05 -0.011658554 -0.032778494 -0.01599112
-0.022118427 0.020776415 0.017405465 -0.0033178853 0.03818254 -0.018413903 0.026205553 -0.018226089
-0.018151816 -0.04101034 0.00768142 0.010990519 0.009069958 -0.06904227 0.041222412 -0.020993127
-0.015159508 -0.058996476 0.04939024 0.028098004 -0.031116707 0.018065052 -0.031268816 0.009467008
-0.045912422 0.0071574864 0.010422575 0.045571465 0.023819894 -0.03788535 -0.04813592 0.026961287
0.041791387 0.046628658 -0.010957396 0.04502597 -0.018412177 -0.0068796175 -0.002394155 0.030688144
0.040040553 0.0016975912 -0.009139711 0.024237193 -0.047328148 0.03402396 0.039500743 -0.019688388
-0.0069058086 -0.0047924947 -0.02440406 -0.04181358 -0.029862884 -0.021742726 0.027343057 0.02375093
0.021401245 0.054104898 -0.00052184745 -0.044646095 -0.020449404 0.049733035 0.013007999 0.020520858
-0.057640817 -0.03919784 0.018779943 -0.056358777 0.00094423513 -0.06192575 0.043285325 -0.031204442
-0.015566947 -0.001979682 -0.0005063252 0.030704385 0.032856748 0.019684236 0.01890527 -0.010984911
-0.0132502355 0.00080090994 0.044093467 0.045809977 -0.009168679 -0.04256663 0.04594618 -0.043634526
0.0012807685 0.03514292 -0.040445484 0.04173811 0.031178344 0.0027122763 -0.033261348 0.019784419
0.013184197 0.008144897 -0.01484145 0.039178416 0.046658017 -0.03619861 0.016998926 0.034090128
-0.0061866 -0.014394811 0.040358122 0.0039773374 -0.025681315 0.0012087366 -0.04520006 -0.04522717
0.036166638 -0.02846313 -0.04557977 -0.05438884 -0.0067655253 -0.009071501 0.018130884 0.031316116
-0.0006544436 -0.010822809 -0.015182673 0.054678217 0.027978351 0.033204686 -0.020651702 0.00336645
0.036921702 -0.008810856 -0.02363035 -0.01809234 -0.014292796 0.0031004094 -0.0038709743 0.0024962241
0.00042619064 0.01738692 -0.0063976385 -0.046448607 -0.0003246267 -0.036165595 0.030254401 -0.00013541989
-0.042905666 -0.028257675 0.0014559826 -0.0014087034 -0.011393344 0.019516997 -0.0018524143 0.02946285
-0.019137504 -0.043851033 -0.026163314 0.0023067556 0.0097889155 0.015839702 0.021250827 -0.010982485
-0.017125305 -0.05327394 -0.038757995 -0.025272187 0.051800337 -0.04240888 -0.011729315 0.018626714
0.009857607 -0.05628414 0.026630629 0.01773357 0.038901843 -0.0050860033 0.002734198 0.027477162
-0.034319114 -0.0018937732 -0.03931039 -0.005012127 -0.04006779 0.016474744 -0.0014192138 -0.047510024
-0.04494616 -0.04515889 -0.052199014 -0.009944664 0.045064792 -0.02066003 -0.030281624 0.04460378

gat_net.1.scoring_fn_target f4 [1, 1, 7]
00000000: 8175 e93e 530c 173f af3e 1a3f 26e3 b4bc
00000010: 9a48 103f 30f7 0bbf 7668 7f3e
0.4559746 0.5900318 0.602519 -0.022080969 0.5636078 -0.54674053 0.24942192

gat_net.1.scoring_fn_source f4 [1, 1, 7]
00000000: a4fa 0ebe 8221 033f d7d2 b53d 82e3 113f
00000010: 9d97 85bd 5232 5bbe 2eaf b73e
-0.139628 0.51223004 0.08878105 0.56987774 -0.065230586 -0.21405914 0.3587584

gat_net.1.bias f4 [7]
00000000: 262e 8e3a 8549 0bbc 54f3 143b edbe 1eba
00000010: 1f53 423b fad8 d33a c8a8 953a
0.0010847494 -0.008501415 0.0022728043 -0.0006055672 0.0029651595 0.0016162687 0.0011418099

gat_net.1.linear_proj.weight f4 [7, 64]
00000000: 83c4 c1bb e225 85be f06e 46be 2682 103e
00000010: cba9 f93d aa81 813e bca5 4d3e 858d 773e
00000020: 3bc2 1a3e 0404 09bd ca42 c6bd ba3c eb3d
00000030: 5a12 463e 38dd 35be 1ab5 3c3e d6c8 7e3d
00000040: 7845 703e 81f5 b13d 6921 883e 122a c1bd
00000050: 78cf 03be bf19 0bbe bd4e 133d 6564 f3bc
00000060: b484 31bc b3d3 f1bd 6076 2abe 3421 913e
00000070: 808a 45bd ceab 193e 1467 6abd d2c3 03be
00000080: 5927 4abc a03b 073e e3ce d93c 6c28 a0ba
00000090: e9c2 663e ba81 d93d 6134 19be a98b 843e
000000a0: 0a94 8abe 55d1 afbc dc22 fbbd 0e92 8ebe
000000b0: a3a3 5abe adec f8bd 1efc 323d d7e4 bc3d
000000c0: 6dd6 f1bd 6d9a 8d3d c679 d4bb 0eda 663e
000000d0: 5ce9 febb 79e8 8fbe ba1b 84be 2d8f 5d3c
000000e0: be84 1b3e 5e87 973e 5d9b 16bd 23bb fa3c
000000f0: 89cb 8b3d 5fe1 7abd bd0e 1cbe 1419 54be
00000100: ece5 593d 4375 46be 89a2 5abe 1d37 693e
00000110: 9521 7cbe 4efb 93bc e3fd 343d 2451 5a3d
00000120: f43c cb3d 59e1 7f3d 1f14 193e be92 8a3d
00000130: 6ef8 31be 340a 3c3d a2d9 07be 210b b3bd
00000140: 13c3 5bbd 4ca7 3dbd c378 8abe 4f47 333e
00000150: 537f 2e3d 8070 f1bc a123 7b3e 1e2f 19bd
00000160: 6d29 9fbd a6ba 8ebe b4e3 c33d ccc1 563e
00000170: ab24 50be 5df5 11be 5172 ebbb 2966 7a3e
00000180: 71de 1bbe cc52 673e a66b 903e 1890 81be
00000190: 01be 59bd 89be a13d de70 653e 51eb c33d
000001a0: ccd6 1cbe 4796 f9bd 8028 8dbe df72 2dbd
000001b0: c817 943e ddaa 293e ad77 8bbe 0294 99be
000001c0: b757 6f3e 2f91 6fbd 3303 1c3e da88 7dbe
000001d0: 9714 d9bc 2b26 92be 8504 f33d 97a5 093e
000001e0: 2f72 913e cbda 2c3d ce25 45bd ffa0 443e
000001f0: 2795 a03d 80bc a5bc e36a 343e 1022 61be
00000200: 2fb5 403e 555d 563d 422e 1a3d aea6 5e3e
00000210: 5537 f4bc a5e8 2d3e ec06 90be c131 323c
00000220: 3fb8 04be 83cf 83be bbef 023c b47f ed3d
00000230: 3fcb c93d 8cf6 c3bd 2e45 0fbe cb6f 80be
00000240: da16 e93d 4133 e0bd 5ab4 413d c1e4 0bbe
00000250: 4f3d 93be 4ddf 913e e3fc 74be f832 8f3d
00000260: fa4f 5a3d 71ab 4b3d 9755 2a3e 20af 173e
00000270: 71f6 913e 0064 853e 5661 093e f1e6 01bb
00000280: 10d8 a63d 905b 7abe 4663 e23d 5bca 2e3e
00000290: cc72 883e 927f 793e 8ec1 7f3e c27b 1fbe
000002a0: 949c 6d3e 6b04 423b 0683 76be 6155 733e
000002b0: 4e57 3d3e fe59 06be eb5f 92be cfcd 0e3e
000002c0: 0754 dbbd f838 acbd 8273 093d 3cab 89bc
000002d0: e609 05be e1d0 fc3d 6d2d cc3c 2095 fa3c
000002e0: 59e1 143e 7cc8 023d a4dc d93c a6e0 7bbe
000002f0: dc6c 963d 3d03 033e a455 223e b228 5abe
00000300: bd12 6a3e db24 8fbe 0af3 d03d 81f6 ca3c
00000310: 1c80 60be 50a0 153d 43eb 8dbe 3c55 1dbe
00000320: 85d9 7c3d 66c1 f5bd f24f 19be e7cc 95be
00000330: 1bbc 89be 2c07 8bbe c62e 75be c020 633e
00000340: b542 483e 52b9 843e 0238 9e3d d54c 4e3e
00000350: da94 8cbe 6d3a 61bd 67b6 2dbe b997 183e
00000360: 3b9e 9bbb c621 e1bd 0662 073e df84 d6bd
00000370: 0154 3ebe 6dab 8abe d392 933e 8cda 28be
00000380: 5cd2 9a3d 7c5f 00ba 5dfc 983c f690 8b3b
00000390: 9cfc 37be 8218 1b3e deff 213e 8654 eebd
000003a0: b79d bdbd efad 73be 7277 7f3e aa5d 92bd
000003b0: 18a4 153d b864 e7bd 9ff4 f23c c63d 16be
000003c0: 87dc bebc 3cad ea3b f608 90bd e3f1 8fbe
000003d0: 1570 44be 168b 843d 300e 733e ae25 383e
000003e0: 4e5b b33d 3427 3e3e 0301 77be 71bd b4bc
000003f0: 3cd4 83be 1db9 4b3e fa6f 8b3e 8302 5c3c
-0.0059133186 -0.26005465 -0.19378257 0.14112148 0.121905886 0.25294238 0.20082754 0.24175079
0.15113156 -0.033451095 -0.09680708 0.11486192 0.19342938 -0.1776017 0.1842846 0.06220325
0.23464 0.08689404 0.2658799 -0.094318524 -0.12872112 -0.1358404 0.035963763 -0.029710958
-0.010834862 -0.118079565 -0.16646719 0.28345644 -0.048227787 0.15006945 -0.05722721 -0.12867668
-0.012338483 0.13206339 0.02658791 -0.0012219078 0.2253529 0.106204465 -0.14961387 0.25887802
-0.2706607 -0.021462122 -0.12262508 -0.27845806 -0.21351485 -0.12154517 0.04369747 0.09223335
-0.118084766 0.0691422 -0.006484243 0.22544119 -0.0077792834 -0.2810705 -0.25802404 0.013522905
0.15187356 0.29595464 -0.03676926 0.030606812 0.068259306 -0.061250087 -0.15239997 -0.20712692
0.053197786 -0.1938067 -0.21351065 0.2277493 -0.24622186 -0.018064167 0.044187438 0.053300038
0.09923735 0.062470768 0.14949082 0.0676627 -0.17379925 0.045908168 -0.13266614 -0.08742357
-0.053652834 -0.046302125 -0.2704526 0.17507671 0.042601895 -0.02947259 0.2452531 -0.03739845
-0.07771573 -0.27876776 0.09564915 0.20972365 -0.20326488 -0.14253755 -0.0071852584 0.24453034
-0.15221573 0.22590178 0.2820713 -0.25305247 -0.053159717 0.0789767 0.22406337 0.095663674
-0.15316314 -0.12186866 -0.27569962 -0.042345878 0.28924394 0.16569085 -0.27239743 -0.29995733
0.23373304 -0.058488067 0.15235595 -0.24759236 -0.026499076 -0.28544745 0.118660964 0.13442074
0.28407428 0.042200845 -0.048131756 0.1920204 0.078409486 -0.020231485 0.17618899 -0.2198565
0.18819116 0.052335102 0.03764177 0.21743271 -0.02981154 0.16983278 -0.2813028 0.01087612
-0.1296091 -0.25744256 0.0079917265 0.11596623 0.09853219 -0.095685095 -0.13991234 -0.2508529
0.11381312 -0.10947276 0.047291137 -0.13661481 -0.28757712 0.28490677 -0.23924594 0.069921434
0.053298928 0.049724046 0.16634212 0.14812899 0.28508332 0.26052856 0.13416037 -0.001982149
0.081466794 -0.24448991 0.11054091 0.1706938 0.26650083 0.2436507 0.24976179 -0.15574554
0.23204261 0.0029604684 -0.24073419 0.23763038 0.18490335 -0.13120267 -0.28588805 0.13945697
-0.10709386 -0.084093034 0.033557422 -0.016805284 -0.12992057 0.12344528 0.024924004 0.030588686
0.14539088 0.031929478 0.026594467 -0.24597415 0.07344982 0.12794204 0.15852982 -0.21304587
0.2285871 -0.27957806 0.10202606 0.024775745 -0.2192387 0.03652984 -0.27718553 -0.15364546
0.06173088 -0.119997784 -0.14971903 -0.2925789 -0.26901326 -0.2715391 -0.23943624 0.22180462
0.19556697 0.25922638 0.077255264 0.20146497 -0.27457315 -0.05498736 -0.16964112 0.14901628
-0.004749087 -0.1099277 0.13220987 -0.10474562 -0.18586732 -0.27083912 0.28822955 -0.16489619
0.07559654 -0.0004897041 0.018675024 0.004259224 -0.17967457 0.15146068 0.15820262 -0.11637215
-0.09258597 -0.23796819 0.24947909 -0.07146771 0.036533445 -0.112985075 0.02965766 -0.14672002
-0.023298515 0.0071617644 -0.07032959 -0.28114232 -0.19183381 0.06471841 0.23735881 0.17983124
0.08757649 0.18569642 -0.2412148 -0.022062989 -0.2574786 0.19894834 0.2723387 0.013428333
