python/binarypath/checkpoints/gat_ckpt_epoch_2000.pth (torch, 372431 bytes, 8 tensors)

gat_net.0.scoring_fn_target f4 [1, 8, 8]
0	0xbd6c6959	-0.057717655
1	0x3c980870	0.01855871
2	0xbb5e4f90	-0.0033921935
3	0x3c1299bc	0.008947786
4	0xbda42de5	-0.08016566
5	0xbbdf45e6	-0.0068137525
6	0xbbef9c8f	-0.0073123644
7	0x3dd3c4f0	0.10340297
8	0xbe39b331	-0.18134762
9	0x3d3e72bd	0.04649614
10	0x3db74112	0.08947958
11	0xbe248f2c	-0.1607024
12	0x3df93717	0.12168711
13	0xbd89891b	-0.06715604
14	0x3e00890e	0.12552282
15	0xbd6d02a7	-0.057863858
16	0x3c075444	0.008259837
17	0x3d17a070	0.03701824
18	0xbdfc7cd4	-0.123284966
19	0xbc3852bb	-0.011250193
20	0xbdea4755	-0.11439387
21	0xbd6d54d2	-0.05794222
22	0xbe1fb051	-0.15594603
23	0x3e21fc47	0.15818892
24	0x3e394606	0.18093118
25	0xba190320	-0.00058369525
26	0x3dcd386e	0.10020529
27	0xbdd19240	-0.10232973
28	0x3dab5781	0.083662994
29	0xbc2190d8	-0.009861194
30	0xbe257c52	-0.16160706
31	0xbe3c1956	-0.1836904
32	0x3bf12af7	0.007359858
33	0xbbda5366	-0.006662774
34	0x3d957fd3	0.07299771
35	0xbd4e0e4e	-0.05030661
36	0xbe41386b	-0.18869178
37	0xbb166e71	-0.0022954012
38	0xbc5893f9	-0.013218873
39	0x3ba112c6	0.004915568
40	0x3b850810	0.004059799
41	0xbd3a7900	-0.04552555
42	0x3e45443e	0.19264314
43	0xbd4134b7	-0.047169413
44	0xbe32f2b5	-0.17475398
45	0x3df064a2	0.11737944
46	0x3de1fe80	0.1103487
47	0x3ded76f2	0.11594953
48	0xbc1a3270	-0.009411439
49	0xbc218636	-0.009858659
50	0x3dfac1e9	0.12244017
51	0xbc3a9094	-0.011387009
52	0xbdb8a1ae	-0.09015213
53	0x3e361117	0.17779957
54	0xbd252c53	-0.040325474
55	0xba1faeb7	-0.0006091403
56	0x3d1bce15	0.038038332
57	0xbe282e1d	-0.16423841
58	0xbe238ef1	-0.15972497
59	0xbadb3005	-0.0016722685
60	0x3e3e56cb	0.18587796
61	0x3c8e986d	0.017406667
62	0xb7e9f7e5	-2.78912e-05
63	0x3e408784	0.18801695

gat_net.0.scoring_fn_source f4 [1, 8, 8]
0	0x3e2dac73	0.16960315
1	0x3dcf1fcc	0.10113487
2	0xbe0f140e	-0.13972494
3	0x3caf93fd	0.021432871
4	0x3deca3d0	0.11554682
5	0xbcad6fc3	-0.021171456
6	0xbda60616	-0.081066296
7	0x3cc3948c	0.023874544
8	0x3abba15e	0.0014315059
9	0x3d1e8722	0.03870309
10	0x3d0aa863	0.033851992
11	0x3e3d319e	0.18475959
12	0xbdd03fe7	-0.101684384
13	0x3d64ff25	0.055907387
14	0xbdb33461	-0.08750225
15	0xbe12fc1d	-0.14353986
16	0xbc15ab04	-0.009135012
17	0xbe4cb429	-0.199906
18	0xbe4cd6f7	-0.20003878
19	0xbe1a30f6	-0.1505774
20	0xbba5334e	-0.0050415164
21	0xbd8d1943	-0.06889584
22	0x3e4cdcc1	0.20006086
23	0x3e0c0d47	0.1367694
24	0xbe1ec1bf	-0.15503596
25	0xbe444966	-0.19168624
26	0xbe045080	-0.12921333
27	0x3e2bb176	0.16766915
28	0xbd1830ba	-0.037155844
29	0xbd2448f7	-0.040108647
30	0xbc2a14c1	-0.010380925
31	0x3ded426b	0.11584934
32	0x3e22599f	0.158545
33	0xbd559dac	-0.05215232
34	0x3d0c955b	0.034322124
35	0xbdf09131	-0.11746443
36	0x3d90f457	0.07077854
37	0xbe4aeeb5	-0.19817622
38	0x3e1be03f	0.15222262
39	0x3e4b857c	0.19875139
40	0x3daa686b	0.083206974
41	0x3de850a7	0.11343508
42	0x3cb106c1	0.021609666
43	0x3c3a153c	0.011357602
44	0xbe491421	-0.19636585
45	0x3e2992d8	0.16559923
46	0xbe09e4d6	-0.134662
47	0xbe11cd63	-0.14238505
48	0x3d4a4e89	0.049391303
49	0xbe095991	-0.13413073
50	0x3e19c2d7	0.15015732
51	0xbc3705d7	-0.011170826
52	0xbe4ae1f4	-0.19812757
53	0xbe2aabba	-0.16667071
54	0xbd28445b	-0.041080814
55	0x3e2942b4	0.16529351
56	0xbdec1c55	-0.115288414
57	0xbc68ba49	-0.01420457
58	0x3d8b8b78	0.06813711
59	0xbdda1890	-0.10649216
60	0x3dd6dc12	0.10491194
61	0x3c8883a1	0.016664328
62	0x3e1481aa	0.14502588
63	0xbaf33d14	-0.0018557631

gat_net.0.bias f4 [64]
0	0x3b77187a	0.0037703798
1	0xb972a092	-0.00023138736
2	0xbb0c096c	-0.002136792
3	0x3b148600	0.0022662878
4	0xbc084ca3	-0.008319053
5	0xb961a9f4	-0.00021520985
6	0xbb9169d8	-0.0044376664
7	0x3a9ff2dd	0.0012203116
8	0xb71d26c2	-9.366953e-06
9	0xb991832e	-0.00027754292
10	0xba009f20	-0.0004906524
11	0xbafd31f6	-0.0019317258
12	0xbb914add	-0.004433973
13	0xbac780d1	-0.0015220885
14	0xb9ece62b	-0.00045184916
15	0xba8d17b1	-0.0010764507
16	0x3b35efdb	0.0027761373
17	0x3a79dacc	0.00095311995
18	0xbb659f3f	-0.0035037545
19	0x3c0f37f8	0.008741371
20	0xbba4fff1	-0.0050353934
21	0xb8c9ac51	-9.616523e-05
22	0xb98aaa57	-0.00026448324
23	0xbae09c34	-0.0017136396
24	0x3ab909db	0.0014117317
25	0xbb8a9a51	-0.0042298217
26	0x3b6954d3	0.0035603538
27	0x3a81eb48	0.0009912038
28	0xb9db142f	-0.00041785973
29	0xbb3c0762	-0.0028690924
30	0x3bcfdac4	0.0063432176
31	0x3b11b3d3	0.0022232428
32	0x3b58ecc1	0.00331001
33	0xbaa072c4	-0.0012241234
34	0x3b330bc1	0.0027320238
35	0xbac0f891	-0.0014722516
36	0xba17d0c2	-0.00057913
37	0x3c01cdb5	0.00792258
38	0x3bdcb9b8	0.0067360066
39	0x390c2628	0.00013365655
40	0xbb5e6c01	-0.0033938887
41	0xbb8f45bb	-0.004372326
42	0xba981fad	-0.001160612
43	0xb9bd2c43	-0.00036081867
44	0x3b766924	0.003759929
45	0x3b53cf1f	0.0032319499
46	0xbb3b0406	-0.0028536334
47	0xbb7b050f	-0.0038302576
48	0x3bd3fc11	0.0064692576
49	0x3b02d4c5	0.0019963246
50	0x3b9d5e86	0.004802528
51	0xbb7826a4	-0.0037864828
52	0x3b0c7619	0.0021432696
53	0x3b10a995	0.0022073735
54	0x3b5bdf71	0.003354993
55	0x3b853583	0.004065217
56	0x3bd70fbe	0.006563156
57	0x3b5a733f	0.0033332852
58	0xbba27926	-0.0049582897
59	0x399d1c79	0.00029966587
60	0xbb26fe8f	-0.0025481319
61	0xba6713a4	-0.00088148774
62	0x3b22d841	0.0024848136
63	0x3a175775	0.0005773225

gat_net.0.linear_proj.weight f4 [64, 1433]
0	0x3c1b02cc	0.009461116
1	0x3bdd6343	0.0067562177
2	0xbcd56a82	-0.026051763
3	0xbd59e1bb	-0.05319379
4	0xbc29bdb6	-0.010360172
5	0x3d25eb5c	0.04050766
6	0xbcbffa80	-0.023434877
7	0xbcd33b8e	-0.025785234
8	0xbad7054b	-0.0016404776
9	0xbc13251c	-0.0089810155
10	0x3babf50d	0.005247718
11	0x3b2adc93	0.0026071414
12	0xbcdb3480	-0.026758432
13	0xbd01aefc	-0.03166102
14	0x3c69478c	0.0142382495
15	0xbd317988	-0.04332879
16	0xbc4fb48d	-0.012677324
17	0xbbff161a	-0.007784617
18	0x3bcd2233	0.0062601804
19	0x3c4249f3	0.011858451
20	0x80d90237	-1.9929097e-38
21	0xbd0c83b8	-0.034305304
22	0x3c232a64	0.009958837
23	0xbc1144de	-0.008866517
24	0x3c98de2e	0.018660631
25	0x3b3c0a01	0.0028692486
26	0x3cd92f09	0.026511686
27	0x39e01e1b	0.0004274704
28	0xbd232142	-0.03982664
29	0x3be46783	0.0069703474
30	0x3d166dbe	0.036725752
31	0x3c11d4c2	0.008900823
32	0x3d286890	0.041115344
33	0xbb82d2d7	-0.003992419
34	0xbba7bbf7	-0.0051188427
35	0x3a7b07f6	0.00095760764
36	0xbc70a7c2	-0.014688434
37	0x3ca4ced8	0.020118162
38	0xbc7767b7	-0.015100411
39	0x3cba454d	0.022738123
40	0x3d831453	0.06400361
41	0x3b82eede	0.0039957603
42	0x3d099f43	0.03359915
43	0xbb8b74ff	-0.0042558904
44	0xbcb2d5f1	-0.02183053
45	0x3d23e765	0.040015597
46	0xbb7c77d1	-0.0038523565
47	0xbd363024	-0.044479504
48	0x3d528a29	0.05140129
49	0xbb80e0b2	-0.003933036
50	0xbb648f69	-0.0034875518
51	0xbda63fd5	-0.08117644
52	0x3cf0b6a7	0.02938397
53	0x3993af55	0.00028168657
54	0x3d2812f9	0.04103372
55	0xbc090795	-0.008363624
56	0x3cf983c2	0.030458335
57	0xbd5ff899	-0.05468044
58	0x3d0ef432	0.03490085
59	0x3d4c1d1a	0.04983244
60	0x2954e178	4.726902e-14
61	0xbc26371e	-0.010144977
62	0xbca5b464	-0.020227619
63	0xbcbd7480	-0.02312684
64	0xbcad5826	-0.021160197
65	0x3c8cc1e4	0.017182298
66	0x3c83753e	0.016047116
67	0xbb502f28	-0.0031766389
68	0x3cd7f957	0.026364012
69	0xbc6ff3c7	-0.014645523
70	0x3caca988	0.021076933
71	0xbc8d2e65	-0.017234037
72	0xbbcd3ea7	-0.0062635723
73	0xbd01cb74	-0.03168817
74	0x3c16ad3b	0.009196575
75	0x3cabd9bc	0.020977847
76	0x3c61b37e	0.013775704
77	0xbd94ea37	-0.072712354
78	0x3d23a30b	0.03995041
79	0xbc5e2932	-0.013559626
80	0xbc71af62	-0.014751287
81	0xbd67fc06	-0.056636833
82	0x3d3de292	0.046358652
83	0x3d013370	0.031543195
84	0xbcbe8804	-0.023258217
85	0x3cf91caf	0.030409185
86	0xbcc0ba19	-0.023526238
87	0x3ba1f983	0.004943074
88	0xbd2cf8dc	-0.04222952
89	0x3a7a4532	0.0009547054
90	0x3c15fb8c	0.009154212
91	0x3d357378	0.044299573
92	0x3c998952	0.018742237
93	0xbd0e3dfd	-0.034727085
94	0xbd1c3f95	-0.038146574
95	0x3c4e26c5	0.012582486
96	0x3d05f8dd	0.032708038
97	0x3d34dfe8	0.044158846
98	0xbbfbc916	-0.0076838834
99	0x3d4e98e3	0.050438773
100	0xbc7f2ec2	-0.015575113
101	0x3ab3bf6c	0.0013713664
102	0xbca61e9f	-0.020278273
103	0x3cc0cf80	0.023536444
104	0x3cea9046	0.028633248
105	0x3be72410	0.0070538595
106	0xbbe2c60f	-0.006920583
107	0x3cc0eb49	0.023549693
108	0xbd2eb2e5	-0.042651076
109	0x3cfd774f	0.03094068
110	0x3cc8134b	0.024423262
111	0xbc2010e0	-0.009769648
112	0xbabc8822	-0.0014383832
113	0x3a709277	0.00091770984
114	0xbc44d37d	-0.012013313
115	0xbd00e3b6	-0.031467162
116	0xbcbbdc26	-0.022932123
117	0xbc62b7df	-0.013837784
118	0x3d04976a	0.032370962
119	0x3c7ff64f	0.015622689
120	0x3ccb4c36	0.024816614
121	0x3d588663	0.052862536
122	0xb9747270	-0.00023312285
123	0xbd0b0276	-0.033937894
124	0xbca2f154	-0.019890465
125	0x3d3ff9ce	0.04686909
126	0x3c47000e	0.012146009
127	0x3b5c56ca	0.0033621066
128	0xbd4e0440	-0.050297022
129	0xbd35b6c2	-0.044363745
130	0x3cd2d463	0.02573604
131	0xbd6903fc	-0.056888565
132	0x3b1142ed	0.0022165135
133	0xbd8887c4	-0.0666652
134	0x3d03f862	0.0322193
135	0xbd08fc9e	-0.03344404
136	0xbc2c39fe	-0.010511873
137	0xba04d735	-0.0005067469
138	0xba3be009	-0.0007166868
139	0x3ca624b5	0.020281175
140	0x3d3aa449	0.04556683
141	0x3c59494e	0.013262106
142	0x3cba6402	0.022752766
143	0xbb771e46	-0.0037707253
144	0xbba5ada8	-0.005056102
145	0x349a348a	2.8722962e-07
146	0x3d2be6c8	0.041968137
147	0x3d22b43e	0.039722674
148	0xbbc78925	-0.006089347
149	0xbd25b119	-0.040452097
150	0x3d2d90c5	0.04237439
151	0xbd367318	-0.044543356
152	0xba985e3d	-0.0011624765
153	0x3cc16eea	0.023612458
154	0xbd0c3273	-0.0342278
155	0x3d0dfaac	0.034662887
156	0x3cd576f7	0.026057703
157	0x3b92a2e8	0.0044749863
158	0xbca6eff0	-0.020378083
159	0x3c6fc687	0.014634735
160	0x3c977bd8	0.01849167
161	0x3ae05b0e	0.001711698
162	0xbc70375f	-0.014661639
163	0x3d2a9fdf	0.04165637
164	0x3d31898f	0.043344077
165	0xbcb66721	-0.022265973
166	0x3c97b97a	0.01852106
167	0x3d190f38	0.03736803
168	0xbc26a9a3	-0.0101722805
169	0xbc176909	-0.009241351
170	0x3ce2f2d1	0.027703675
171	0xba440c24	-0.0007478616
172	0xbd037302	-0.032092102
173	0xbb269044	-0.002541558
174	0xbd15369a	-0.036429025
175	0xbd0461bb	-0.032319766
176	0x3d27eb63	0.040995967
177	0xbce6b234	-0.028161146
178	0xbd0b726c	-0.034044668
179	0xbd5391f7	-0.051652875
180	0xba0a0490	-0.0005264962
181	0xbbb3086d	-0.005463651
182	0x3c881b25	0.016614506
183	0x3cd35c91	0.025800975
184	0x3a8cd8f3	0.0010745808
185	0xb8a0e7b8	-7.6725555e-05
186	0xbc2a2c4e	-0.01038654
187	0x3d61e6cd	0.05515175
188	0x3cf370f0	0.029716939
189	0x3cdf7b43	0.027280455
190	0xbc48bea5	-0.012252484
191	0x3c132fae	0.008983536
192	0x3d251158	0.040299743
193	0xbbf49d94	-0.007465074
194	0xbcb1c989	-0.021702545
195	0xbcbb92b0	-0.022897094
196	0xbc462f48	-0.012096234
197	0x3a8af537	0.0010601644
198	0xbc12c480	-0.008957982
199	0xbb0a898b	-0.002113911
200	0x3b01b3e7	0.0019791068
201	0x3c8f7042	0.017509583
202	0x3a02c30a	0.00049881695
203	0xbd3a6e40	-0.0455153
204	0xbb80787f	-0.0039206143
205	0xbd2e4cd3	-0.042553734
206	0x3ce92f14	0.028464831
207	0x3aad488d	0.0013220474
208	0xbd1f8fd6	-0.038955532
209	0xbc817115	-0.015800992
210	0x3a804a3d	0.000978775
211	0xbc622387	-0.013802416
212	0xbccfc4ac	-0.025362335
213	0x3cd610bf	0.026131032
214	0xbc0a66d2	-0.008447366
215	0x3c55dad6	0.013052663
216	0xbc1f460a	-0.009721288
217	0xbd13fef1	-0.036131803
218	0xbc99ccaf	-0.018774359
219	0xba8870c5	-0.0010409585
220	0x3bc1ed61	0.0059181903
221	0x3c2d85bc	0.010590967
222	0x3c96957d	0.018381828
223	0xb9f1f698	-0.0004615083
224	0xbc228e2a	-0.00992159
225	0xbd3a0727	-0.045416977
226	0xbcfb0a4f	-0.030644564
227	0xbc37ca37	-0.011217645
228	0x3d3b1968	0.045678526
229	0xbcf70522	-0.030153815
230	0xbb8bd8e2	-0.004267798
231	0x3cb4a2ab	0.022050222
232	0x3b62f610	0.0034631528
233	0xbd5cb673	-0.053884935
234	0x3d0bdfd2	0.034149
235	0x3c876e8c	0.016532205
236	0x3ce7a91b	0.028278878
237	0xbc8b7899	-0.017025279
238	0xbb6b42fc	-0.003589808
239	0x3ccd154e	0.025034573
240	0xbc9fd927	-0.019512726
241	0xbb06f11a	-0.0020590485
242	0xbcc947d7	-0.024570389
243	0xbbb4bd10	-0.005515702
244	0xbd2019e8	-0.039087206
245	0x3b99e0c5	0.004695984
246	0xbb5aed85	-0.0033405733
247	0xbd1fea8d	-0.039042044
248	0xbcf6beaf	-0.030120222
249	0xbd241c6b	-0.040066164
250	0xbd559119	-0.05214033
251	0xbbc78d1d	-0.00608982
252	0x3d136c51	0.03599197
253	0xbcc6b4eb	-0.02425619
254	0xbcf73ada	-0.03017943
255	0x3d1439b0	0.036187828

gat_net.1.scoring_fn_target f4 [1, 1, 7]
0	0x3ed0210b	0.4065021
1	0x3f0c0223	0.5469076
2	0x3f0e17fc	0.5550535
3	0xbb805daa	-0.0039174156
4	0x3f0352b3	0.51298064
5	0xbf00d5da	-0.5032631
6	0x3e6d3589	0.23164953

gat_net.1.scoring_fn_source f4 [1, 1, 7]
0	0xbe0c3085	-0.13690384
1	0x3f0e5dc3	0.5561182
2	0x3e01c7b6	0.1267384
3	0x3f185e67	0.59519047
4	0xbd298ef2	-0.04139609
5	0xbe5d308c	-0.2160055
6	0x3ecb8b3f	0.39754674

gat_net.1.bias f4 [7]
0	0x3c5ef7b5	0.013608863
1	0xbcc35401	-0.023843767
2	0xbb36cb62	-0.0027892222
3	0xbc864f42	-0.016395215
4	0x3c7736b1	0.015088723
5	0x3c87365d	0.016505415
6	0x389b5eaf	7.408612e-05

gat_net.1.linear_proj.weight f4 [7, 64]
0	0xbcf212ee	-0.029550042
1	0xbe8f7eac	-0.2802633
2	0xbe5aeadb	-0.21378653
3	0x3e194408	0.14967358
4	0x3e0447c6	0.12918004
5	0x3e8b211d	0.271737
6	0x3e5be3ef	0.21473669
7	0x3e8626a5	0.26201358
8	0x3e358663	0.17727046
9	0xbcdf9174	-0.027291037
10	0xbdeeda04	-0.11662677
11	0x3dff96ba	0.12479921
12	0x3e59d7ce	0.21273729
13	0xbe455a04	-0.1927262
14	0x3e5b32e8	0.21406138
15	0x3dab76ff	0.08372306
16	0x3e72b9a1	0.23703624
17	0x3de91ba9	0.11382229
18	0x3e8e24b0	0.27762365
19	0xbdd4ce0e	-0.10390864
20	0xbe07430f	-0.13209175
21	0xbe204750	-0.15652204
22	0x3d5b08ff	0.053475376
23	0xbd171dd7	-0.036893692
24	0xbc7bf2e5	-0.015377735
25	0xbe03ae55	-0.12859471
26	0xbe4df85e	-0.20114276
27	0x3e9b3be7	0.3031914
28	0xbd4bbe55	-0.04974206
29	0x3e17c825	0.14822443
30	0xbd928133	-0.07153549
31	0xbe04b781	-0.12960626
32	0xbbc3b644	-0.0059726555
33	0x3e1af07d	0.15130801
34	0x3ce41937	0.027844055
35	0x3b62d517	0.0034611875
36	0x3e63a8f7	0.22232424
37	0x3dd4014e	0.10351811
38	0xbe2cac79	-0.16862668
39	0x3e912eda	0.28356057
40	0xbe922c5b	-0.28549466
41	0xbc3cd6eb	-0.01152585
42	0xbde05a31	-0.10954703
43	0xbe9df105	-0.30847946
44	0xbe6a0b5f	-0.228559
45	0xbe0ed8cf	-0.13949893
46	0x3d88966a	0.06669314
47	0x3dcdbfe7	0.10046368
48	0xbdfb8e7b	-0.12283035
49	0x3d7ae979	0.061257813
50	0xbc910d4a	-0.017706532
51	0x3e7c22ec	0.24622697
52	0x3a009f42	0.0004906544
53	0xbe9966eb	-0.29961333
54	0xbe8c73b9	-0.2743204
55	0x3bec50d8	0.0072117858
56	0x3e1ead8a	0.15495887
57	0x3ea5d46b	0.32388625
58	0xbd011fe8	-0.03152457
59	0x3d338880	0.04383135
60	0x3d89e320	0.06732774
61	0xbd9fd39f	-0.078040354
62	0xbe35558d	-0.17708416
63	0xbe576ca5	-0.21037538
64	0x3d0262d9	0.03183255
65	0xbe5f90e6	-0.21832618
66	0xbe754ac0	-0.23954296
67	0x3e841fcc	0.2580551
68	0xbe92be14	-0.28660643
69	0xbcefba0c	-0.029263519
70	0x3d80c752	0.06288017
71	0x3d870893	0.06593432
72	0x3df2ec3b	0.11861464
73	0x3da177f9	0.07884211
74	0x3e31f6f2	0.17379358
75	0x3d8f6db3	0.07003345
76	0xbe442afc	-0.19157022
77	0x3d710160	0.058839202
78	0xbe190343	-0.1494265
79	0xbdcec812	-0.10096754
80	0xbd9c891d	-0.0764334
81	0xbd36cf51	-0.044631306
82	0xbe983116	-0.2972495
83	0x3e564c3d	0.2092752
84	0x3d912213	0.07086577
85	0xbc5b0f60	-0.013370365
86	0x3e8cf372	0.27529484
87	0xbd59b8f7	-0.05315491
88	0xbde020cc	-0.109437555
89	0xbe9d2da6	-0.3069889
90	0x3ddcbd4e	0.107782945
91	0x3e7a45e1	0.24440719
92	0xbe597e3a	-0.21239558
93	0xbe3c2549	-0.18373598
94	0xbc62a2d1	-0.013832764
95	0x3e8f030d	0.27932015
96	0xbe3820b3	-0.17981224
97	0x3e84b00e	0.2591557
98	0x3ea27fdb	0.3173817
99	0xbe9444d2	-0.28958756
100	0xbda46689	-0.080273695
101	0x3da9967d	0.082806565
102	0x3e824949	0.25446537
103	0x3dcf7f65	0.101317205
104	0xbe349ba3	-0.17637496
105	0xbe06bbf3	-0.13157634
106	0xbe8e8eef	-0.27843425
107	0xbd395585	-0.045247573
108	0x3ea434c7	0.32071516
109	0x3e33da95	0.17563851
110	0xbe972d18	-0.2952659
111	0xbea8795b	-0.32905087
112	0x3e87df07	0.26537344
113	0xbdbd05b9	-0.09229607
114	0x3e30de01	0.17272188
115	0xbe8a2371	-0.26980165
116	0xbd41a9ad	-0.047280956
117	0xbea347c6	-0.31890696
118	0x3dfc08f9	0.12306399
119	0x3e0dd92a	0.13852373
120	0x3e9da2e6	0.30788344
121	0x3cf2a574	0.02961991
122	0xbd01eb0f	-0.03171831
123	0x3e646bcd	0.22306748
124	0x3d96dc87	0.07366281
125	0xbc94bb8d	-0.018155837
126	0x3e4229fd	0.1896133
127	0xbe81a5e0	-0.25321865
128	0x3e5fd36d	0.21857996
129	0x3dac9690	0.08427155
130	0x3d8aed43	0.06783535
131	0x3e6984d8	0.22804582
132	0xbd089fa5	-0.033355374
133	0x3e4e29f9	0.20133199
134	0xbe99cc66	-0.30038756
135	0xbbd25a2c	-0.0064194407
136	0xbe29ecb4	-0.16594201
137	0xbe92f32d	-0.28701153
138	0x3c9f0d44	0.019415505
139	0x3ded4394	0.11585155
140	0x3dfbec0e	0.12300883
141	0xbdec58d3	-0.115403794
142	0xbe2cc3d1	-0.16871573
143	0xbe90d009	-0.28283718
144	0x3e0f790a	0.14011016
145	0xbe0138fd	-0.12619396
146	0x3da3cadf	0.07997679
147	0xbe2ec401	-0.17066957
148	0xbea35d00	-0.3190689
149	0x3ea98d80	0.33115768
150	0xbe82029e	-0.25392622
151	0x3db13223	0.08652141
152	0x3d0c9187	0.034318473
153	0x3d9479d2	0.07249798
154	0x3e44805d	0.19189592
155	0x3e276582	0.16347316
156	0x3ea3cca8	0.31992078
157	0x3e941c9c	0.28928077
158	0x3e1c6b73	0.15275364
159	0x3be59d71	0.007007294
160	0x3db9be90	0.0906955
161	0xbe8cbf86	-0.2748987
162	0x3e0d208d	0.13781948
163	0x3e4113f0	0.18855262
164	0x3e95ae1f	0.29234406
165	0x3e88a880	0.26691055
166	0x3e8eeabd	0.27913466
167	0xbe334954	-0.17508441
168	0x3e854622	0.2603007
169	0x3c6edb5e	0.014578668
170	0xbe877c12	-0.26461846
171	0x3e8418a5	0.25800052
172	0x3e4e28a9	0.20132698
173	0xbe0df929	-0.13864578
174	0xbea31b2e	-0.31856674
175	0x3e1cd178	0.15314281
176	0xbe066d66	-0.1312767
177	0xbdeda65b	-0.116039954
178	0x3bbf22ee	0.0058330214
179	0xbcb0938d	-0.021554733
180	0xbe2779ab	-0.16355006
181	0x3e1923cc	0.14955062
182	0x3d2afdf0	0.04174608
183	0x3ca6710d	0.020317579
184	0x3e2a2088	0.16613972
185	0x3bfbb8ae	0.0076819276
186	0x3d3e67ff	0.046485897
187	0xbe8fdcb8	-0.28098083
188	0x3da7c7cb	0.08192404
189	0x3e0ea052	0.13928345
190	0x3e18bad1	0.14915015
191	0xbe74df43	-0.23913293
192	0x3e801ca7	0.2502186
193	0xbe99115f	-0.29896066
194	0x3e012d3e	0.12614915
195	0x3c4bd3ee	0.012440665
196	0xbe7912ba	-0.2432355
197	0x3d4c3a52	0.049860306
198	0xbe9040a6	-0.28174323
199	0xbe3bc441	-0.18336584
200	0x3da6a50d	0.0813695
201	0xbe0f5d6d	-0.14000483
202	0xbe2a7428	-0.16645873
203	0xbea2fbbe	-0.3183269
204	0xbe8f2235	-0.27955785
205	0xbe939e47	-0.28831694
206	0xbe802e05	-0.2503511
207	0x3e77dde0	0.24205732
208	0x3e47992b	0.19492023
209	0x3e8efe51	0.27928403
210	0x3dd364ae	0.103219375
211	0x3e6677dd	0.22506662
212	0xbe92d9af	-0.28681704
213	0xbd4c6627	-0.049902108
214	0xbe38b3f1	-0.18037392
215	0x3e2e2523	0.17006354
216	0xbcbe430d	-0.023225332
217	0xbdcd990f	-0.10038959
218	0x3e0b5207	0.1360551
219	0xbe01a664	-0.12661129
220	0xbe49af10	-0.19695687
221	0xbe9a63f2	-0.30154377
222	0x3ea03412	0.31289726
223	0xbe3b31c2	-0.182807
224	0x3dbd1f76	0.09234516
225	0x3c1155d2	0.008870559
226	0x3ce47aaa	0.027890522
227	0xbc4d27a8	-0.012521662
228	0xbe53aea8	-0.20672095
229	0x3e1f90c3	0.15582566
230	0x3e3576bb	0.17721073
231	0xbe070e99	-0.13189162
232	0xbdb30d61	-0.08742786
233	0xbe84e382	-0.25954825
234	0x3e85ed22	0.2615748
235	0xbda438bb	-0.08018633
236	0x3d3c05a2	0.04590381
237	0xbdfcb256	-0.123387024
238	0x3d4215ea	0.04738418
239	0xbe1f92fa	-0.15583411
240	0xbd2453e3	-0.040119063
241	0x3b8c9885	0.0042906427
242	0xbdaf1e21	-0.085506685
243	0xbe990493	-0.29886302
244	0xbe49236c	-0.19642419
245	0x3da02e43	0.07821324
246	0x3e864da9	0.26231125
247	0x3e464db6	0.19365582
248	0x3da9501b	0.08267232
249	0x3e4d3501	0.2003975
250	0xbe88fb79	-0.26754358
251	0xbcc7f345	-0.024407992
252	0xbe91e993	-0.28498515
253	0x3e5f2aaf	0.21793626
254	0x3e8a9a1b	0.27070698
255	0x3cfcb0ea	0.030846078
